model_saved/epoch_59.pth (torch, 139407 bytes, 8 tensors)

weight f4 [128, 5]
-0.037818052 -0.41102988 0.1758919 -0.20169961 0.03602938 -0.23253396 -0.08928392 -0.009733334
-0.26895484 0.030709252 -0.076179065 -0.09005076 -0.0009960816 -0.08721536 -0.40492386 0.24086307
-0.04091468 0.2311488 -0.147704 0.34631768 0.3219199 0.039156936 -0.04613499 -0.092913896
-0.11431465 -0.24731763 0.17780955 -0.06802421 -0.24646893 0.32080293 -0.18381925 -0.17836499
-0.2891755 0.054504447 -0.3996424 0.36597034 0.008991147 -0.15405402 0.09485274 -0.30809173
-0.3583921 -0.21906401 -0.0038241774 -0.27081814 -0.3177299 0.13241838 0.37363377 -0.39454404
0.25611663 0.39871687 -0.2850987 0.40491948 -0.3863739 -0.38208306 -0.023249522 0.36256945
0.23897287 0.3051668 -0.26352727 -0.03656952 0.43215603 0.225368 -0.14792474 -0.16537456
0.120798044 -0.34666425 -0.05163498 -0.22537372 -0.18675748 -0.07952431 0.34478033 -0.11650453
-0.17791408 0.25032616 0.44025892 0.42056113 -0.3370452 -0.023172706 -0.31646898 0.34254164
0.19164269 -0.3989868 -0.37546912 -0.031058084 0.037764225 -0.3358596 -0.0859458 -0.26256168
-0.41019595 0.003483418 -0.0913886 0.38352045 -0.09116424 -0.24823257 0.27276227 -0.42923453
0.2245797 -0.21096823 0.07044713 0.20564748 -0.3567215 0.3097729 -0.27320004 -0.16271484
-0.05478711 -0.3211619 0.069599174 -0.400319 0.049123064 0.15345128 0.42305124 0.2710241
0.105634555 -0.068948865 -0.22845939 0.09202947 0.39603278 0.44664747 -0.070867985 0.035815537
-0.19114004 -0.34030536 0.26824874 0.20605682 0.060609594 0.4030131 0.4461158 0.17518461
0.4396286 0.20685947 -0.41381317 0.3260908 0.21025598 -0.3438747 -0.28105652 0.047335684
-0.12867719 -0.14363675 -0.2621458 -0.25847867 -0.3454174 -0.11790873 0.053358342 -0.2959105
-0.018958133 -0.15394324 0.11467692 -0.38914576 -0.0018880973 -0.41969478 0.122997 -0.1867546
0.021719847 -0.43986815 -0.049128406 -0.22263275 -0.37482595 0.07071061 0.13819541 0.048892308
-0.31766614 0.09402847 -0.3532518 -0.055071447 -0.049022023 -0.13615188 -0.16278249 -0.22101632
-0.12664048 0.39091352 -0.08195988 0.3130358 -0.09403221 0.45947087 -0.086886905 -0.21120355
-0.2661235 -0.29497096 -0.36988762 -0.023702202 -0.124909736 0.23109636 -0.41749144 0.18464002
-0.3249439 -0.044491425 0.38953558 0.41996557 0.3939911 0.110341325 -0.057639338 -0.10613325
-0.13829425 0.39418277 0.3424118 0.014704875 0.44251454 0.3251915 -0.37870255 -0.26737437
-0.20944874 -0.39968124 0.09498532 0.3919765 0.12557214 0.012743897 0.003794565 0.37393293
-0.15790701 0.014078012 -0.20149218 0.36625674 -0.24605691 0.3055613 0.19049582 -0.074139416
0.3796449 -0.23035519 0.13410811 0.28650346 -0.08306662 0.25702304 0.272502 -0.15221497
-0.44500747 -0.2812246 -0.07649709 0.14366436 -0.24228759 -0.19044502 -0.329026 0.06026351
0.1417792 0.35249245 -0.14607552 -0.26242396 -0.12805296 0.30962473 -0.11974747 0.34441578
0.25092113 -0.41201946 -0.053293623 0.16944252 -0.2671093 0.06676146 -0.092084095 0.12155577
-0.23947388 -0.09843874 0.11594216 -0.41262373 -0.3845634 0.29386753 -0.22745538 0.032023463
00000000: 1ae7 1abd 8272 d2be 021d 343e 588a 4ebe
00000010: 8b93 133d 621d 6ebe 7dda b6bd 9078 1fbc
00000020: 73b4 89be f891 fb3c c503 9cbd 886c b8bd
00000030: f48e 82ba f79d b2bd 2e52 cfbe cfa4 763e
00000040: 2796 27bd 45b2 6c3e b83f 17be 8d50 b13e
00000050: afd2 a43e 0663 203d 0bf8 3cbd a449 bebd
00000060: cd1d eabd d540 7dbe b513 363e 4750 8bbd
00000070: 5a62 7cbe 4840 a43e 1d3b 3cbe 50a5 36be
00000080: d00e 94be 0e40 5f3d ee9d ccbe 7760 bb3e
00000090: 9b4f 133c 56c0 1dbe 2742 c23d 33be 9dbe
000000a0: 2b7f b7be 5152 60be 0d9f 7abb ada8 8abe
000000b0: 7ead a2be af98 073e ed4c bf3e ad01 cabe
000000c0: b821 833e 9e24 cc3e 75f8 91be 9b51 cf3e
000000d0: cdd2 c5be 64a0 c3be c875 bebc b4a2 b93e
000000e0: 4eb5 743e d33e 9c3e 0ced 86be ecc9 15bd
000000f0: 8e43 dd3e dec6 663e 9579 17be f357 29be
00000100: f764 f73d fa7d b1be 337f 53bd 5ec8 66be
00000110: 5a3d 3fbe a4dd a2bd 0c87 b03e ed99 eebd
00000120: 1c2f 36be c02a 803e 9e69 e13e ca53 d73e
00000130: 3091 acbe b0d4 bdbc 3908 a2be 9e61 af3e
00000140: fb3d 443e ff47 ccbe 7d3d c0be 866d febc
00000150: a9ae 1a3d caf5 abbe 5a04 b0bd 7c6e 86be
00000160: 3405 d2be 0e4a 643b f229 bbbd cb5c c43e
00000170: 51b4 babd ae30 7ebe 7fa7 8b3e a1c4 dbbe
00000180: 39f8 653e 0e08 58be 9646 903d 4195 523e
00000190: 33a4 b6be 8e9a 9e3e e0e0 8bbe b89e 26be
000001a0: 7368 60bd 556f a4be 038a 8e3d 9df6 ccbe
000001b0: 4435 493d 5522 1d3e 2c9a d83e acc3 8a3e
000001c0: ee56 d83d 1035 8dbd 42f1 69be f279 bc3d
000001d0: cfc4 ca3e faae e43e 3c23 91bd 50b3 123d
000001e0: 37ba 43be 813c aebe e657 893e 8f00 533e
000001f0: c441 783d bc57 ce3e 4a69 e43e 9863 333e
00000200: 0017 e13e f8d2 533e 52df d3be 60f5 a63e
00000210: 584d 573e 5810 b0be a4e6 8fbe 10e3 413d
00000220: f4c3 03be 8315 13be f937 86be 5157 84be
00000230: 8dda b0be 227a f1bd 478e 5a3d 9581 97be
00000240: 164e 9bbc 4ca3 1dbe bcdb ea3d 1d3e c7be
00000250: 087a f7ba 3ce2 d6be dae5 fb3d 993c 3fbe
00000260: d2ed b13c 6636 e1be de3a 49bd d7f9 63be
00000270: 30e9 bfbe b9d0 903d 1983 0d3e 4d43 483d
00000280: 23a5 a2be 0092 c03d 6cdd b4be 9992 61bd
00000290: 51cb 48bd 666b 0bbe 74b0 26be 1a52 62be
000002a0: 0bae 01be d125 c83e 95da a7bd 3a46 a03e
000002b0: f693 c0bd c43f eb3e c3f1 b1bd be45 58be
000002c0: 5741 88be 6f06 97be e961 bdbe 1f2b c2bc
000002d0: add0 ffbd 86a4 6c3e 70c1 d5be 4612 3d3e
000002e0: 0c5f a6be a43c 36bd 3571 c73e ba05 d73e
000002f0: 34b9 c93e a2fa e13d 3a17 6cbd 645c d9bd
00000300: 029d 0dbe 53d2 c93e 9950 af3e b7ec 703c
00000310: 4491 e23e 807f a63e 4de5 c1be 4be5 88be
00000320: bb79 56be 05a3 ccbe aa87 c23d 25b1 c83e
00000330: fc95 003e c7cb 503c 3dae 783b 2374 bf3e
00000340: 60b2 21be 76a7 663c f753 4ebe 0186 bb3e
00000350: 58f6 7bbe 8872 9c3e 5611 433e 68d6 97bd
00000360: d160 c23e 3be2 6bbe a353 093e 95b0 923e
00000370: d51e aabd 8698 833e 6285 8b3e 3ede 1bbe
00000380: 05d8 e3be acfc 8fbe 82aa 9cbd c01c 133e
00000390: 3d1a 78be 0504 43be 1976 a8be dfd6 763d
000003a0: 912e 113e e479 b43e d294 15be 6f5c 86be
000003b0: 5120 03be 2287 9e3e 293e f5bd 4457 b03e
000003c0: bc78 803e 37f4 d2be 6a4a 5abd 5782 2d3e
000003d0: 8dc2 88be 3bba 883d 9696 bcbd 3bf2 f83d
000003e0: a438 75be 409a c9bd 1573 ed3d 6b43 d3be
000003f0: 7ee5 c4be ce75 963e 10ea 68be 092b 033d

bias f4 [128]
-0.34020722 0.27076754 0.37128285 0.3758106 0.3326704 -0.05497466 0.34956807 -0.2573202
0.11049649 0.02683974 0.17890422 -0.2987662 -0.11971614 -0.25174153 0.224844 0.2732053
0.28990868 0.4214288 -0.41752926 0.29902273 0.22192363 0.23130804 -0.41001293 0.21658488
0.3054105 -0.05293971 -0.29110503 -0.44060856 0.39307806 0.054331392 -0.10151679 0.0945311
0.3263019 0.23491381 -0.1700977 -0.36268303 0.2961648 0.0053556403 -0.19275838 0.09016421
0.38748905 -0.057897363 0.2620458 0.18308802 -0.18340985 0.0003128882 0.3372416 0.23252928
-0.055793293 0.18784739 0.45964673 0.4323511 -0.25137436 0.11342329 0.39298514 -0.3351089
-0.08826369 0.19523083 -0.4383663 -0.27778447 0.42133173 0.20698157 -0.4118864 -0.34090272
0.31610668 -0.016069224 0.23254031 -0.21676095 0.20572025 -0.3560935 0.45974517 -0.32542047
0.28131062 -0.062571 -0.30946952 0.15699631 0.32891196 -0.3705051 -0.20671178 -0.024340382
-0.4466889 -0.09993476 0.21971713 0.15522867 0.14780782 0.3694591 -0.40246877 -0.1286347
0.41437507 -0.16495878 -0.16408496 -0.17395987 0.3930644 0.16780567 -0.30435014 -0.19743797
0.21323898 -0.15810531 -0.21039648 -0.030516865 0.32544094 0.2624836 -0.38796884 0.13103932
-0.04725916 0.17342407 -0.33172706 -0.2752376 0.008949068 0.4335881 0.08575437 -0.26299956
0.31156173 0.4400056 -0.17821936 -0.14456892 0.24909557 0.37266177 0.179335 -0.41631076
-0.19846976 0.10349147 -0.2368802 -0.16690312 0.13741308 -0.039726887 -0.07010251 -0.35060266
00000000: a42f aebe 0ba2 8a3e c918 be3e 3f6a c03e
00000010: c653 aa3e 1c2d 61bd 96fa b23e 79bf 83be
00000020: fc4b e23d 04df db3c ab32 373e e2f7 98be
00000030: bc2d f5bd 44e4 80be 813d 663e 91e1 8b3e
00000040: e96e 943e 84c5 d73e 65c6 d5be 8219 993e
00000050: f33f 633e 04dc 6c3e 37ed d1be 6dc8 5d3e
00000060: c45e 9c3e 4fd7 58bd b80b 95be 7297 e1be
00000070: 8741 c93e 988a 5e3d 09e8 cfbd 8599 c13d
00000080: 0b11 a73e 3f8d 703e 172e 2ebe 97b1 b9be
00000090: eaa2 973e 5e7e af3b 7462 45be 03a8 b83d
000000a0: f764 c63e c925 6dbd de2a 863e 6d7b 3b3e
000000b0: cbcf 3bbe 250b a439 eeaa ac3e 281c 6e3e
000000c0: 8287 64bd 115b 403e d156 eb3e 205d dd3e
000000d0: 24b4 80be 784a e83d 5935 c93e 6593 abbe
000000e0: 98c3 b4bd 97ea 473e 8c71 e0be c439 8ebe
000000f0: cbb8 d73e faf2 533e c6e2 d2be cd8a aebe
00000100: bcd8 a13e 9ba3 83bc 0c1f 6e3e 95f6 5dbe
00000110: 54a8 523e e351 b6be b863 eb3e 839d a6be
00000120: f207 903e 3925 80bd ca72 9ebe a4c3 203e
00000130: 2667 a83e d8b2 bdbe 41ac 53be 7b65 c7bc
00000140: 68b4 e4be 98aa ccbd 87fd 603e 44f4 1e3e
00000150: ef5a 173e be29 bd3e 6310 cebe d1b8 03be
00000160: f828 d43e f4ea 28be e305 28be 8922 32be
00000170: bd3f c93e 40d5 2b3e c8d3 9bbe 2e2d 4abe
00000180: 525b 5a3e 5ce6 21be 2d72 57be 81fe f9bc
00000190: 32a0 a63e 4064 863e daa3 c6be 2c2f 063e
000001a0: d292 41bd 1496 313e 21d8 a9be f1eb 8cbe
000001b0: 1d9f 123c 42ff dd3e fd9f af3d e1a7 86be
000001c0: 0585 9f3e 6a48 e13e 237f 36be e009 14be
000001d0: e912 7f3e 86cd be3e 98a3 373e af26 d5be
000001e0: a83b 4bbe 56f3 d33d b990 72be a7e8 2abe
000001f0: 04b6 0c3e a9b8 22bd e891 8fbd 3182 b3be

weight f4 [128, 128]
-0.062057167 -0.007646376 0.019080942 -0.08801271 -0.06830326 0.0386709 0.033534203 0.016613064
0.021469994 0.07384546 -0.074589774 0.085305445 -0.08227598 0.043520402 0.024499815 -0.075089976
0.055130847 0.04545645 0.05828186 -0.012969723 -0.030923247 -0.08766345 0.04279967 -0.030644668
0.035712752 -0.042299535 0.017817602 0.0028107627 -0.032515693 -0.074434735 0.061032735 -0.079590194
-0.07612617 0.06052909 0.083064295 0.025439627 0.011500874 -0.08454776 -0.0364526 0.035742506
-0.007474185 -0.0022330664 0.048813067 -0.057714164 0.08597615 -0.0017021216 -0.036587227 0.014587645
-0.011305882 0.025219694 0.07296305 0.0068347016 0.070148826 0.024946086 -0.015049733 0.0012877443
0.051260892 -0.05606536 0.014019264 0.0048706373 -0.020350173 0.077559106 0.037469033 -0.03624374
-0.029357798 -0.04312279 0.05819205 0.057634518 -0.064143784 -0.02666905 0.017078198 -0.026111817
-0.05403149 -0.0017702519 0.039830964 -0.02617944 -0.02171749 -0.043911505 -0.0744007 -0.06725755
-0.036952153 -0.03686843 0.08406614 -0.048283756 0.045120064 -0.030232608 -0.01918417 -0.039782103
-0.030435883 -0.015904935 0.012192978 -0.07980884 0.043184776 -0.05415501 -0.013158952 -0.03376187
0.07002212 -0.087255396 0.032465097 0.059457835 0.041939043 -0.0634605 0.066313595 0.023084598
-0.07980982 -0.020018036 0.066695556 0.013596731 -0.07581758 0.07847571 -0.029011646 0.05591041
-0.053060196 0.018361496 -0.060375582 0.040399894 -0.017805105 -0.007608697 -0.026556665 -0.007393653
0.0068395273 0.0401562 0.03833336 -0.06290484 -0.053986445 -0.013275509 0.08763296 -0.06958306
-0.068872124 0.036955558 0.075976394 0.024443 -0.07599323 -0.038045064 0.021298572 -0.061752845
0.07295671 -0.06153366 0.07831886 -0.0068017845 -0.07491889 0.054460745 -0.04251218 -0.0689521
-0.029429985 0.082199514 -0.07169251 0.024296477 0.010180087 0.014092515 -0.03752865 0.034442995
0.07664721 -0.032810353 0.06382469 0.0048379838 0.0046699867 -0.018391442 0.06701603 -0.058014084
-0.04998161 -0.060149644 -0.0062839473 -0.07730341 0.07450738 0.009625803 -0.060623184 0.032417174
-0.05685397 0.081096604 0.039178222 0.086722985 -0.05716273 0.0123165315 -0.058072645 0.0025786601
0.020485643 -0.06692535 -0.07105223 -0.06162256 -0.062807456 0.057526536 -0.07377248 -0.04100997
0.006397533 -0.06734923 0.011357006 0.03278321 -0.07423065 0.056910835 -0.026491981 -0.010899417
0.018737445 0.086648695 -0.07922286 -0.03784596 -0.023085704 0.061521605 0.054108776 -0.06468378
-0.017106226 0.005729485 -0.066729404 0.08289499 0.03766924 -0.016254384 0.054184377 -0.0281964
0.009147246 -0.043095596 -0.0756704 0.07768656 -0.08311194 -0.084736556 0.041831862 0.061622642
-0.015870154 -0.06220587 -0.065183654 0.024471618 0.026255274 0.07776997 -0.019720731 -0.052633468
0.01905108 -0.082915254 0.073769726 -0.006599459 -0.064836994 0.031241393 0.009437196 0.049912617
0.028762147 0.070673764 -0.026709227 -0.0566365 -0.045878075 0.066085495 0.008702871 -0.03745621
-0.07207537 -0.07158869 -0.0032025494 0.053442013 -0.020131389 -0.08559763 0.062860146 -0.018336924
-0.02170276 -0.0020760484 -0.033744432 -0.020688044 -0.06720594 0.08357533 -0.025967453 0.011292511
00000000: a82f 7ebd 738e fabb a34f 9c3c 0240 b4bd
00000010: 94e2 8bbd 6165 1e3d 295b 093d 1f18 883c
00000020: d7e1 af3c 4a3c 973d 86c2 98bd 9fb4 ae3d
00000030: 4f80 a8bd 7342 323d d6b3 c83c c6c8 99bd
00000040: e2d0 613d 8b30 3a3d f6b8 6e3d f67e 54bc
00000050: c052 fdbc e588 b3bd b54e 2f3d 870a fbbc
00000060: 8947 123d 4742 2dbd 38f6 913c c634 383b
00000070: 2d2f 05bd 3d71 98bd 76fd 793d 2f00 a3bd
00000080: 0ae8 9bbd 5aed 773d 9d1d aa3d c466 d03c
00000090: 296e 3c3c 6027 adbd 524f 15bd bc66 123d
000000a0: 02ea f4bb a358 12bb 36f0 473d b065 6cbd
000000b0: 4414 b03d b919 dfba 7ddc 15bd 0501 6f3c
000000c0: 4e3c 39bc 8899 ce3c a76d 953d a2f5 df3b
000000d0: 30aa 8f3d bc5b cc3c 2893 76bc 87c9 a83a
000000e0: f1f6 513d caa4 65bd 0eb1 653c de99 9f3b
000000f0: 68b5 a6bc 4fd7 9e3d 2179 193d 5174 14bd
00000100: c47f f0bc 86a1 30bd c95a 6e3d 2c12 6c3d
00000110: d15d 83bd 0d79 dabc 94e7 8b3c 73e8 d5bc
00000120: 2050 5dbd cc07 e8ba cb25 233d 4476 d6bc
00000130: e1e8 b1bc 8ddc 33bd 655f 98bd 54be 89bd
00000140: 245b 17bd 5a03 17bd de2a ac3d 30c5 45bd
00000150: d1cf 383d 60aa f7bc 1f28 9dbc 8ff2 22bd
00000160: ac54 f9bc 114b 82bc 0ec5 473c d172 a3bd
00000170: 85e2 303d a5d1 5dbd a598 57bc e349 0abd
00000180: c267 8f3d f5b2 b2bd 1ffa 043d 0f8a 733d
00000190: 46c8 2b3d 94f7 81bd 6ccf 873d e91b bd3c
000001a0: 5573 a3bd ddfc a3bc ae97 883d d3c4 5e3c
000001b0: 3f46 9bbd dfb7 a03d d5a9 edbc 5002 653d
000001c0: a655 59bd d96a 963c 634c 77bd 5c7a 253d
000001d0: 03dc 91bc 6052 f9bb 5d8d d9bc 7546 f2bb
000001e0: 1d1e e03b d47a 243d 7103 1d3d 41d4 80bd
000001f0: e420 5dbd 8581 59bc e978 b33d 9081 8ebd
00000200: d40c 8dbd b65e 173d 8399 9b3d b03c c83c
00000210: 57a2 9bbd 24d5 1bbd 587a ae3c 8df0 7cbd
00000220: 546a 953d b80a 7cbd a365 a03d 81e1 debb
00000230: 136f 99bd 3b12 5f3d 4021 2ebd c236 8dbd
00000240: 2717 f1bc 3858 a83d 86d3 92bd 6809 c73c
00000250: 61ca 263c 4be4 663c a4b7 19bd 1914 0d3d
00000260: 36f9 9c3d 2664 06bd 85b6 823d f387 9e3b
00000270: b006 993b a6a9 96bc b33f 893d 2da0 6dbd
00000280: 84b9 4cbd 795f 76bd 92e9 cdbb 4051 9ebd
00000290: 5397 983d 8bb5 1d3c 0450 78bd dfc7 043d
000002a0: b5df 68bd fa15 a63d 5879 203d d29b b13d
000002b0: 7723 6abd 47cb 493c 95dd 6dbd bdfe 283b
000002c0: 82d1 a73c 2810 89bd d583 91bd f067 7cbd
000002d0: 32a1 80bd f2a0 6b3d 0716 97bd 12fa 27bd
000002e0: 66a2 d13b 65ee 89bd bc12 3a3c b047 063d
000002f0: 3d06 98bd 561b 693d b605 d9bc 7893 32bc
00000300: 457f 993c df74 b13d 983f a2bd 5e04 1bbd
00000310: 3b1e bdbc 14fe 7b3d 2aa1 5d3d ee78 84bd
00000320: 5b22 8cbc 67be bb3b 6da9 88bd d9c4 a93d
00000330: 104b 1a3d ea27 85bc 70f0 5d3d 23fc e6bc
00000340: 55de 153c 0285 30bd 15f9 9abd 221a 9f3d
00000350: 9836 aabd 5c8a adbd e357 2b3d 0668 7c3d
00000360: 2002 82bc 95cb 7ebd 027f 85bd b478 c83c
00000370: 4d15 d73c dd45 9f3d 5f8d a1bc 3196 57bd
00000380: 0311 9c3c 79cf a9bd 9514 973d 4640 d8bb
00000390: 42c9 84bd f3ed ff3c 789e 1a3c 2c71 4c3d
000003a0: 989e eb3c 68bd 903d 4fcd dabc adfb 67bd
000003b0: a6ea 3bbd d557 873d 7d96 0e3c af6b 19bd
000003c0: 409c 93bd 179d 92bd dde1 51bb 03e6 5a3d
000003d0: 95ea a4bc cf4d afbd d2bc 803d 5137 96bc
000003e0: fdc9 b1bc 500e 08bb 9a37 0abd f979 a9bc
000003f0: 45a3 89bd 8b29 ab3d b2b9 d4bc 3904 393c

bias f4 [128]
-0.07362896 -0.08058633 0.010525936 -0.08319548 -0.010123332 -0.043650776 0.0781423 0.027520709
-0.058764387 -0.05564678 0.06452328 -0.017711928 0.079411045 -0.021728 0.005706979 -0.040795173
-0.0012250824 -0.034218024 0.05462756 -0.06836656 0.05511961 0.07866925 0.078526355 0.041261014
-0.05961816 0.0869996 0.06361676 0.03347662 0.062083 -0.036475267 -0.06200018 -0.014833104
0.067952864 -0.07695362 0.05741699 -0.025716009 0.05976412 0.0852172 0.0741436 0.08933704
0.002155008 0.044528946 -0.02530539 0.0126415305 0.04447204 0.021398894 0.05024316 0.07706134
-0.050941885 0.018504879 0.07146316 0.06702929 -0.025314756 0.034905404 6.638658e-05 -0.058847588
0.014760933 -0.05044213 0.022730973 0.100167766 -0.018191038 0.039534148 -0.019795155 0.07875371
0.08634978 0.0030704897 0.04980739 0.071724884 -0.06280912 0.047882266 0.049848124 0.020077022
0.048481654 -0.01881287 0.048859276 -0.010101332 -0.06319572 -0.028244996 -0.058820006 0.013871904
-0.02670005 0.0069249156 0.05172503 -0.09115399 0.017543433 0.07671222 0.01290075 -0.037050243
0.08419878 -0.026191885 0.060337406 0.051567957 -0.08300981 0.05329723 0.026123948 -0.08039374
-0.001760138 0.031696536 0.03378385 -0.074276365 -0.016709827 -0.057650477 -0.07691294 0.0930131
-0.0006192869 0.060348343 0.08822155 0.031358667 -0.019596554 -0.004274697 -0.025860032 -0.028396918
-0.07561136 0.0025261266 0.009240228 -0.011822849 -0.087613456 0.06277305 0.061298493 0.016613156
-0.014568195 -0.036552224 0.05826173 -0.0016697 0.025747593 -0.014717838 -0.05625113 -0.051207438
00000000: c8ca 96bd 720a a5bd fa74 2c3c 6462 aabd
00000010: 55dc 25bc 28cb 32bd 1209 a03d 1c73 e13c
00000020: edb2 70bd e1ed 63bd c824 843d 9b18 91bc
00000030: 42a2 a23d ebfe b1bc 9c01 bb3b d718 27bd
00000040: f292 a0ba 3328 0cbd 26c1 5f3d c403 8cbd
00000050: 1ac5 613d 581d a13d 6dd2 a03d 4f01 293d
00000060: 2c32 74bd d92c b23d 8149 823d c81e 093d
00000070: be4a 7e3d 1767 15bd e7f3 7dbd 8c06 73bc
00000080: df2a 8b3d dc99 9dbd 142e 6b3d 61aa d2bc
00000090: 39cb 743d 5b86 ae3d 9ad8 973d 57f6 b63d
000000a0: 093b 0d3b fc63 363d 404d cfbc 6c1e 4f3c
000000b0: 5028 363d bc4c af3c c6cb 4d3d 56d2 9d3d
000000c0: 70a8 50bd 8b97 973c 475b 923d a746 893d
000000d0: e460 cfbc f8f8 0e3d 0639 8b38 2b0a 71bd
000000e0: d7d7 713c 689c 4ebd 4e36 ba3c c224 cd3d
000000f0: 5f05 95bc 8fee 213d 7329 a2bc a049 a13d
00000100: 27d8 b03d 453a 493b d502 4c3d 7fe4 923d
00000110: 11a2 80bd 3220 443d 8c2d 4c3d 9178 a43c
00000120: b394 463d 731d 9abc aa20 483d 0f80 25bc
00000130: c26c 81bd 0d62 e7bc 3fed 70bd fc46 633c
00000140: 10ba dabc 67ea e23b a0dd 533d f1ae babd
00000150: 3fb7 8f3c 4c1b 9d3d ab5d 533c ffc1 17bd
00000160: 6970 ac3d 5d90 d6bc 5b24 773d ec38 533d
00000170: 0c01 aabd 324e 5a3d e401 d63c 79a5 a4bd
00000180: 6eb4 e6ba 3ad4 013d ef60 0a3d 351e 98bd
00000190: 0ce3 88bc e822 6cbd 8884 9dbd a77d be3d
000001a0: a457 22ba d32f 773d 80ad b43d f271 003d
000001b0: f488 a0bc c212 8cbb 6bd8 d3bc a7a0 e8bc
000001c0: 21da 9abd 5f8d 253b 5364 173c 9fb4 41bc
000001d0: af6e b3bd 288f 803d 2114 7b3d 5018 883c
000001e0: 70af 6ebc c9b7 15bd daa3 6e3d d6d9 daba
000001f0: 9eec d23c 1623 71bc 9667 66bd e4be 51bd

weight f4 [128, 128]
-0.02421779 0.0040207673 0.04069669 0.0733582 -0.028795412 -0.07188064 -0.035012968 -0.00096138014
0.012376411 0.0720651 -0.04996557 0.0299036 0.068086095 0.081162386 -0.052921247 -0.014556499
0.060229227 -0.084016204 -0.06922011 -0.079026386 0.026543537 -0.042484287 0.0011923133 -0.006110155
0.002307698 -0.032674648 0.07679691 0.040789783 0.005583372 0.029271038 -0.03451829 0.082506455
-0.009015243 -0.029433187 -0.02034539 -0.023956425 -0.07924986 -0.061588313 0.008740466 -0.0597346
-0.055307876 0.07610252 0.025438426 -0.082208596 -0.062321313 0.07642487 0.054552246 0.031160977
-0.0746193 0.084990054 0.023854632 -0.07667374 0.024736945 0.01201986 -0.08309221 -0.049154192
0.06496331 0.05708405 -0.052840356 0.041152794 -0.05323388 0.056191072 0.051752273 -0.054657888
0.012816361 -0.011714738 -0.012310399 0.023194358 0.05728978 -0.008758874 0.02719362 0.084854186
0.05005664 0.07833741 -0.051061157 -0.04838613 -0.08414716 0.04978393 0.009608754 0.059175722
0.0036492636 -0.03474311 -0.011595473 0.035113625 -0.04577115 0.041462563 -0.03490956 0.0571434
0.013985557 -0.062543906 0.03118068 -0.0022638969 0.00513808 0.065784305 0.06299755 -0.0062219496
0.041275103 0.018655006 0.059335712 -0.0316874 0.05772212 -0.0323409 -0.045613922 0.04796132
0.016195443 0.0010310278 -0.03078959 -0.027634066 -0.045212008 -0.0036493165 -0.08277746 -0.03474567
0.08628519 0.0143567445 -0.083566956 -0.014229377 0.07913944 0.021109924 -0.07945565 0.0153994365
-0.023388792 -0.06907205 -0.04113648 0.05266825 0.0043213796 -0.000109782 -0.08250235 0.071181096
0.070854016 -0.037170317 -0.000654066 0.07692935 -0.017073873 0.036453616 0.07442791 -0.074682124
-0.117492564 -0.056732457 0.049130417 -0.07397695 -0.03337997 -0.14251977 0.011241544 -0.00919455
-0.02787757 -0.1374662 -0.07828389 -0.036626946 -0.036619946 -0.0061078663 0.028323336 -0.12005651
0.06500472 0.02506288 0.044629328 0.106464095 -0.03696465 -0.032907803 -0.07348127 -0.005864287
0.031017479 -0.06561501 0.05833718 -0.058790304 0.08313778 0.00936546 0.019655328 0.07313349
-0.0635685 -0.032048736 -0.006459986 -0.022829056 0.087401494 -0.077055015 -0.0061929584 -0.06963044
0.06592601 -0.0232797 -0.02435615 0.0045857597 -0.06111172 -0.012175791 0.049681783 -0.0010168559
0.042466164 -0.08793342 0.12260037 0.07285829 -0.058641974 0.029409923 0.075617775 0.05784776
-0.102468245 -0.009827483 0.046892602 0.07041867 -0.0023993358 -0.0011033308 0.10184843 -0.09035397
0.004305854 -0.036804523 -0.09008378 0.115152575 -0.01143963 -0.07127964 -0.022250928 0.025658539
-0.022090638 -0.050288126 -0.040995505 0.06628808 0.04770125 0.110852405 0.0047709527 -0.030367972
-0.018350188 0.105554886 -0.1300455 -0.064851634 -0.08946488 -0.11060412 -0.025025623 0.022491686
-0.072418235 -0.11115797 0.06041253 -0.12773322 -0.02958332 0.009682764 -0.04230431 0.002975988
0.029277392 -0.08114862 0.020661794 0.030364623 -0.04648174 -0.028420057 -0.038329888 -0.011196183
0.027479494 -0.12942208 -0.0731209 -0.09917188 0.059165593 -0.037347373 -0.058800705 -0.011053032
0.0067502977 0.037134703 0.0673107 -0.043262728 -0.04520733 -0.06732729 -0.0024405343 -0.07088036
00000000: 6364 c6bc a4c0 833b 93b1 263d d33c 963d
00000010: 5be4 ebbc 2836 93bd c269 0fbd 2105 7cba
00000020: 6ec6 4a3c de96 933d b3a8 4cbd 65f8 f43c
00000030: b970 8b3d 7738 a63d f3c3 58bd 627e 6ebc
00000040: ecb2 763d b010 acbd 46c3 8dbd 96d8 a1bd
00000050: d571 d93c 0104 2ebd 6547 9c3a b237 c8bb
00000060: bf3c 173b dad5 05bd b347 9d3d 3013 273d
00000070: b8f4 b63b d1c9 ef3c 0d63 0dbd 25f9 a83d
00000080: abb4 13bc de1d f1bc 60ab a6bc 4440 c4bc
00000090: c04d a2bd 0744 7cbd 2c34 0f3c 45ac 74bd
000000a0: 838a 62bd a3db 9b3d 3f64 d03c fb5c a8bd
000000b0: a244 7fbd a484 9c3d 2d72 5f3d 4e45 ff3c
000000c0: 01d2 98bd 440f ae3d ca6a c33c 1f07 9dbd
000000d0: 22a5 ca3c f2ee 443c 402c aabd e855 49bd
000000e0: 7c0b 853d f7d0 693d 216f 58bd d58f 283d
000000f0: c50b 5abd 9c28 663d 31fa 533d f3e0 5fbd
00000100: b7fb 513c 2cef 3fbc 8eb1 49bc 1802 be3c
00000110: b0a8 6a3d 6181 0fbc 28c5 de3c 08c8 ad3d
00000120: 3108 4d3d 5d6f a03d 8125 51bd 8930 46bd
00000130: 5955 acbd 3cea 4b3d 096e 1d3c 3e62 723d
00000140: 7c28 6f3b cb4e 0ebd f0fa 3dbc 4ed3 0f3d
00000150: 887a 3bbd a6d4 293d 54fd 0ebd 330f 6a3d
00000160: ad23 653c 0517 80bd a06e ff3c e35d 14bb
00000170: 575d a83b ecb9 863d dc04 813d 7fe1 cbbb
00000180: 1510 293d 62d2 983c 010a 733d a6ca 01bd
00000190: 086e 6c3d e477 04bd aad5 3abd 1773 443d
000001a0: 4eac 843c 8d23 873a 733a fcbc d660 e2bc
000001b0: 3a30 39bd 5f29 6fbb 3b87 a9bd 7a51 0ebd
000001c0: 4ab6 b03d 8d38 6b3c 2725 abbd 5522 69bc
000001d0: dc13 a23d b8ee ac3c a5b9 a2bd eb4d 7c3c
000001e0: da99 bfbc a675 8dbd ba7e 28bd aaba 573d
000001f0: 5c9a 8d3b c33a e6b8 fef6 a8bd 65c7 913d
00000200: e91b 913d e73f 18bd a075 2bba 238d 9d3d
00000210: 82de 8bbc 6350 153d a96d 983d f1f2 98bd
00000220: f19f f0bd 4b60 68bd fa3c 493d 3a81 97bd
00000230: 6fb9 08bd b4f0 11be 742e 383c bda4 16bc
00000240: 805f e4bc f1c3 0cbe 4e53 a0bd 2306 16bd
00000250: ccfe 15bd 7f24 c8bb 5706 e83c 30e0 f5bd
00000260: 3221 853d ab50 cd3c 3ecd 363d d909 da3d
00000270: 3f68 17bd 55ca 06bd 597d 96bd 3429 c0bb
00000280: 5e18 fe3c 2a61 86bd f8f2 6e3d 1ace 70bd
00000290: 2444 aa3d 9671 193c 3604 a13c 03c7 953d
000002a0: 3430 82bd 8945 03bd 4aae d3bb 0004 bbbc
000002b0: 8eff b23d 05cf 9dbd 4dee cabb 679a 8ebd
000002c0: 3704 873d 12b5 bebc 8c86 c7bc 2444 963b
000002d0: 4850 7abd f87c 47bc 207f 4b3d 0648 85ba
000002e0: 00f1 2d3d 7016 b4bd e715 fb3d ba36 953d
000002f0: 9132 70bd 14ed f03c 7edd 9a3d c6f1 6c3d
00000300: dfda d1bd 7403 21bc 7512 403d aa37 903d
00000310: 2d3e 1dbb a39d 90ba e995 d03d 810b b9bd
00000320: 1f18 8d3b 57c0 16bd d87d b8bd 1dd5 eb3d
00000330: 496d 3bbc 0ffb 91bd 9447 b6bc db31 d23c
00000340: 6df7 b4bc ecfa 4dbd e7ea 27bd 0bc2 873d
00000350: 6362 433d 9606 e33d a755 9c3b 41c6 f8bc
00000360: 2253 96bc 292d d83d a62a 05be efd0 84bd
00000370: 5d39 b7bd 6a84 e2bd 8902 cdbc 7c40 b83c
00000380: 0350 94bd caa6 e3bd 2173 773d 7fcc 02be
00000390: b858 f2bc 75a4 1e3c 4947 2dbd cb08 433b
000003a0: 24d7 ef3c 3f31 a6bd ec42 a93c 3bbf f83c
000003b0: a363 3ebd 2ed1 e8bc cdff 1cbd 3270 37bc
000003c0: ad1c e13c 3987 04be 69c0 95bd a01a cbbd
000003d0: 9f57 723d 8ff9 18bd 02d9 70bd c717 35bc
000003e0: 9a31 dd3b 8f1a 183d 31da 893d 4234 31bd
000003f0: 522b 39bd e4e2 89bd 5ff1 1fbb b929 91bd

bias f4 [128]
-0.083779775 0.02551785 -0.038825676 0.0040970272 0.042436946 0.059711847 -0.059273355 -0.08103325
0.045763403 0.052702222 0.056248993 0.041435365 0.054965205 0.02931629 -0.015575336 -0.022717586
0.07224149 -0.014350307 0.0768376 -0.033309203 -0.02418806 0.060432464 -0.04169395 -0.04385653
0.06930286 0.0102783 -0.03544078 -0.0054832534 -0.029262261 0.074964166 0.0773845 0.07208866
-0.0012661756 0.023310835 0.031834863 -0.066922724 0.082083255 -0.07815237 0.055714406 -0.00052328
-0.044301797 0.08429228 0.043606184 0.05791565 0.07255461 -0.04162847 0.0176843 -0.028480746
-0.011394715 0.025629062 0.049964577 -0.07304331 -0.04228049 0.003514278 -0.0062303795 -0.04681599
-0.05113658 0.044349402 -0.04650835 0.07502785 0.0044100075 -0.0087532895 0.029491976 -0.014446562
-0.0278783 -0.08463531 -0.01432094 -0.051000003 -0.04242223 -0.066348985 -0.051572725 -0.08590163
-0.07879289 -0.023197614 -0.035937402 -0.060649883 -0.07001218 -0.026440965 0.07528087 0.08768703
0.03768701 0.07303031 -0.009454971 -0.024283053 -0.08729353 -0.052222714 -0.014408936 -0.054344013
-0.03246701 -0.07586794 0.059685968 -0.048375845 0.027018595 -0.0050010392 -0.047280353 0.07549692
0.050890457 -0.009456772 0.08317918 -0.014651388 0.041382324 0.05451221 0.072104186 0.05298943
-0.057604067 0.01743874 -0.051204123 0.05646653 0.054004632 -0.0845061 -0.08688874 -0.039036006
0.08151221 0.062022727 -0.06767052 0.07407705 -0.022951756 -0.06767526 0.06069324 -0.011358586
0.053375624 -0.04284258 0.032018166 -0.0027796542 -0.062262833 0.0034017093 -0.036861457 -0.077417396
00000000: bb94 abbd cf0a d13c ac07 1fbd 5b40 863b
00000010: 5dd2 2d3d 6994 743d 9ec8 72bd c3f4 a5bd
00000020: 6872 3b3d 49de 573d 5865 663d 21b8 293d
00000030: 3223 613d b728 f03c b22f 7fbc 3b1a babc
00000040: 59f3 933d 8d1d 6bbc 085d 9d3d 3b6f 08bd
00000050: 0a26 c6bc 0888 773d 46c7 2abd e8a2 33bd
00000060: a8ee 8d3d 5166 283c 5a2a 11bd ddac b3bb
00000070: 69b7 efbc d086 993d c47b 9e3d 38a3 933d
00000080: cef5 a5ba 5df6 be3c 4665 023d c80e 89bd
00000090: 441b a83d 5a0e a0bd ca34 643d ba2c 09ba
000000a0: cd75 35bd 6ea1 ac3d 669c 323d f638 6d3d
000000b0: 8397 943d 9d82 2abd aade 903c 7450 e9bc
000000c0: e6b0 3abc 0af4 d13c a8a7 4c3d bb97 95bd
000000d0: 4f2e 2dbd cd4f 663b 3628 ccbb 20c2 3fbd
000000e0: 9774 51bd b8a7 353d 8a7f 3ebd 34a8 993d
000000f0: d381 903b f569 0fbc 2899 f13c 46b1 6cbc
00000100: 0861 e4bc 4755 adbd 60a2 6abc 61e5 50bd
00000110: efc2 2dbd fae1 87bd ec3d 53bd 32ed afbd
00000120: 2b5e a1bd ec08 bebc 1933 13bd 036c 78bd
00000130: 8c62 8fbd b99a d8bc db2c 9a3d 4295 b33d
00000140: b25d 1a3d ea90 953d 06e9 1abc 41ed c6bc
00000150: f3c6 b2bd 7ce7 55bd 7513 6cbc d497 5ebd
00000160: 21fc 04bd a760 9bbd 4679 743d c025 46bd
00000170: 1a56 dd3c c2df a3bb 0ba9 41bd 219e 9a3d
00000180: 8372 503d 94f0 1abc d959 aa3d 600c 70bc
00000190: 8380 293d 3248 5f3d 5cab 933d 720b 593d
000001a0: 3ef2 6bbd b0db 8e3c 6abb 51bd 7349 673d
000001b0: f633 5d3d 8911 adbd b9f2 b1bd 38e4 1fbd
000001c0: e0ef a63d 8b0b 7e3d d796 8abd b5b5 973d
000001d0: 5205 bcbc 5499 8abd 7a99 783d 5d19 3abc
000001e0: 66a0 5a3d b37b 2fbd 7b25 033d dc2a 36bb
000001f0: 5007 7fbd 36ef 5e3b 0afc 16bd 038d 9ebd

weight f4 [2, 128]
-0.033682074 0.049065277 0.058981944 0.05908573 0.06506868 -0.007495425 0.055169042 0.06174813
-0.018119026 0.07709681 -0.012613296 -0.07815302 0.055621646 0.05189185 -0.051093306 -0.0061145215
-0.033248104 0.042749956 -0.050362475 0.053469356 -0.01943221 0.08615559 -0.010499027 0.06286718
-0.033624496 0.07828948 0.06606015 -0.047938228 -0.073178515 -0.0706136 -0.0017076752 0.0034654948
-0.061496075 -0.033295915 0.058435988 0.0011225394 -0.008961757 -0.049830265 -0.083759375 0.019791733
-0.01590467 -0.0038722164 -0.044880804 -0.060843788 -0.06946899 -0.10582275 0.084753916 0.007827408
0.05677121 -0.030221146 0.040051043 0.059847206 -0.13604985 -0.013236923 -0.072811455 0.05067708
-0.02143027 0.07610257 0.06282558 0.02848094 -0.06892052 0.05969507 0.023261504 -0.02343974
-0.039929822 -0.08373604 -0.027215617 0.057144668 0.09484876 -0.10873254 0.07753017 -0.027385462
-0.0498571 -0.04679202 -0.05556413 0.050902035 0.064848706 -0.058955412 0.07543674 0.047205582
0.022296512 -0.0021383332 0.05711724 0.07518926 -0.07046717 0.01924012 0.049397346 -0.031829108
-0.019606823 0.08705949 -0.054587327 0.07770382 -0.056583673 -0.0873432 0.01980707 -0.04710639
-0.017855804 0.04457227 0.053640515 -0.032035008 -0.049354304 -0.08389385 -0.0015107327 -0.03491967
-0.013108112 0.0774554 -0.08369325 0.052148096 -0.023051761 -0.022918465 -0.0066150227 0.051671777
-0.08071343 -0.043155286 0.044043254 0.0771604 -0.041261427 -0.0400147 -0.01733292 0.03038673
0.069277614 -0.039338034 0.067479774 0.08790927 -0.04265439 0.06363267 -0.054959588 -0.007838376
0.04887926 0.093211554 0.008266229 0.013928474 -0.09999045 0.077102065 0.063782275 0.08345451
-0.055021077 -0.008389387 -0.06813347 -0.033351433 -0.016347453 0.09431414 -0.04497339 0.10359325
0.08344249 0.11462423 -0.033196937 0.059152838 -0.050528366 0.090010166 0.022272712 0.11106148
-0.08026391 0.06611021 0.08032152 0.06922023 -0.066596985 0.059170622 0.12178701 0.0490121
-0.076966815 0.07591822 -0.0085007725 -0.09019562 -0.100098796 0.023072569 -0.08239335 -0.04977608
-0.007898772 0.019513018 -0.064668976 -0.06367382 0.06722113 -0.09465077 -0.04991816 -0.09611444
0.059873227 -0.07248189 0.02421471 0.019872166 -0.04057048 0.0022185151 -0.02086229 -0.1131608
-0.066444874 -0.0050789556 -0.067151904 -0.09256013 0.009060148 0.015259491 0.089755975 -0.05543723
0.12639378 -0.065129764 0.053343542 -0.046850782 0.12437186 -0.06099586 -0.06611579 -0.07112365
-0.0034792854 -0.0025987325 -0.0483768 0.070490435 -0.054244176 0.04303421 -0.10604451 -0.091871984
0.09081387 -0.11267402 0.07453818 -0.06303141 -0.05639691 0.015385423 -0.08726471 -0.10251721
-0.04772822 -0.02395314 -0.093362756 -0.0018857522 0.090232655 -0.11474151 -0.062303178 0.010434956
-0.051521696 0.03391207 0.0048499536 0.049679488 0.08527919 -0.029221714 0.013901684 -0.06914059
-0.05769702 -0.045335896 -0.08535152 -0.071358524 0.023458311 0.04217816 0.14795916 0.11532544
-0.07859804 0.06080332 0.0018605798 -0.04217343 -0.08259374 0.010370903 0.074933186 -0.082900226
-0.05288334 -0.030572355 -0.07728575 -0.028125474 -0.073457055 0.065087095 0.07739806 0.060106874
00000000: 37f6 09bd acf8 483d 0d97 713d e103 723d
00000010: ba42 853d 2f9c f5bb eff8 613d 9beb 7c3d
00000020: 5a6e 94bc efe4 9d3d ffa7 4ebc b10e a0bd
00000030: 86d3 633d 8c8c 543d 3747 51bd 535c c8bb
00000040: 2a2f 08bd 941a 2f3d e248 4ebd af02 5b3d
00000050: 4c30 9fbc 5872 b03d 1c04 2cbc 82c0 803d
00000060: d7b9 09bd 3c56 a03d 8b4a 873d e05a 44bd
00000070: 9ede 95bd dd9d 90bd 12d4 dfba 5b1d 633b
00000080: 4fe3 7bbd 4c61 08bd 935a 6f3d 2c22 933a
00000090: 55d4 12bc d21a 4cbd 098a abbd 4622 a23c
000000a0: 834a 82bc 03c5 7dbb efd4 37bd 5637 79bd
000000b0: c245 8ebd 99b9 d8bd 7693 ad3d 873e 003c
000000c0: ee88 683d 5692 f7bc 900c 243d 5822 753d
000000d0: a750 0bbe aedf 58bc 2c1e 95bd c592 4f3d
000000e0: 898e afbc aadb 9b3d b3aa 803d dc50 e93c
000000f0: 3426 8dbd d182 743d e98e be3c b304 c0bc
00000100: 748d 23bd cd7d abbd 49f3 debc 8710 6a3d
00000110: 1140 c23d 2aaf debd 23c8 9e3d 7a57 e0bc
00000120: f536 4cbd fda8 3fbd 3797 63bd a77e 503d
00000130: 66cf 843d 3b7b 71bd 947e 9a3d a45a 413d
00000140: 2da7 b63c 4723 0cbb c4f3 693d d4fc 993d
00000150: 1751 90bd 759d 9d3c df54 4a3d 3d5f 02bd
00000160: 7d9e a0bc 3f4c b23d f696 5fbd 2e23 9f3d
00000170: 48c4 67bd fee0 b2bd 7042 a23c a1f2 40bd
00000180: 5646 92bc 6a91 363d 28b6 5b3d 2437 03bd
00000190: bd27 4abd 8ad0 abbd c703 c6ba ee07 0fbd
000001a0: 68c3 56bc f0a0 9e3d 5e67 abbd 3e99 553d
000001b0: 0cd7 bcbc 81bf bbbc d5c2 d8bb c9a5 533d
000001c0: 154d a5bd 99c3 30bd b366 343d 4606 9e3d
000001d0: be01 29bd 74e6 23bd c5fd 8dbc 97ed f83c
000001e0: 6ce1 8d3d eb20 21bd d632 8a3d c609 b43d
000001f0: 5fb6 2ebd d851 823d 4e1d 61bd 886c 00bc
00000200: 9e35 483d b3e5 be3d 146f 073c 4134 643c
00000210: cbc7 ccbd b0e7 9d3d 48a0 823d 33ea aa3d
00000220: c85d 61bd a473 09bc 9089 8bbd 839b 08bd
00000230: 18eb 85bc c627 c13d 0436 38bd b328 d43d
00000240: e5e3 aa3d 1cc0 ea3d 83f9 07bd 3f4a 723d
00000250: d5f6 4ebd 4057 b83d 4375 b63c 3474 e33d
00000260: 6861 a4bd ca64 873d 9c7f a43d 56c3 8d3d
00000270: 0064 88bd e55c 723d 786b f93d e9c0 483d
00000280: c7a0 9dbd 037b 9b3d d346 0bbc 7bb8 b8bd
00000290: 9900 cdbd af02 bd3c d8bd a8bd 01e2 4bbd
000002a0: da69 01bc c4d9 9f3c 2b71 84bd 6b67 82bd
000002b0: 3bab 893d 43d8 c1bd fc76 4cbd a6d7 c4bd
000002c0: a13d 753d 6371 94bd ed5d c63c f4ca a23c
000002d0: 3b2d 26bd 8264 113b 65e7 aabc d9c0 e7bd
000002e0: 4014 88bd 5e6d a6bb f086 89bd 2a90 bdbd
000002f0: 0471 143c f202 7a3c fbd1 b73d 2612 63bd
00000300: 5f6d 013e c162 85bd c27e 5a3d 9be6 3fbd
00000310: acb6 fe3d cbd6 79bd b767 87bd 47a9 91bd
00000320: b904 64bb 7f4f 2abb c026 46bd 4a5d 903d
00000330: 242f 5ebd a444 303d dd2d d9bd 6127 bcbd
00000340: 9ffc b93d a3c1 e6bd 79a7 983d 9d16 81bd
00000350: 7200 67bd 2413 7c3c d7b7 b2bd 8bf4 d1bd
00000360: aa7e 43bd 6039 c4bc f934 bfbd 582b f7ba
00000370: e6cb b83d 99fd eabd 9e31 7fbd 61f7 2a3c
00000380: 6a08 53bd 62e7 0a3d 5cec 9e3b b87c 4b3d
00000390: dba6 ae3d 6062 efbc e4c3 633c 9599 8dbd
000003a0: b653 6cbd 22b2 39bd c7cc aebd 6b24 92bd
000003b0: a52b c03c 02c3 2c3d 9b82 173e bf2f ec3d
000003c0: 02f8 a0bd e70c 793d b3de f33a 0cbe 2cbd
000003d0: e826 a9bd b8ea 293c 9276 993d 98c7 a9bd
000003e0: 339c 58bd e072 fabc fe47 9ebd 6567 e6bc
000003f0: a770 96bd 624c 853d e082 9e3d a032 763d

bias f4 [2]
-0.066353 0.019982792
00000000: 15e4 87bd f4b2 a33c
