model_saved/epoch_24.pth (torch, 139407 bytes, 8 tensors)

weight f4 [128, 5]
0	0xbde93840	-0.11387682
1	0xbe33bb51	-0.17551924
2	0x3e15183e	0.14560029
3	0xbeccaff0	-0.3997798
4	0x3e7dfa39	0.24802484
5	0xbdf968e1	-0.12178207
6	0xbebc7853	-0.3681055
7	0x3dce6ea5	0.100796975
8	0xbdf2b550	-0.11850989
9	0xbe9d28cc	-0.30695188
10	0x3edc91b8	0.43079925
11	0xbebb67af	-0.36602542
12	0xbed88133	-0.4228607
13	0x3eb92e5e	0.36168188
14	0x3ed7e1b3	0.42164382
15	0x3e848e6a	0.25889903
16	0x3e6b2de0	0.22966719
17	0xbe4b2be4	-0.19840962
18	0xbedd4a41	-0.43220714
19	0x3e8d749e	0.27628034
20	0x3d84c8eb	0.064836346
21	0xbdcd318b	-0.10019215
22	0xbec43986	-0.38325137
23	0xbe080cc3	-0.13286118
24	0x3e61cc08	0.22050488
25	0xbe778251	-0.24170806
26	0xbebe6916	-0.3718955
27	0x3ebab21f	0.3646402
28	0xbdb6f01a	-0.089325145
29	0x3ec15eb5	0.37767568
30	0x3e95a089	0.2922404
31	0xbe9366a8	-0.28789258
32	0x3e8b87a6	0.2725193
33	0x3d508c50	0.050915062
34	0x3eb911f3	0.36146507
35	0xbebf3b39	-0.3734987
36	0x3e94b792	0.29046303
37	0xbee4c741	-0.4468327
38	0xbe12fcb9	-0.14354219
39	0xbdce7b09	-0.10082061
40	0xbebeac10	-0.37240648
41	0xbeb2e1a9	-0.3493779
42	0x3e8ea766	0.2786209
43	0x3e860d32	0.26181942
44	0x3d8dda77	0.069264345
45	0xbedd1804	-0.43182385
46	0xbec98920	-0.3936243
47	0x3ebb4eb7	0.36583492
48	0x3e792d02	0.24333575
49	0xbebfee9c	-0.37486732
50	0x3e6dada2	0.23210767
51	0x3db2bbf4	0.087272555
52	0xbeaeb647	-0.34123442
53	0x3e8c1bc9	0.27364948
54	0x3e59a0e8	0.21252787
55	0x3e52fde8	0.2060467
56	0xbe8ca73b	-0.27471337
57	0x3c18b07b	0.00931942
58	0x3ec653c6	0.3873579
59	0x3ed3de0e	0.41380352
60	0x3ec75943	0.3893529
61	0x3ea99472	0.33121067
62	0xbdbdc3b9	-0.09265847
63	0x3df835a0	0.12119603
64	0x3e06cad9	0.13163318
65	0x3eddef4d	0.43346635
66	0x3e84fc27	0.25973627
67	0x3e53cdf0	0.20684028
68	0x3e5fc3a0	0.21851969
69	0x3e3a52f4	0.18195707
70	0xbe59d6fd	-0.21273418
71	0x3e81c411	0.253449
72	0xbeaeb016	-0.34118718
73	0x3e8b73e5	0.27236858
74	0xbd92c177	-0.07165807
75	0xbe98b0af	-0.298223
76	0x3d238514	0.039921835
77	0xbdb259f7	-0.08708566
78	0xbdd21706	-0.102582976
79	0xbea4b5a2	-0.32169825
80	0xbe61bac1	-0.22043897
81	0xbed86aca	-0.42268974
82	0xbd4eb969	-0.05046979
83	0x3e8591f3	0.26087913
84	0x3ec0a1b2	0.37623364
85	0x3d9b685f	0.075882666
86	0xbc0cf75e	-0.008603899
87	0x3e65d66d	0.22445078
88	0x3e9aab8c	0.30209005
89	0xbea24c56	-0.31698865
90	0xbcdee671	-0.027209492
91	0xbecf160e	-0.40446514
92	0xbe036cdb	-0.12834494
93	0xbc541a70	-0.012945756
94	0xbeba950f	-0.36441848
95	0xbe332c39	-0.17497338
96	0xbeaafb2b	-0.3339475
97	0xbe82e353	-0.2556406
98	0xbe8d81f1	-0.276382
99	0xbebed705	-0.37273422
100	0xbeb84b92	-0.35995156
101	0x3e3b8aa1	0.18314601
102	0xbc06450f	-0.008195176
103	0xbe99dbd3	-0.30050525
104	0xbc051649	-0.008122989
105	0xbde8954a	-0.113566
106	0x3ec113a0	0.37710285
107	0x3df2efbb	0.11862131
108	0x3ea98086	0.33105868
109	0xbe23d413	-0.15998869
110	0x3e884da0	0.26621723
111	0x3e25ce22	0.16191915
112	0xbe04954a	-0.12947574
113	0xbe597705	-0.21236809
114	0xbe06c320	-0.13160372
115	0xbe3273af	-0.17426942
116	0x3ea663e7	0.32498094
117	0x3d2ccf43	0.042189848
118	0xbde12fd4	-0.109954506
119	0x3e7de524	0.24794441
120	0x3d986960	0.07441974
121	0xbe31901a	-0.17340127
122	0x3e9b38a2	0.30316645
123	0xbe45a394	-0.19300681
124	0xbeb21976	-0.3478505
125	0xbec9e5d1	-0.39433149
126	0x3e37e138	0.17957008
127	0xbe8a8f64	-0.27062523
128	0xbede68e9	-0.43439415
129	0x3ebb2cae	0.36557525
130	0xbe377e08	-0.17919171
131	0xbe7d4e1f	-0.24736832
132	0xbe2d64c2	-0.16932967
133	0xbe615b21	-0.22007419
134	0xbdddae9f	-0.10824322
135	0xbe6d207e	-0.23156926
136	0x3eb6f1bf	0.35731313
137	0x3d492888	0.04911092
138	0xbe6ad8be	-0.22934243
139	0x3bdb3699	0.006689858
140	0x3d21572b	0.03938977
141	0xbeafc788	-0.34331918
142	0x3c3e9cd1	0.011634068
143	0x3e489cad	0.19591017
144	0x3e90e50c	0.2829975
145	0x3e57ece7	0.21086465
146	0xbda28f8c	-0.07937536
147	0x3c3df5c8	0.011594243
148	0xbdaa2562	-0.083079115
149	0x3eba7608	0.36418176
150	0x3eaee828	0.34161496
151	0x3d54b96b	0.05193464
152	0xbd7b8e97	-0.06141528
153	0xbe5e3755	-0.21700795
154	0x3eb0f8f7	0.34564945
155	0x3eb4c508	0.35306573
156	0xb6af0007	-5.2154096e-06
157	0xbc9f70d9	-0.01946299
158	0x3e992078	0.29907584
159	0x3ea37e0f	0.31932113
160	0xbe19f24d	-0.15033837
161	0x3e81c7f4	0.25347865
162	0xbd990e1e	-0.07473396
163	0x3ed49d52	0.41526276
164	0xbe6a1463	-0.2285934
165	0xbe4294f8	-0.1900214
166	0xbec0388b	-0.3754314
167	0xbe2f559d	-0.17122503
168	0xbed95649	-0.42448643
169	0x3e888178	0.26661277
170	0x3e890c16	0.26767033
171	0xbedee768	-0.43535924
172	0x3e288d11	0.16460063
173	0xbe12901c	-0.14312786
174	0xbbb4da62	-0.0055191973
175	0x3db2c043	0.08728077
176	0x3e77f4d9	0.24214496
177	0x3eb1b8bb	0.3471125
178	0x3bb43d86	0.005500498
179	0xbe36d6f0	-0.1785543
180	0xbe1585c9	-0.14601816
181	0x3de3fd90	0.111323476
182	0x3eb40b3b	0.35164818
183	0xbe635f0a	-0.22204223
184	0xbe5e3354	-0.21699268
185	0x3e947816	0.28997868
186	0x3e6b0b0e	0.22953436
187	0x3da4f12e	0.08053814
188	0xbeb435dd	-0.35197344
189	0xbe2b9afc	-0.1675834
190	0x3e94c887	0.2905924
191	0x3ed3ca9b	0.41365513
192	0xbe63825c	-0.22217697
193	0xbec0da31	-0.37666467
194	0x3eb1e156	0.3474223
195	0x3ebf4856	0.37359875
196	0xbed9604a	-0.42456275
197	0x3eb46566	0.3523361
198	0xbeccaa4b	-0.39973673
199	0x3e240032	0.160157
200	0x3e62bbdd	0.22141977
201	0xbe4c0723	-0.19924597
202	0x3eaec532	0.34134823
203	0x3ea370da	0.31922036
204	0x3e81fc4f	0.2538781
205	0xbea4ecfd	-0.32212058
206	0x3e843926	0.2582485
207	0xbec99db2	-0.39378124
208	0xbebe00a6	-0.3710987
209	0xbeb240a2	-0.34814936
210	0xbe905c34	-0.28195345
211	0x3cce69c5	0.02519692
212	0xbd98ebef	-0.07466876
213	0xbe87a259	-0.2649105
214	0x3e54d26b	0.20783393
215	0xbe99be0e	-0.30027813
216	0x3e85b7ce	0.26116794
217	0x3ea12876	0.31476182
218	0xbe3b5a9d	-0.18296285
219	0xbea51aa4	-0.32246888
220	0xbeb8ff1f	-0.36132142
221	0x3ed404d7	0.41409943
222	0x3eca9a10	0.39570665
223	0x3e8d7b9a	0.27633363
224	0xbeb339cf	-0.35005042
225	0xbe9acd5e	-0.30234808
226	0x3e3fdbd8	0.18736207
227	0xbe469660	-0.19393301
228	0xbdd26745	-0.10273603
229	0xbe9ee56b	-0.31034407
230	0x3e89c1b2	0.2690559
231	0x3eac8051	0.33691648
232	0x3c816e47	0.015799655
233	0xbd9f5df0	-0.07781589
234	0x3e03a295	0.12854989
235	0x3ea72157	0.32642624
236	0x3d9fe1d8	0.07806748
237	0x3ea7e7e3	0.32794103
238	0xbe0fdb4a	-0.14048496
239	0xbecbf2d8	-0.39833713
240	0x3ebb014a	0.3652442
241	0x3ec5208c	0.38501394
242	0xbe8f8819	-0.28033522
243	0xbda3f6c8	-0.08006054
244	0x3edd5db9	0.43235567
245	0xbe8afbf3	-0.27145347
246	0xbe672861	-0.22573997
247	0x3e5af254	0.21381503
248	0x3d91eab8	0.07124847
249	0xbe86b249	-0.26307896
250	0x3edd5e32	0.43235928
251	0xbeb64a4c	-0.3560356
252	0xbe47f1ce	-0.19525835
253	0x3ddcbd98	0.1077835
254	0xbd0b6e22	-0.034040578
255	0xbe821f45	-0.25414482

bias f4 [128]
0	0xbe5b6c59	-0.2142805
1	0xbeb5c510	-0.3550191
2	0xbe8bae80	-0.2728157
3	0x3e299887	0.16562091
4	0x3ea9ed91	0.3318906
5	0xbe83cbae	-0.25741333
6	0x3e503f04	0.20336539
7	0x3d043dfe	0.032285683
8	0xbe8b9320	-0.27260685
9	0xbd7d89c9	-0.06189898
10	0xbe5f693c	-0.21817487
11	0x3e2dadff	0.16960905
12	0xbec2dc4a	-0.38058692
13	0x3ecfd0ae	0.40588897
14	0xbed570c2	-0.4168759
15	0x3e3fc9b9	0.18729295
16	0xbe8e9b83	-0.2785302
17	0x3e73fed3	0.23827676
18	0xbd5e9757	-0.054343548
19	0x3ead2d64	0.33823693
20	0x3c749200	0.014927387
21	0x3e2425e7	0.16030084
22	0x3e712e68	0.23552859
23	0x3e87a520	0.26493168
24	0xbedf06ea	-0.43559963
25	0xbe918c9a	-0.28427583
26	0x3e8007a3	0.25005826
27	0xbcfbd8c6	-0.030743014
28	0x3e6156c2	0.22005752
29	0x3ec50b8c	0.38485372
30	0x3eaf7b6e	0.34273857
31	0x3ea47aae	0.32124847
32	0x3e80be0f	0.25145003
33	0xbecfb343	-0.40566453
34	0xbe1515a3	-0.14559035
35	0x3da2a4ee	0.07941614
36	0x3e5a269a	0.21303788
37	0xbd101ce9	-0.03518382
38	0x3e5b5c6a	0.21421972
39	0xbe978050	-0.29590082
40	0x3e874b26	0.2642452
41	0xbec1a94a	-0.3782447
42	0xbe779860	-0.2417922
43	0x3ebdc3a2	0.37063318
44	0xbec50d53	-0.38486728
45	0x3e38bb23	0.18040137
46	0x3e96020b	0.29298434
47	0x3e84403b	0.25830254
48	0x3e828760	0.25493908
49	0xbea65c70	-0.324924
50	0x3eb9c965	0.36286464
51	0xbed4edf1	-0.41587785
52	0xbd579e64	-0.052641287
53	0x3e6aec9e	0.22941825
54	0xbeaf14d7	-0.34195587
55	0xbdbe1ab2	-0.092824355
56	0xbebf78e9	-0.37396935
57	0x3ea4fea6	0.3222553
58	0xbecb4ad9	-0.39705542
59	0xbddbde95	-0.107358135
60	0xbee131b5	-0.43983236
61	0x3deea25d	0.11652062
62	0xbd1610ce	-0.03663712
63	0x3e917c3c	0.28415096
64	0x3e0d86dc	0.13820976
65	0x3e189a92	0.14902714
66	0x3e323db8	0.17406356
67	0xbd6c8e7a	-0.057753064
68	0x3e26a5b1	0.16274144
69	0x3e889342	0.2667485
70	0xbed5b35a	-0.41738397
71	0xbeb3f231	-0.35145715
72	0xbeb345ce	-0.35014194
73	0x3e9e59cb	0.30927882
74	0x3e30f456	0.17280707
75	0x3ee0f09c	0.4393357
76	0xbe49e0c4	-0.19714648
77	0xbe71abe1	-0.23600723
78	0x3ed1298f	0.4085202
79	0xbe0b4642	-0.1360102
80	0xbeb26a56	-0.34846753
81	0x3ebc62a6	0.36794013
82	0xbeb32782	-0.3499108
83	0x3c8f3c52	0.017484818
84	0x3d1d1f52	0.038359948
85	0xbe9782a9	-0.29591873
86	0xbd42d5ac	-0.047567055
87	0x3eaebfeb	0.34130797
88	0xbe616e10	-0.22014642
89	0x3de01018	0.1094057
90	0x3edc7c8d	0.43063775
91	0xbdc9e109	-0.09857375
92	0x3e0947a7	0.1340624
93	0x3ea64b1e	0.32479185
94	0xbe937c9e	-0.28806013
95	0x3e35b522	0.17744878
96	0xbecc001a	-0.39843827
97	0xbeb626e6	-0.35576552
98	0x3e051f89	0.13000311
99	0x3dd5d8d8	0.1044175
100	0xbe96b58a	-0.29435378
101	0x3e5a1e91	0.21300723
102	0xbe9ab034	-0.30212557
103	0x3edb697a	0.4285391
104	0x3dd162f1	0.1022395
105	0xbdfde55b	-0.12397262
106	0xbee2b582	-0.44279104
107	0x3e11bcef	0.14232229
108	0xbe3e3ad9	-0.18577136
109	0x3d5d63f4	0.0540504
110	0xbeae7328	-0.34072232
111	0xbe808bf0	-0.25106764
112	0x3dbfc8f3	0.093645
113	0x3e39ae6d	0.18132944
114	0xbe98d669	-0.29851082
115	0xbeb26432	-0.34842068
116	0x3ec683cf	0.38772437
117	0x3e4a9122	0.19781926
118	0xbe33414a	-0.17505375
119	0xbdedb3fe	-0.116065964
120	0xbe0bd60e	-0.13655874
121	0xbee120a6	-0.4397022
122	0xbeb8a497	-0.36063072
123	0x3e49a90e	0.19693395
124	0xbdb910f4	-0.09036437
125	0xbeb388e2	-0.3506537
126	0xbcdaccc7	-0.026708974
127	0x3ea3ea89	0.32014874

weight f4 [128, 128]
0	0x3cb49490	0.022043496
1	0x3d6d37b6	0.05791446
2	0xbd16e53e	-0.036839716
3	0x3cda02ae	0.026612606
4	0x3ae7e784	0.0017692898
5	0x3d8c50a7	0.06851321
6	0xbd989eae	-0.07452141
7	0x3daf7d2c	0.085687965
8	0xbb6c95fe	-0.0036100144
9	0xbd323d91	-0.043515746
10	0x3d8f3325	0.06992177
11	0xbd19e304	-0.037570015
12	0x3d9ae20e	0.07562648
13	0x3d0f3cc0	0.034970045
14	0x3d870880	0.06593418
15	0xbc34cfa9	-0.011035838
16	0x3bac5e8e	0.0052602952
17	0xbd6aae0b	-0.057294887
18	0xbd2623e6	-0.04056158
19	0xbd451769	-0.04811803
20	0x3c34fbf2	0.011046397
21	0x3d869d56	0.06572978
22	0xbd73f691	-0.059561316
23	0x3d16db81	0.03683043
24	0xbd37c055	-0.044861156
25	0xbda42383	-0.08014586
26	0x3db1daf9	0.08684344
27	0xbceef535	-0.029169658
28	0x3d06fcb1	0.03295583
29	0xbd2ddd6e	-0.0424475
30	0x3d1441e2	0.036195643
31	0xbd931371	-0.071814425
32	0x3d86c53a	0.06580587
33	0xbd09c353	-0.03363354
34	0xbbd6e1d0	-0.0065576807
35	0xbd9e7b99	-0.07738418
36	0x3c722de3	0.014781448
37	0x3d8df63d	0.06931732
38	0xbc0784f9	-0.008271449
39	0xbd18a3e7	-0.037265684
40	0x3d73d43b	0.05952857
41	0x3c81e308	0.015855327
42	0x3c307475	0.010769953
43	0xbd8aa091	-0.06768907
44	0xbc58e474	-0.013238061
45	0xbd3dffbe	-0.046386473
46	0x3da54139	0.08069081
47	0x3b126a7a	0.0022341297
48	0xbd5abb57	-0.053401317
49	0x3d0ec4de	0.034855716
50	0xbad13768	-0.0015961947
51	0xbd5c767a	-0.053823926
52	0xbd637069	-0.055527125
53	0x3ccc7ee2	0.024962846
54	0xbda1bc73	-0.07897272
55	0xbd891bfb	-0.0669479
56	0x3bdbb57b	0.0067049838
57	0x3d979021	0.07400537
58	0xbd64efbd	-0.055892695
59	0xbcc33ea3	-0.023833578
60	0x3db36a8c	0.087605566
61	0x3d249022	0.04017652
62	0xbd69deba	-0.057097174
63	0x3ca04587	0.019564403
64	0xbd11558a	-0.035481967
65	0x3cceb534	0.025232889
66	0x3dabbd2c	0.08385691
67	0x3d832b10	0.06404698
68	0xbd42c80f	-0.047554072
69	0xbd31f01f	-0.043441888
70	0xbda933dd	-0.08261845
71	0x3cc7dc2b	0.024396976
72	0x3c4aeea6	0.012386
73	0x3c2b4815	0.010454197
74	0x3c270df1	0.010196195
75	0xbba7f60a	-0.0051257657
76	0x3da3ad2f	0.079920165
77	0xbd60fb40	-0.05492711
78	0x3a213388	0.00061493414
79	0x3d819176	0.063265726
80	0xbadd75b3	-0.0016896039
81	0x3d81f683	0.063458465
82	0x3c0c8209	0.008575925
83	0x3c9ba835	0.019001106
84	0x3cc7b0f2	0.024376366
85	0x3d99562c	0.07487139
86	0xbdb4ac89	-0.08821971
87	0xbb193aaf	-0.0023380925
88	0x3d989cf1	0.07451809
89	0xbd68b58e	-0.05681377
90	0xbd135600	-0.035970688
91	0x3d6274ae	0.055287056
92	0x3d78f2f8	0.060778588
93	0xbcee0682	-0.029055838
94	0xbc96fea8	-0.018431976
95	0xbda04d8c	-0.07827291
96	0x3d05c90c	0.032662436
97	0x3c4f67f1	0.012659059
98	0x3d13397f	0.035943504
99	0xbbf2fc98	-0.0074153654
100	0xbd49adad	-0.049237896
101	0xbda80156	-0.0820338
102	0xbb9b47dd	-0.0047387914
103	0xbc2caee6	-0.010539746
104	0xbd9a02ab	-0.0752004
105	0xbda29c0e	-0.07939921
106	0x3d9aa884	0.07551673
107	0xbd503f90	-0.050841868
108	0x3d2f3067	0.04277077
109	0xbb675c94	-0.0035302984
110	0xbcbede51	-0.023299368
111	0xbccf5999	-0.025311278
112	0xbdae7c77	-0.085198335
113	0x3c9171d3	0.01775447
114	0x3d815c8d	0.06316481
115	0x3ce4281a	0.027851153
116	0x3db07136	0.08615343
117	0xbc1bae70	-0.009502038
118	0xbc9a1a26	-0.018811297
119	0x3d3a15ea	0.045431055
120	0x3d86ca0c	0.06581506
121	0x3da186a3	0.07887008
122	0x3d51f0cf	0.051255044
123	0xbd4c2fd3	-0.049850296
124	0x3da95b3f	0.08269357
125	0x3caaac70	0.020834178
126	0xbc9684ec	-0.018373929
127	0x3d2d559c	0.04231797
128	0x3d8e8c82	0.069603935
129	0x3d281ec3	0.04104496
130	0xbcc0b2e2	-0.023522798
131	0xbd195c10	-0.037441313
132	0xbd4d44dd	-0.0501145
133	0x3db0631b	0.08612653
134	0xbc456805	-0.012048726
135	0x3d684cd5	0.056713898
136	0xbce36bb9	-0.027761327
137	0xbd4a3845	-0.04937007
138	0xbc856a3c	-0.016286008
139	0x3d18188e	0.037132792
140	0xbd2468e5	-0.040139098
141	0xbd8f2fdc	-0.0699155
142	0xbd18a5f5	-0.037267644
143	0xbd8d2994	-0.06892696
144	0xbd12b5f1	-0.035818044
145	0x3d912cef	0.070886485
146	0x3d38c3dd	0.045108665
147	0x3ccc262d	0.024920547
148	0x3d021398	0.031756967
149	0x3ce4a295	0.027909556
150	0xbd48dca7	-0.049038555
151	0x3d3d3f25	0.046202797
152	0xbda01ec9	-0.07818372
153	0xbd36d2c9	-0.044634614
154	0xbd336ecc	-0.043806836
155	0x3d396b7f	0.045268532
156	0xbd12023e	-0.03564667
157	0xbd72d426	-0.05928435
158	0xbd17520b	-0.036943477
159	0x3d71237b	0.058871727
160	0x3cf61970	0.030041426
161	0x3dac4e46	0.08413367
162	0x3d48d5a7	0.04903188
163	0x3b4446a9	0.0029949343
164	0xbd1c704a	-0.038193025
165	0x3b385aac	0.0028130217
166	0x3d9decd8	0.0771119
167	0xbda5853f	-0.08082055
168	0xbd9c4f46	-0.07632308
169	0xbd925994	-0.07145992
170	0x3d311fa8	0.04324308
171	0x3d9155c3	0.07096436
172	0x3cf9c025	0.03048713
173	0xbd33562f	-0.043783363
174	0x3d13614d	0.035981465
175	0xbd6926b7	-0.056921687
176	0x3d94e960	0.07271075
177	0xbcc69138	-0.024239168
178	0x3db4e817	0.0883333
179	0x3da7c761	0.081923254
180	0x3db338c9	0.08751065
181	0x3ce9e655	0.028552214
182	0x3a755d71	0.0009359932
183	0x3ce6f054	0.02819077
184	0x3da19e9d	0.07891581
185	0xbc706301	-0.014672042
186	0xbc6b1915	-0.014349242
187	0x3be20977	0.006898101
188	0xbd04aaed	-0.03238957
189	0xba42781a	-0.0007418409
190	0xbd567cb7	-0.05236503
191	0x3d72de18	0.059293836
192	0x3d4b397b	0.049615365
193	0xbb9e90a6	-0.004839021
194	0x3db26a48	0.08711678
195	0xbda44fc1	-0.08023024
196	0x3da16cbb	0.07882067
197	0x3d6c7ae4	0.057734385
198	0xbc33e525	-0.010979925
199	0x3d877543	0.06614163
200	0xbda4bbb1	-0.08043612
201	0xbd980567	-0.074229054
202	0xbc83077d	-0.015994782
203	0xbbce497f	-0.0062953825
204	0xbd59ab57	-0.053141918
205	0xbd90a9e2	-0.070636526
206	0xbdab9987	-0.083788924
207	0x3da48501	0.08033181
208	0xbbb988a6	-0.0056620417
209	0xbd923d01	-0.07140542
210	0x3ce645ca	0.02810945
211	0x3db8d78e	0.09025489
212	0x3c428375	0.011872162
213	0x3aefe165	0.0018301426
214	0xbd73c773	-0.05951638
215	0xbd6421be	-0.05569624
216	0x3be7303c	0.0070553105
217	0x3d840096	0.06445424
218	0x3d0f6fc8	0.035018712
219	0xbd2d64a5	-0.04233231
220	0xbd4fdd00	-0.05074787
221	0xbd30cb11	-0.04316241
222	0x3c8f5b53	0.017499601
223	0xbcd8fab7	-0.026486738
224	0x3d758d18	0.05994901
225	0xbd352555	-0.044225056
226	0xbdaa5ed2	-0.08318867
227	0xbd1bafd3	-0.038009476
228	0x3cb307f7	0.021854384
229	0x3b70d6e8	0.0036749188
230	0x3d1c7c6f	0.038204607
231	0xbc7f7f25	-0.015594278
232	0xbc55ba94	-0.013044972
233	0xbd48874c	-0.048957154
234	0x3dadfde9	0.08495695
235	0x3d636183	0.055512916
236	0x3c5e5f9f	0.0135726025
237	0xbd0fa102	-0.03506566
238	0xbc18fa65	-0.009337042
239	0xbc948110	-0.018127948
240	0x3db53a03	0.088489555
241	0xbd53cb8e	-0.051707797
242	0xbdb32852	-0.08747925
243	0x3c82dc3e	0.01597416
244	0x3c88cb69	0.016698556
245	0xbc929dc7	-0.0178975
246	0xbd8d3c6a	-0.06896289
247	0xbcbc611c	-0.022995524
248	0xbd62b72d	-0.05535047
249	0xbcf0e36d	-0.02940532
250	0x3cd7133f	0.026254294
251	0x3d6fffc1	0.058593515
252	0xbda24cf7	-0.07924836
253	0xbae8f343	-0.0017772693
254	0xbc9e31ee	-0.019310918
255	0xbae47747	-0.0017430567

bias f4 [128]
0	0x3c6300af	0.013855143
1	0xbbc07bd3	-0.005874136
2	0x3d010f8b	0.031508964
3	0x3ca6b30b	0.020349046
4	0xbd0e4477	-0.034733262
5	0x3cb96efc	0.02263593
6	0x3d9288d1	0.07155002
7	0xbd62662f	-0.05527323
8	0xbc238020	-0.009979278
9	0xbd8803b0	-0.06641328
10	0xbd16de8c	-0.03683333
11	0xbc8633a5	-0.016382048
12	0xbae3e3c1	-0.0017386602
13	0xbda74119	-0.08166713
14	0x3d2d1e38	0.042265147
15	0x3c5a6af9	0.013331168
16	0x3cb8d03e	0.022560235
17	0x3d077cbc	0.03307794
18	0x3ca24a72	0.019810889
19	0x3d40c020	0.047058225
20	0xbd3a865b	-0.045538288
21	0xbcbab246	-0.022790086
22	0xbb8177f3	-0.0039510666
23	0xbced3f25	-0.028960774
24	0x3d484a8b	0.048899215
25	0xbd908f0a	-0.070585325
26	0xbd928e71	-0.07156075
27	0xbd49814e	-0.04919558
28	0x3bb6bcf0	0.0055767223
29	0x3d80db1f	0.06291794
30	0xbd92bb85	-0.07164673
31	0xbd3e32d3	-0.04643519
32	0x3d24768c	0.040152118
33	0x3a081233	0.00051907
34	0x3d90ced1	0.07070697
35	0x3c28736d	0.010281426
36	0x3d98cc73	0.074608706
37	0xbd02efb9	-0.0319669
38	0xbc48ed38	-0.012263589
39	0xbd2816d7	-0.041037407
40	0x3d9a0e23	0.075222276
41	0xbd3fef04	-0.046858802
42	0x3d5d2ce1	0.053997878
43	0xbba2f629	-0.0049731922
44	0xbd25a775	-0.040442903
45	0xbd014ce2	-0.03156746
46	0x3ce704cc	0.02820053
47	0xbcd4ba87	-0.02596785
48	0xbd1bd16f	-0.03804153
49	0x3d33a44b	0.043857854
50	0xbc2622ca	-0.01014013
51	0x3d860e0e	0.065456495
52	0xbd9b09cd	-0.07570229
53	0x3ce3be3c	0.027800672
54	0xb9c87ae6	-0.0003823854
55	0x3d49695c	0.049172744
56	0xbba5049b	-0.0050359494
57	0xbda8dd15	-0.08245293
58	0x3d8a7821	0.06761194
59	0x3d0050b5	0.03132697
60	0x3c6139b6	0.0137466695
61	0xb9ea9694	-0.00044744147
62	0x3d8d40bc	0.06897113
63	0x3d937f20	0.072019815
64	0xbd91dbaf	-0.071219794
65	0x3daf22e8	0.0855158
66	0x3d97ae0b	0.07406243
67	0xbc120d5a	-0.008914316
68	0xbc0914e1	-0.008366794
69	0x3da38310	0.079839826
70	0xbd05ad1d	-0.032635797
71	0xbdab9315	-0.08377663
72	0xbcafdebd	-0.021468515
73	0x3d0d419f	0.03448641
74	0xbcd30567	-0.025759412
75	0xbd9a8953	-0.07545724
76	0xbb9da991	-0.0048114737
77	0x3bf9e694	0.007626364
78	0xbd5cbfe9	-0.053893957
79	0x3d4c9030	0.049942195
80	0xbd8aa13e	-0.06769036
81	0x3cfd047c	0.030885927
82	0x3cecfd9d	0.028929526
83	0x3cd557a5	0.026042769
84	0x3cc9f4df	0.024652896
85	0xbdac2690	-0.08405793
86	0x3daf8a19	0.08571262
87	0xbd5e261f	-0.054235574
88	0xbcc4e194	-0.024033345
89	0xbbd5048e	-0.006500787
90	0xbcfbb791	-0.03072718
91	0x3c41fb00	0.011839628
92	0x3cafebba	0.021474708
93	0x3d5cf54e	0.05394488
94	0xbd09da35	-0.033655364
95	0xbd42ab95	-0.047526915
96	0x3d3fd1e1	0.046831015
97	0xbcd95a81	-0.026532413
98	0x3b8cd6db	0.0042980737
99	0xbd602a33	-0.054727744
100	0x3d7742cf	0.060366448
101	0x3d63a2f2	0.05557532
102	0x3d54fbfe	0.05199813
103	0x3d515304	0.05110456
104	0xbcce0f23	-0.025153702
105	0xbd8423be	-0.0645213
106	0x3d51a04e	0.05117827
107	0x3d9a0691	0.07520784
108	0x3cd53b9b	0.026029399
109	0x3d257dcc	0.040403172
110	0x3d80b710	0.062849164
111	0x3c9d9244	0.019234784
112	0xbd68d8de	-0.056847446
113	0x3b47fc0d	0.0030515224
114	0x3d748f8b	0.059707206
115	0x3d56ac43	0.052410375
116	0x3dab8f7a	0.08376975
117	0xbc952e5e	-0.018210586
118	0x3d5dc1e4	0.054139987
119	0xbda229a7	-0.07918101
120	0x3c6eba23	0.014570746
121	0xbd207fff	-0.039184567
122	0x3be36f42	0.006940753
123	0x3da371fa	0.07980724
124	0xbbf7fadb	-0.007567746
125	0x3d62fa0c	0.055414245
126	0x3d5f4dfc	0.05451773
127	0xbb875c9a	-0.004130912

weight f4 [128, 128]
0	0x3d26a002	0.04067994
1	0x3cf6658f	0.030077724
2	0xbd195c56	-0.037441574
3	0xbda1f2a5	-0.07907609
4	0x3d83692d	0.06416545
5	0xbd32e2f5	-0.043673474
6	0xbdb38988	-0.087664664
7	0xbd713414	-0.058887556
8	0x3bcaf6ea	0.006193985
9	0xbd96c5d5	-0.07361952
10	0x3c883ab7	0.01662956
11	0xbd8afb86	-0.067862555
12	0xbd39adfc	-0.04533194
13	0xbd8d8b44	-0.069113284
14	0x3d6bdbfb	0.057582837
15	0xbd31d50b	-0.043416064
16	0x3dab2275	0.083561815
17	0x3d8f53e0	0.0699842
18	0xbd74496e	-0.05964034
19	0xbd1af5c2	-0.03783203
20	0x3d122c63	0.03568686
21	0xbdb0d685	-0.08634666
22	0x3d1b4e24	0.037916318
23	0x3d9e18f1	0.07719601
24	0xbcce5d83	-0.025191074
25	0x3c07a297	0.0082785105
26	0xbc8cf774	-0.017207839
27	0x3cfc9ecd	0.03083744
28	0xbd142cc0	-0.03617549
29	0x3cd1adb6	0.025595527
30	0x3d02c798	0.03192863
31	0xbdab71e9	-0.08371336
32	0xbd6097df	-0.054832336
33	0x3c5384e9	0.012910106
34	0x3c55fc9f	0.013060718
35	0x3cf0b844	0.02938474
36	0xbcf22865	-0.029560277
37	0x3db2bee5	0.087278165
38	0x3d716034	0.058929637
39	0x3d5ccd7f	0.053906914
40	0x3daa87a8	0.083266556
41	0xbc8d8b00	-0.017278194
42	0x3d99d5aa	0.07511456
43	0xbc8ed894	-0.017437257
44	0x3d4e1d01	0.05032063
45	0x3ac9670b	0.0015365792
46	0xbd17930f	-0.03700548
47	0x3db8f039	0.09030194
48	0xbc1ab887	-0.009443409
49	0x3d9433d2	0.072364464
50	0xbd2ed1b8	-0.042680472
51	0x3d356aaa	0.044291176
52	0xbda8c67f	-0.08240985
53	0xbd9233e1	-0.07138801
54	0x3da7c36b	0.0819157
55	0x3da3ee63	0.08004453
56	0x3d57d076	0.05268904
57	0x3c84db45	0.016217837
58	0xbc60c567	-0.013718939
59	0xbd88c80c	-0.06678781
60	0xbcc54f57	-0.024085684
61	0xbbe0f622	-0.006865279
62	0x3d462c92	0.04838235
63	0x3cf48bd5	0.029851833
64	0x3c708dcc	0.0146822445
65	0xbd4bf62b	-0.04979531
66	0x3c6166fe	0.013757465
67	0x3ce7b02e	0.028282251
68	0x3d97099b	0.07374879
69	0x3dae39b6	0.08507101
70	0x3d083f78	0.033263654
71	0x3d89e363	0.06732824
72	0xbd5c9ea0	-0.053862214
73	0xbd973a33	-0.073841475
74	0xbd5e650f	-0.054295596
75	0x3c86c199	0.016449736
76	0x3cc0e0a6	0.02354462
77	0xbbb2ca5b	-0.0054562516
78	0x3d488ba8	0.04896131
79	0x3cd0401d	0.025421197
80	0x3d384d5a	0.044995643
81	0xbcda7699	-0.02666788
82	0x3d185fd6	0.03720077
83	0xbda87645	-0.08225683
84	0xbda66427	-0.08124571
85	0xbd4b7624	-0.049673215
86	0x3c283a59	0.010267817
87	0xbda69ef2	-0.08135785
88	0xbd9e3ca6	-0.077264115
89	0x3c4fdfd8	0.012687646
90	0x3d3042c0	0.043032408
91	0xbd941221	-0.0723002
92	0x3db705d6	0.0893666
93	0xbd780894	-0.060555056
94	0xbd7207fa	-0.05908964
95	0xbb64906c	-0.0034876121
96	0x3d2f7e89	0.042845283
97	0xbce95e4c	-0.028487347
98	0x3d61baca	0.055109777
99	0x3d245b08	0.040125877
100	0x3da60c66	0.081078336
101	0x3da8892c	0.082292885
102	0xbd7ec21e	-0.062196843
103	0xbd99a2f5	-0.07501785
104	0xbd473120	-0.048630834
105	0xbd9d455b	-0.07679244
106	0xbc54e604	-0.012994293
107	0x3d032688	0.03201917
108	0xbc5cfdad	-0.013488215
109	0x3b40076a	0.0029301294
110	0xbd759a93	-0.059961867
111	0x3d382959	0.044961307
112	0xbd25f0be	-0.040512793
113	0x3d717bd8	0.058955997
114	0xbd13de8e	-0.036100917
115	0xbc4df1b2	-0.012569832
116	0xbd2e9987	-0.042626884
117	0x3c9c1cd6	0.019056719
118	0x3d386a0a	0.045023
119	0x3d886427	0.066597275
120	0x3d22fa3f	0.039789435
121	0x3d99b7c3	0.07505753
122	0xbb654da4	-0.0034988904
123	0xbd32ac9f	-0.043621656
124	0xbdae86c6	-0.085218
125	0x3d49e01d	0.049285997
126	0x3d87e100	0.06634712
127	0xbd1e9ebb	-0.038725596
128	0xbcd1fa2a	-0.025631983
129	0x3d8005b2	0.06251086
130	0xbd9fe34a	-0.07807024
131	0x3d3c4aa9	0.04596964
132	0xbcbc1062	-0.02295703
133	0x3b27de9d	0.0025614866
134	0xbca1f5d3	-0.019770538
135	0xbd90a655	-0.07062975
136	0xbce295c8	-0.027659312
137	0x3d8aa7c8	0.06770283
138	0x3c833333	0.016015625
139	0xbd858d6a	-0.06521113
140	0xbd04c722	-0.03241647
141	0xbd5b9ed1	-0.053618256
142	0xbd8ebf1d	-0.06970046
143	0x3c3ced25	0.011531149
144	0xbbcf963e	-0.006335049
145	0x3db1ffac	0.08691344
146	0xbd2151cb	-0.039384644
147	0xbd1d7f0a	-0.038451232
148	0x3d93aa8c	0.072102636
149	0x3da1e198	0.07904357
150	0xbd84d63f	-0.06486177
151	0xbd9d02e6	-0.076665685
152	0xbc9ce3c7	-0.019151581
153	0x3db4d6f2	0.0883006
154	0x3d94f5b1	0.072734244
155	0x3d99c45c	0.07508156
156	0xbd0a5b66	-0.03377857
157	0xbb5a283b	-0.003328814
158	0x3c9b174d	0.01893201
159	0xbc570e36	-0.013125947
160	0x3d165a33	0.036707114
161	0xbdb134e5	-0.08652667
162	0x3da64561	0.08118702
163	0x3db4476b	0.088026844
164	0x3ca8ab8f	0.020589618
165	0x3cf899e4	0.030346818
166	0x3cdab98d	0.026699806
167	0x3db3af69	0.08773691
168	0x3cfa6bf7	0.03056906
169	0x3d897f44	0.06713727
170	0xbd5e7dc2	-0.05431915
171	0xbc8b6629	-0.017016487
172	0xbc7cd60d	-0.015431893
173	0x3d8ae51b	0.0678198
174	0xbce6ae2d	-0.028159225
175	0xbd39621e	-0.045259587
176	0x3d925a54	0.07146135
177	0x3d924906	0.07142834
178	0x3d82b2ae	0.06381737
179	0x3cbe7ddd	0.023253376
180	0x3db36b65	0.08760718
181	0xbd5a6318	-0.05331716
182	0x3d54d1e4	0.05195798
183	0xbd2a4946	-0.041573785
184	0x3cb5ad22	0.022177283
185	0x3d55d2c9	0.052202974
186	0xbca00bf6	-0.019536953
187	0x3c8e8a8e	0.017400052
188	0xbd8269d5	-0.06367842
189	0x3c940059	0.018066572
190	0xbd660c4f	-0.056164082
191	0x3c02a9c9	0.00797505
192	0xbd855633	-0.06510582
193	0x3cec31e3	0.028832382
194	0xbcd78676	-0.026309233
195	0xbd884fc2	-0.066558376
196	0x3dac966d	0.08427129
197	0xbd633a1b	-0.055475336
198	0xbd97b09e	-0.07406734
199	0x3d2de7e5	0.04245748
200	0xbb4df1eb	-0.0031424712
201	0x3cba083b	0.022709003
202	0xbc8a7306	-0.01690055
203	0xbc1dd568	-0.0096334
204	0x3d6c799c	0.057733163
205	0x3d1b7108	0.037949592
206	0x3c0791e9	0.008274534
207	0x3d69b208	0.05705455
208	0x3d5133d5	0.05107482
209	0x3cb1a78a	0.021686334
210	0x3db124b1	0.086495765
211	0xbc833a72	-0.01601908
212	0x3bf3651b	0.007427824
213	0xbd64dbc4	-0.055873647
214	0x3d28bf8a	0.04119829
215	0xbca1760e	-0.019709613
216	0x3c51fe4b	0.012816976
217	0x3d30be66	0.043150328
218	0xbd6d4071	-0.057922784
219	0x3da262be	0.0792899
220	0x3cde0392	0.027101312
221	0xbd8cfb32	-0.06883849
222	0x3daf1c44	0.08550313
223	0xbd09f7ef	-0.033683714
224	0xbc83700b	-0.016044637
225	0xbd18d98c	-0.037316844
226	0xbba073ce	-0.0048966175
227	0xbcd08af5	-0.025456885
228	0x3d927ade	0.07152341
229	0xbb713574	-0.0036805542
230	0xbbb04fc5	-0.005380603
231	0xbb64d42c	-0.0034916503
232	0x3ca5e732	0.020251844
233	0xbd7b57c0	-0.06136298
234	0x3d09390a	0.033501662
235	0x3c26f248	0.0101896
236	0x3d785e03	0.06063653
237	0xbd00eed9	-0.031477783
238	0xbd69d6ac	-0.057089493
239	0x3bb25784	0.0054425616
240	0x3cd9a21d	0.02656656
241	0x3d9ab133	0.07553329
242	0x3da0eef9	0.078580804
243	0xbd006813	-0.031349253
244	0x3d004084	0.031311527
245	0xbba5a403	-0.005054952
246	0xbd5a192d	-0.053246666
247	0xbd1d7824	-0.038444653
248	0xbc307498	-0.010769986
249	0x3d765b52	0.060145684
250	0xbd7aa49a	-0.061192133
251	0x3d8d4866	0.068985745
252	0x3d0a0a67	0.033701327
253	0xbd569a84	-0.05239345
254	0xbd1061b1	-0.035249416
255	0xbcb06fe1	-0.021537723

bias f4 [128]
0	0x3da62657	0.081127815
1	0x3bbaeb8e	0.00570435
2	0xbd9b4ead	-0.075833656
3	0xbb83b07d	-0.004018842
4	0xbd6cf933	-0.057854842
5	0xbb13ca1a	-0.0022550882
6	0xbb38423f	-0.0028115658
7	0x3d93b810	0.072128415
8	0xbda8c24c	-0.08240184
9	0x3cf12dde	0.029440816
10	0xba321cfd	-0.0006794481
11	0xbdae8d83	-0.08523085
12	0xbd3e5105	-0.046463985
13	0xbd63aadb	-0.055582862
14	0x3d903b8b	0.07042607
15	0xbd2a32ba	-0.041552283
16	0xbd69e10c	-0.057099387
17	0x3b8a759f	0.0042254473
18	0x3da2eac1	0.07954932
19	0x3d40d867	0.047081377
20	0xbccb7391	-0.02483538
21	0x3d237953	0.039910626
22	0xbd86c8f3	-0.06581297
23	0xbd883a02	-0.06651689
24	0x3d630c6f	0.05543178
25	0xbc9eea8b	-0.019398948
26	0xbce41be2	-0.027845327
27	0x3d088989	0.03333429
28	0x3c15d715	0.009145518
29	0xbd6e52dd	-0.058184493
30	0x3a24ba26	0.0006283842
31	0xbd458f14	-0.048232153
32	0xbdb501bb	-0.08838221
33	0x3c9ffee5	0.019530723
34	0xbdb382d6	-0.08765189
35	0xbc2bcb86	-0.0104855355
36	0x3ae5d322	0.0017534236
37	0x3cbb7135	0.02288113
38	0x3d51f246	0.05125644
39	0xbbde40ec	-0.0067826416
40	0xbd41ad9c	-0.047284707
41	0x3a0eb130	0.0005443273
42	0xbcfadde2	-0.03062338
43	0xbcab8ad2	-0.020940218
44	0x3d70227b	0.058626633
45	0xbd68f064	-0.05686988
46	0xbc28a7ac	-0.010293882
47	0xbcc4faca	-0.024045367
48	0xbdac43cc	-0.08411369
49	0x3cdd4fb7	0.02701555
50	0x3cf5da05	0.030011186
51	0x3d9f4f4f	0.07778799
52	0xbc8ed9ef	-0.017437903
53	0xbd3bc15d	-0.045838702
54	0x3d154c1e	0.036449544
55	0x3d79afa3	0.060958516
56	0xbd599b77	-0.05312678
57	0x3bfba391	0.0076794107
58	0x3c8631e4	0.016381212
59	0xbd56fd71	-0.052487794
60	0xbc443cee	-0.011977417
61	0x3d5f1f18	0.054473013
62	0x3d63b1a8	0.055589348
63	0x3b45a6e8	0.0030159298
64	0xbd8203bf	-0.06348371
65	0x3d3f1edb	0.046660285
66	0x3d5d471d	0.054022897
67	0xbd4d304c	-0.050094888
68	0xbc94a262	-0.018143836
69	0xbc96640b	-0.018358251
70	0x3d879ee5	0.066221036
71	0x3d807224	0.062717706
72	0x3cbb524b	0.022866389
73	0xbdb443cc	-0.08801994
74	0xbcab7e08	-0.02093412
75	0x3c9a7eb8	0.018859252
76	0x3ab9ae8d	0.00141664
77	0xbd814207	-0.06311422
78	0x3d6600a9	0.056152973
79	0x3d82e4b7	0.0639128
80	0xbd86b9a7	-0.06578379
81	0x3d226458	0.039646477
82	0x3d1c1a67	0.038111117
83	0xbd0cce2a	-0.0343763
84	0xbd06c788	-0.03290513
85	0xbd5334f3	-0.05156417
86	0x3cc43f02	0.023955826
87	0x3b9489f9	0.004533049
88	0xbdac180d	-0.08403025
89	0xbdafd6d3	-0.08585896
90	0x3d7dd24d	0.061968137
91	0x3dafb63f	0.085796826
92	0x3d33535c	0.04378067
93	0xbd2d0ce7	-0.042248633
94	0x3d0ff715	0.035147745
95	0x3d0048e7	0.031319525
96	0x3d026ce2	0.03184212
97	0x3d7a21f3	0.061067533
98	0xbd85bc5f	-0.065300696
99	0x3acd9051	0.0015683268
100	0x3da7b87b	0.08189484
101	0x3d940b95	0.072287716
102	0xbdb46cf6	-0.08809845
103	0xbce2ccc1	-0.027685525
104	0xbd1ad4c8	-0.03780058
105	0xbd65c786	-0.056098484
106	0x3d808048	0.06274468
107	0xbb3ebc9c	-0.002910412
108	0xbd47547b	-0.04866455
109	0x3c386877	0.011255375
110	0xbd598484	-0.053104892
111	0x3d88f93d	0.066881634
112	0x3bb0cb82	0.005395354
113	0x3d4f2307	0.050570514
114	0xbd5162c3	-0.051119577
115	0xbda2909e	-0.0793774
116	0xbd26a8e4	-0.04068841
117	0x3d949f87	0.0725699
118	0x3db979e9	0.09056456
119	0x3d33e39e	0.043918245
120	0x3d674af5	0.05646797
121	0xbd5f4fe1	-0.054519538
122	0xbcce8682	-0.025210623
123	0x3d9fa474	0.07795039
124	0x3d8a562a	0.06754716
125	0x3d2a5c11	0.041591708
126	0x3d405358	0.046954483
127	0xbd223c77	-0.039608445

weight f4 [2, 128]
0	0x3d8016ff	0.06254386
1	0xbb926463	-0.0044675334
2	0xbd180efb	-0.03712366
3	0xbc656616	-0.01400139
4	0xbd203769	-0.039115343
5	0x3d664586	0.056218646
6	0xb9cb8126	-0.000388154
7	0x3c9fecc1	0.019522073
8	0xbd85c186	-0.06531052
9	0xbca6c2bd	-0.02035653
10	0x3da3ff13	0.08007636
11	0x3d2a446a	0.04156915
12	0xbd81fd04	-0.06347087
13	0x3d59327b	0.053026658
14	0xbaaac52f	-0.0013028736
15	0x3d9e5d34	0.07732621
16	0xbc8c6e31	-0.017142387
17	0x3d09b3ee	0.03361886
18	0x3be199cd	0.0068847896
19	0x3d5b6271	0.053560678
20	0x3c425c5a	0.011862839
21	0xbd992ea7	-0.07479601
22	0xbd928e77	-0.07156079
23	0x3d6dab0c	0.05802445
24	0x3d84989c	0.064744204
25	0xbc88ce32	-0.016699884
26	0xbd219eb2	-0.039457984
27	0xbd9c2fba	-0.076262906
28	0xbd8dbb28	-0.06920463
29	0x3d87070e	0.065931424
30	0x3d120b19	0.035655115
31	0x3c99804b	0.018737933
32	0x3c2b16ae	0.010442419
33	0x3abfae62	0.0014624114
34	0xbcf5ed68	-0.03002043
35	0xbd8862bd	-0.06659458
36	0x3cd683e2	0.026185934
37	0xbd615b8c	-0.055018947
38	0x3d8a7084	0.06759742
39	0x3da8d6ec	0.08244118
40	0xbd262fe0	-0.040573
41	0xbd884688	-0.06654078
42	0x3cca3574	0.024683692
43	0x3d42d82f	0.04756945
44	0xbd9c7a8b	-0.07640561
45	0xbd8a43dd	-0.06751225
46	0x3d4f172a	0.0505592
47	0xbd281348	-0.041034013
48	0x3da8f35f	0.08249544
49	0xbda83d99	-0.08214874
50	0x3c55acc0	0.013041675
51	0x3d8db921	0.06920076
52	0x3d97cdab	0.07412275
53	0xbd65ac3a	-0.05607245
54	0xbc10215e	-0.008797018
55	0x3d3cc0d0	0.046082318
56	0x3cd274a3	0.025690382
57	0x3d867cc1	0.06566764
58	0xbca9af8c	-0.02071359
59	0x3d39d058	0.045364708
60	0x3d835d37	0.06414264
61	0xbd39bf05	-0.045348186
62	0xbd9df51e	-0.07712768
63	0x3d009161	0.031388644
64	0x3d0be062	0.034149535
65	0x3d9724a4	0.073800355
66	0xbd98fab3	-0.07469692
67	0x3ceb09da	0.028691221
68	0xbba287cb	-0.0049600354
69	0xbdb3158f	-0.08744346
70	0x3d8aa738	0.06770176
71	0xbcc40fc8	-0.023933306
72	0x3d9348fa	0.071916535
73	0x3dab0494	0.083504826
74	0x3d269cb5	0.04067679
75	0x3d4d1981	0.05007315
76	0x3d8ad6c9	0.06779248
77	0xbd000790	-0.031257212
78	0x3d70ebe0	0.058818698
79	0xbcb4f3b7	-0.022088869
80	0xbaf28b66	-0.0018504679
81	0x3d874ecf	0.066068284
82	0xbc547504	-0.012967352
83	0x3d897dc5	0.06713442
84	0xbc8332c7	-0.016015423
85	0xba8690a5	-0.0010266496
86	0xbd3f6135	-0.046723563
87	0x3d3ba404	0.045810714
88	0x3d1f2532	0.03885383
89	0xbccee24c	-0.025254391
90	0x3d48c5c5	0.049016733
91	0xbceca0f9	-0.028885351
92	0xbc56a95e	-0.013101904
93	0xbc35d6d4	-0.011098582
94	0xbda64bd8	-0.08119935
95	0xbc3b38ad	-0.011427087
96	0xbd0f4f48	-0.034987718
97	0x3d96ffcc	0.07373008
98	0xbcc3ee17	-0.023917241
99	0xbd21cb75	-0.039500672
100	0x3daac1c4	0.08337739
101	0xbd20fdc3	-0.039304506
102	0x3d1ea995	0.038735945
103	0x3d23dbbe	0.040004484
104	0xbcb50c27	-0.022100521
105	0xbdaf55ef	-0.085613124
106	0xbd021a9b	-0.031763654
107	0x3c0262f0	0.007958159
108	0xbd59fa77	-0.053217378
109	0xbc49c0a5	-0.012313996
110	0xbcb5031d	-0.022096211
111	0xbd36897e	-0.044564717
112	0x3d81cdd5	0.063380875
113	0xbd5dac6d	-0.054119516
114	0x3d17fca1	0.03710616
115	0x3cd67601	0.026179316
116	0x3c8fb642	0.017542962
117	0xbcdc4c18	-0.026891753
118	0xbce730ee	-0.028221574
119	0xbd89791c	-0.06712553
120	0xbd4b66d0	-0.049658597
121	0x3d35f637	0.044424262
122	0xbd476c65	-0.048687357
123	0xbda30b99	-0.079611965
124	0x3d125a5a	0.035730697
125	0xbc027d90	-0.007964507
126	0x3dae6667	0.085156254
127	0xbd837a0c	-0.06419763
128	0x3d7743e3	0.060367476
129	0x3d4b61fd	0.049653996
130	0x3d0dfdbe	0.034665816
131	0xbd4d9b69	-0.05019704
132	0x3dad6bf6	0.084678575
133	0x3d7b080d	0.061286975
134	0x3d9f9211	0.07791532
135	0xbd85901b	-0.065216266
136	0xbdad4ee9	-0.084623165
137	0xbc820a4b	-0.015874049
138	0x3d69d9a2	0.057092316
139	0xbd9ea300	-0.077459335
140	0xbad8543b	-0.0016504595
141	0x3d19f96f	0.037591394
142	0xbd514d57	-0.051099148
143	0x3c2e44d3	0.010636526
144	0x3d8ab9e2	0.067737356
145	0x3d31b77e	0.043387882
146	0xbd5c3862	-0.05376471
147	0xbd5ac3b7	-0.053409304
148	0xbd8fa010	-0.070129514
149	0x3c8b62fb	0.017014971
150	0xbce87daf	-0.028380243
151	0x3d64f1a8	0.055894524
152	0x3bacea33	0.005276942
153	0xbd2af282	-0.04173518
154	0xbc9f307c	-0.019432299
155	0x3d948a2b	0.07252916
156	0x3ba20e14	0.004945526
157	0x3d57da17	0.05269822
158	0x3d8a3f2a	0.06750329
159	0x3ce072fd	0.02739858
160	0x3cb3e3fc	0.021959297
161	0x3d834055	0.06408755
162	0x3d0197ea	0.031639017
163	0x3cad52fe	0.021157738
164	0x3db1c220	0.086796045
165	0xbd811ce5	-0.06304339
166	0x3da6d6e5	0.08146457
167	0x3bbb9806	0.0057249097
168	0x3acd1ecf	0.001564944
169	0xbc26cef6	-0.010181179
170	0xbc93d0db	-0.018043926
171	0xbc9aaf9b	-0.018882563
172	0x3cd6465e	0.0261566
173	0x3d8fc55c	0.07020065
174	0xbd59feba	-0.05322144
175	0x3c885122	0.01664025
176	0x3d577a5b	0.05260692
177	0x3da0be34	0.07848778
178	0xbd86838b	-0.065680586
179	0x3d838322	0.06421496
180	0x3d47264d	0.04862051
181	0x392a69a9	0.00016251825
182	0xbd26dd0d	-0.040738154
183	0x3cecfa7e	0.028928038
184	0xbd7948ee	-0.060860567
185	0xbdb019db	-0.085986815
186	0x3d71665e	0.058935516
187	0xbc70ae05	-0.014689927
188	0xbd59923a	-0.05311797
189	0x3d8892ec	0.06668648
190	0x3d9b2791	0.07575906
191	0xbd11ad68	-0.035565764
192	0x3d005dfe	0.031339638
193	0xbcba1946	-0.02271713
194	0x3d520d47	0.051282194
195	0x39de0d9a	0.00042353274
196	0x3d283ff3	0.04107661
197	0xbcc77680	-0.024348497
198	0x3d539a98	0.051661104
199	0xbd6eb0de	-0.058274142
200	0xbd02c982	-0.031930454
201	0x3dabafb5	0.08383123
202	0xbcc0be9f	-0.023528395
203	0xbd97af56	-0.074064896
204	0x3d64f57e	0.055898182
205	0xbd3b5b9d	-0.045741666
206	0xbd8f55d8	-0.06998795
207	0x3d295193	0.04133756
208	0x3d1d5106	0.038407348
209	0xbc8a6c13	-0.016897237
210	0xbd1f74b3	-0.038929652
211	0x3c9d398a	0.019192476
212	0x3d965c4d	0.07341824
213	0xbcb2d4a1	-0.021829905
214	0x3c010e26	0.007876908
215	0x3bd2051d	0.006409301
216	0xbd60eafa	-0.05491159
217	0x3d9e515b	0.07730361
218	0xbda8ca4f	-0.08241712
219	0x3d1634ed	0.036671568
220	0xbd891029	-0.066925354
221	0x3c26f43b	0.010190065
222	0xbbcc5871	-0.006236129
223	0xbd89bf92	-0.06725992
224	0x3d237967	0.0399107
225	0x3d345881	0.044029716
226	0xbd81fb8b	-0.06346806
227	0xbd43c744	-0.047797456
228	0x3d8e63eb	0.069526516
229	0x3c1448e5	0.009050583
230	0x3cda7d4b	0.026671072
231	0x3c18eaf3	0.00933336
232	0xbce260f7	-0.027634127
233	0x3bb52aa6	0.0055287657
234	0xbc9cb10f	-0.019127397
235	0x3d1aaa43	0.03776003
236	0x3cd2fe73	0.025756096
237	0xbb950664	-0.004547881
238	0xbc864ae4	-0.016393133
239	0xbcc4a04d	-0.024002219
240	0x3d24b4b0	0.04021138
241	0xbd88abaf	-0.06673371
242	0xbcf76df3	-0.030203795
243	0xbd1511ed	-0.03639405
244	0x3d83a355	0.064276375
245	0xbd258adf	-0.04041564
246	0x3d8e8219	0.06958408
247	0xbcec582e	-0.028850641
248	0xbd1bc84a	-0.038032807
249	0x3cba02a1	0.022706332
250	0xbd8862ac	-0.06659445
251	0xbd0ca7a4	-0.034339562
252	0x3d1bf20d	0.038072634
253	0x3cf04dcd	0.029333973
254	0x3db19aef	0.08672129
255	0xbd4521c5	-0.04812791

bias f4 [2]
0	0xbd467536	-0.048451625
1	0xbd25d393	-0.040484976
