model_saved/epoch_19.pth (torch, 139407 bytes, 8 tensors)

weight f4 [128, 5]
00000000: 1ae7 1abd 8272 d2be 021d 343e 588a 4ebe
00000010: 8b93 133d 9fcb 65be dad7 c0bd 9078 1fbc
00000020: 15c0 84be 56ab 0c3d 0535 a8bd 4029 cbbd
00000030: f48e 82ba 20b6 babd 1d27 d9be 5193 733e
00000040: 739b 12bd 45b2 6c3e d9df 13be 9d7a b13e
00000050: 7b4c 9c3e 8353 213d 0bf8 3cbd 0761 aabd
00000060: 2456 ebbd 3b3c 83be 7c63 2a3e 4750 8bbd
00000070: 3eed 7cbe e962 a33e adc2 40be d5ab 3fbe
00000080: d00e 94be 280b 463d 05c6 dabe b93c bd3e
00000090: 0baf 3d3c 56c0 1dbe 17a5 cb3d b92d 9bbe
000000a0: 097b b7be 8bbd 5cbe 0d9f 7abb 29a2 8abe
000000b0: 7ead a2be 5e74 093e f8af b63e ad01 cabe
000000c0: 1208 7e3e 73b3 cb3e f8f2 8dbe 9bcf c13e
000000d0: cdd2 c5be 9442 b8be 991e 8bbd 9a18 9c3e
000000e0: e89b 393e d33e 9c3e 4d5d 9dbe 988d bebd
000000f0: 21f0 d93e 4de4 673e 9579 17be d100 28be
00000100: 2b76 f73d fa7d b1be 337f 53bd 5ec8 66be
00000110: 5a3d 3fbe a4dd a2bd f162 a93e 0b5a e9bd
00000120: 1c2f 36be c571 7c3e 3ab3 e13e ed4d cf3e
00000130: a6a0 a7be b0d4 bdbc cb85 a0be 4021 af3e
00000140: 6181 433e 6d03 cbbe 7d3d c0be 8b31 02bd
00000150: ff96 1c3d 7362 a5be db8f a8bd 7c6e 86be
00000160: 52ea ccbe 0584 873c 353a cfbd 4c04 c03e
00000170: 51b4 babd a0d3 80be 53f4 893e 0535 d5be
00000180: 56c6 703e 0e08 58be 1fa1 753d b2fd 4f3e
00000190: e524 b5be 1dc0 8f3e e0e0 8bbe 6162 2ebe
000001a0: 3a4b c3bd 71ef 9ebe d311 a43d 9df6 ccbe
000001b0: f6da 2a3d 9399 1c3e 964b cc3e 4a13 863e
000001c0: ee56 d83d 4ccc 80bd a83b 8ebe c7cd b13d
000001d0: ff9e c43e faae e43e 1d4d 91bd 15e6 143d
000001e0: 482e 40be 5fce adbe e657 893e 26db 523e
000001f0: 7731 7a3d 88a7 ca3e bda9 e13e 9863 333e
00000200: fe0c db3e 358a 533e 52df d3be 60f5 a63e
00000210: 584d 573e 5810 b0be a4e6 8fbe 10e3 413d
00000220: f4c3 03be 8315 13be f937 86be 5157 84be
00000230: 0129 aebe 8cf6 08be 478e 5a3d 9874 9abe
00000240: 9ec8 a9bd a4ec 12be 7c7c d43d 1d3e c7be
00000250: 4621 84bc 6c80 dbbe dae5 fb3d 993c 3fbe
00000260: d2ed b13c 6636 e1be de3a 49bd 79af 7abe
00000270: 90fd c5be b9d0 903d 37d7 c83d c941 0c3d
00000280: 9489 9cbe 4b18 c33d 6cdd b4be 88e3 79bd
00000290: 7901 51bd 1964 f7bd b1f7 23be 1a52 62be
000002a0: 6e4c 02be 9600 c83e b55d c5bd e3ea 923e
000002b0: f693 c0bd ee67 dc3e 900d 06be be45 58be
000002c0: 5741 88be 6f06 97be e961 bdbe 1f2b c2bc
000002d0: 637c 04be 5e2c 5f3e 70c1 d5be 8183 3c3e
000002e0: e824 b3be 1bc9 0dbd a772 bc3e ba05 d73e
000002f0: 655c c53e 3836 e73d 4d07 72bd 8b30 d5bd
00000300: 029d 0dbe 242e c93e 9f52 af3e 0cdc e03b
00000310: 96a8 dd3e 807f a63e b3f0 c7be dfed 8bbe
00000320: 0c70 57be 5ab1 c0be aa87 c23d a239 c63e
00000330: 0079 ff3d c7cb 503c 3dae 783b 2374 bf3e
00000340: 60b2 21be 76a7 663c 9ed7 46be 2243 b93e
00000350: 58f6 7bbe 6ade 9a3e 4c23 433e 0aec 99bd
00000360: cbe6 c13e 3be2 6bbe f434 0a3e 2cce 923e
00000370: d51e aabd 8698 833e 6285 8b3e 3ede 1bbe
00000380: 05d8 e3be acfc 8fbe 82aa 9cbd c01c 133e
00000390: 3d1a 78be 0504 43be bbd4 a4be b4b8 3d3d
000003a0: 912e 113e 069b a73e c8ff 2dbe d34c 86be
000003b0: 608f 03be 2287 9e3e b9de f7bd f5c6 b03e
000003c0: 3c37 743e 8c6b d5be 6a4a 5abd 6ec3 233e
000003d0: eb99 93be f4d8 743d 6a0d c2bd 3bf2 f83d
000003e0: 9cc7 6fbe 528c f8bd ed59 b43d 455e d1be
000003f0: 7ee5 c4be f777 8d3e 8b92 81be 1143 033d
-0.037818052 -0.41102988 0.1758919 -0.20169961 0.03602938 -0.22440957 -0.094161704 -0.009733334
-0.25927797 0.034343086 -0.08213238 -0.09919977 -0.0009960816 -0.09116769 -0.42412654 0.23786665
-0.03579278 0.2311488 -0.1444086 0.3466386 0.305271 0.039386284 -0.04613499 -0.08319288
-0.114910394 -0.2563189 0.16639513 -0.06802421 -0.24699876 0.319114 -0.18824263 -0.18717892
-0.2891755 0.048350483 -0.42729202 0.3696039 0.011577378 -0.15405402 0.09943598 -0.3030832
-0.35836056 -0.2155668 -0.0038241774 -0.27076843 -0.3177299 0.13423297 0.35681129 -0.39454404
0.24807766 0.39785346 -0.27724433 0.37853703 -0.3863739 -0.35988295 -0.067929454 0.3048752
0.1812588 0.3051668 -0.30735245 -0.093043506 0.42566016 0.22645684 -0.14792474 -0.16406561
0.120830856 -0.34666425 -0.05163498 -0.22537372 -0.18675748 -0.07952431 0.330833 -0.113941275
-0.17791408 0.24652775 0.44082052 0.4048914 -0.32739753 -0.023172706 -0.31352076 0.34205055
0.19092323 -0.3965105 -0.37546912 -0.03178553 0.03822994 -0.32301673 -0.08230563 -0.26256168
-0.40022522 0.016542444 -0.10118524 0.37503278 -0.09116424 -0.25161457 0.26944217 -0.41642013
0.23513159 -0.21096823 0.05996811 0.20311621 -0.3537971 0.28076258 -0.27320004 -0.17029716
-0.09535833 -0.31042054 0.08011212 -0.400319 0.041712724 0.15292959 0.39901417 0.2618659
0.105634555 -0.062889665 -0.2777989 0.08681827 0.38402554 0.44664747 -0.07094786 0.036352236
-0.18767655 -0.3394651 0.26824874 0.20591411 0.06108233 0.3958094 0.44074813 0.17518461
0.4278335 0.2065819 -0.41381317 0.3260908 0.21025598 -0.3438747 -0.28105652 0.047335684
-0.12867719 -0.14363675 -0.2621458 -0.25847867 -0.34015658 -0.133753 0.053358342 -0.3016708
-0.08290218 -0.14348084 0.10375306 -0.38914576 -0.016129147 -0.42871416 0.122997 -0.1867546
0.021719847 -0.43986815 -0.049128406 -0.24481 -0.38670015 0.07071061 0.09806674 0.034242425
-0.30573714 0.09526118 -0.3532518 -0.061008006 -0.051026795 -0.12079639 -0.16012456 -0.22101632
-0.12724468 0.39062947 -0.09637014 0.2869483 -0.09403221 0.43048042 -0.13091111 -0.21120355
-0.2661235 -0.29497096 -0.36988762 -0.023702202 -0.12938075 0.21794268 -0.41749144 0.1840954
-0.34989095 -0.034615617 0.36806223 0.41996557 0.38547054 0.11289638 -0.059088994 -0.104096495
-0.13829425 0.39293015 0.34242722 0.006862169 0.43292683 0.3251915 -0.39050826 -0.2732992
-0.21038836 -0.37635309 0.09498532 0.38715845 0.12474251 0.012743897 0.003794565 0.37393293
-0.15790701 0.014078012 -0.19418189 0.3618403 -0.24605691 0.30247813 0.19056433 -0.07515724
0.37871394 -0.23035519 0.13496763 0.28672922 -0.08306662 0.25702304 0.272502 -0.15221497
-0.44500747 -0.2812246 -0.07649709 0.14366436 -0.24228759 -0.19044502 -0.3219355 0.046318725
0.1417792 0.3273546 -0.16992104 -0.26230487 -0.12847662 0.30962473 -0.12103028 0.34526792
0.23849195 -0.41683614 -0.053293623 0.1599252 -0.28828368 0.059777215 -0.09475215 0.12155577
-0.23415989 -0.12136139 0.088062145 -0.40892234 -0.3845634 0.27630588 -0.25307116 0.03204638

bias f4 [128]
00000000: a42f aebe 2837 873e f56f b93e e13c bf3e
00000010: 27dd a93e 237f 71bd 2c8f ae3e 7e23 82be
00000020: c64c ed3d 33a8 dc3c a05f 303e db07 b7be
00000030: 69fa f2bd 44e4 80be 8790 633e 75e0 8b3e
00000040: a81e 943e 8480 da3e 429c d8be b01a 983e
00000050: e780 523e 86e0 6a3e 7a57 d9be b103 613e
00000060: 2d91 9c3e 8f9f 4bbd b80b 95be 7297 e1be
00000070: 3cd5 bc3e 74f9 313d 09e8 cfbd a89a 7f3d
00000080: 75b0 a63e 8dda 663e 0d96 3dbe 97b1 b9be
00000090: 64fb 903e 7850 373c 20a4 44be 203a 9f3d
000000a0: 946a c43e c925 6dbd 62d5 863e 145a 3c3e
000000b0: cbcf 3bbe 250b a439 c1da a63e b441 6c3e
000000c0: c1b5 85bd 84e0 383e d68b e23e cc42 dc3e
000000d0: 24b4 80be 6eea e63d 8360 cf3e 3deb bebe
000000e0: fe49 13be 663a 433e 8c71 e0be 00b0 93be
000000f0: 77dd d93e 410c 4d3e b5be cdbe bfd0 adbe
00000100: 8c75 9d3e 6689 7cbd d6f9 673e 95f6 5dbe
00000110: e468 533e e351 b6be 365d e33e 1c3d a5be
00000120: ffd1 8f3e d113 67bd ca72 9ebe 5330 203e
00000130: 9928 ad3e 013a bcbe 41ac 53be dfa3 c9bc
00000140: 68b4 e4be 98aa ccbd 3b49 513e 815e 1f3e
00000150: c94c 0d3e 01cc c23e 6310 cebe 898a 08be
00000160: 2688 d33e f4ea 28be 52c9 3abe 18b7 2cbe
00000170: a9b7 c93e cfe5 293e ea9b 98be 901d 56be
00000180: 0fd2 593e d610 1fbe cb1c 44be 2363 20bd
00000190: f542 a83e 0711 863e 526a c7be 5fa6 073e
000001a0: f2a8 66bd 8ed3 343e c5bb bcbe 329c 8dbe
000001b0: 9ab4 3dbb 977f db3e ca04 ab3d 371e 84be
000001c0: e745 9e3e 8980 e13e 35dc 4abe daef 11be
000001d0: 4389 7d3e d62f b23e 5d58 383e af26 d5be
000001e0: a83b 4bbe 0062 873d 058a 81be 0ab1 44be
000001f0: 657a fe3d a9b8 22bd ff80 96bd 6449 b2be
-0.34020722 0.26409268 0.3621823 0.37351134 0.33176538 -0.058959138 0.34093606 -0.25417703
0.11586909 0.026935672 0.17223978 -0.3574818 -0.11864168 -0.25174153 0.22223102 0.27319685
0.2892964 0.42676175 -0.42306715 0.2970786 0.20556985 0.22937211 -0.42449552 0.21974064
0.3057951 -0.049712714 -0.29110503 -0.44060856 0.36881435 0.043450788 -0.10151679 0.06240335
0.325565 0.22544308 -0.18514271 -0.36268303 0.28316796 0.011188619 -0.19203234 0.07774758
0.38362563 -0.057897363 0.26334673 0.18393737 -0.18340985 0.0003128882 0.3258877 0.23071939
-0.065288074 0.18054396 0.4424731 0.43019712 -0.25137436 0.11275183 0.4050332 -0.37288848
-0.14383695 0.19065246 -0.4383663 -0.28845215 0.42551777 0.20024206 -0.4018456 -0.33948323
0.30753744 -0.06165447 0.22653899 -0.21676095 0.20645481 -0.3560935 0.44407052 -0.32273185
0.28089902 -0.056415383 -0.30946952 0.15643434 0.33820036 -0.36763003 -0.20671178 -0.024614273
-0.4466889 -0.09993476 0.20438091 0.15563394 0.13798822 0.38046268 -0.40246877 -0.13334097
0.4131481 -0.16495878 -0.1824086 -0.1686672 0.39397934 0.16591571 -0.29806453 -0.20909715
0.21271537 -0.15533766 -0.19151609 -0.039157044 0.32863584 0.26184866 -0.38948303 0.1324706
-0.056313463 0.17658827 -0.36862007 -0.2765823 -0.0028946758 0.4287078 0.08350523 -0.25804302
0.30912706 0.44043377 -0.19810565 -0.14251652 0.24759392 0.3480212 0.18002458 -0.41631076
-0.19846976 0.06610489 -0.25300613 -0.1920816 0.12425689 -0.039726887 -0.07348823 -0.34821618

weight f4 [128, 128]
00000000: a82f 7ebd 738e fabb a34f 9c3c 0240 b4bd
00000010: 94e2 8bbd 6165 1e3d 295b 093d 1f18 883c
00000020: d7e1 af3c 4a3c 973d 86c2 98bd 9fb4 ae3d
00000030: 4f80 a8bd 7342 323d d6b3 c83c c6c8 99bd
00000040: e2d0 613d 8b30 3a3d f6b8 6e3d f67e 54bc
00000050: c052 fdbc e588 b3bd b54e 2f3d 870a fbbc
00000060: 8947 123d 4742 2dbd 38f6 913c c634 383b
00000070: 2d2f 05bd 3d71 98bd 76fd 793d 2f00 a3bd
00000080: 0ae8 9bbd 5aed 773d 9d1d aa3d c466 d03c
00000090: 296e 3c3c 6027 adbd 524f 15bd bc66 123d
000000a0: 02ea f4bb a358 12bb 36f0 473d b065 6cbd
000000b0: 4414 b03d b919 dfba 7ddc 15bd 0501 6f3c
000000c0: 4e3c 39bc 8899 ce3c a76d 953d a2f5 df3b
000000d0: 30aa 8f3d bc5b cc3c 2893 76bc 87c9 a83a
000000e0: f1f6 513d caa4 65bd 0eb1 653c de99 9f3b
000000f0: 68b5 a6bc 4fd7 9e3d 2179 193d 5174 14bd
00000100: c47f f0bc 86a1 30bd c95a 6e3d 2c12 6c3d
00000110: d15d 83bd 0d79 dabc 94e7 8b3c 73e8 d5bc
00000120: 2050 5dbd cc07 e8ba cb25 233d 4476 d6bc
00000130: e1e8 b1bc 8ddc 33bd 655f 98bd 54be 89bd
00000140: 245b 17bd 5a03 17bd de2a ac3d 30c5 45bd
00000150: d1cf 383d 60aa f7bc 1f28 9dbc 8ff2 22bd
00000160: ac54 f9bc 114b 82bc 0ec5 473c d172 a3bd
00000170: 85e2 303d a5d1 5dbd a598 57bc e349 0abd
00000180: c267 8f3d f5b2 b2bd 1ffa 043d 0f8a 733d
00000190: 46c8 2b3d 94f7 81bd 6ccf 873d e91b bd3c
000001a0: 5573 a3bd ddfc a3bc ae97 883d d3c4 5e3c
000001b0: 3f46 9bbd dfb7 a03d d5a9 edbc 5002 653d
000001c0: a655 59bd d96a 963c 634c 77bd 5c7a 253d
000001d0: 03dc 91bc 6052 f9bb 5d8d d9bc 7546 f2bb
000001e0: 1d1e e03b d47a 243d 7103 1d3d 41d4 80bd
000001f0: e420 5dbd 8581 59bc e978 b33d 9081 8ebd
00000200: d40c 8dbd b65e 173d 8399 9b3d b03c c83c
00000210: 57a2 9bbd 24d5 1bbd 587a ae3c 8df0 7cbd
00000220: 546a 953d b80a 7cbd a365 a03d 81e1 debb
00000230: 136f 99bd 3b12 5f3d 4021 2ebd c236 8dbd
00000240: 2717 f1bc 3858 a83d 86d3 92bd 6809 c73c
00000250: 61ca 263c 4be4 663c a4b7 19bd 1914 0d3d
00000260: 36f9 9c3d 2664 06bd 85b6 823d f387 9e3b
00000270: b006 993b a6a9 96bc b33f 893d 2da0 6dbd
00000280: 84b9 4cbd 795f 76bd 92e9 cdbb 4051 9ebd
00000290: 5397 983d 8bb5 1d3c 0450 78bd dfc7 043d
000002a0: b5df 68bd fa15 a63d 5879 203d d29b b13d
000002b0: 7723 6abd 47cb 493c 95dd 6dbd bdfe 283b
000002c0: 82d1 a73c 2810 89bd d583 91bd f067 7cbd
000002d0: 32a1 80bd f2a0 6b3d 0716 97bd 12fa 27bd
000002e0: 66a2 d13b 65ee 89bd bc12 3a3c b047 063d
000002f0: 3d06 98bd 561b 693d b605 d9bc 7893 32bc
00000300: 457f 993c df74 b13d 983f a2bd 5e04 1bbd
00000310: 3b1e bdbc 14fe 7b3d 2aa1 5d3d ee78 84bd
00000320: 5b22 8cbc 67be bb3b 6da9 88bd d9c4 a93d
00000330: 104b 1a3d ea27 85bc 70f0 5d3d 23fc e6bc
00000340: 55de 153c 0285 30bd 15f9 9abd 221a 9f3d
00000350: 9836 aabd 5c8a adbd e357 2b3d 0668 7c3d
00000360: 2002 82bc 95cb 7ebd 027f 85bd b478 c83c
00000370: 4d15 d73c dd45 9f3d 5f8d a1bc 3196 57bd
00000380: 0311 9c3c 79cf a9bd 9514 973d 4640 d8bb
00000390: 42c9 84bd f3ed ff3c 789e 1a3c 2c71 4c3d
000003a0: 989e eb3c 68bd 903d 4fcd dabc adfb 67bd
000003b0: a6ea 3bbd d557 873d 7d96 0e3c af6b 19bd
000003c0: 409c 93bd 179d 92bd dde1 51bb 03e6 5a3d
000003d0: 95ea a4bc cf4d afbd d2bc 803d 5137 96bc
000003e0: fdc9 b1bc 500e 08bb 9a37 0abd f979 a9bc
000003f0: 45a3 89bd 8b29 ab3d b2b9 d4bc 3904 393c
-0.062057167 -0.007646376 0.019080942 -0.08801271 -0.06830326 0.0386709 0.033534203 0.016613064
0.021469994 0.07384546 -0.074589774 0.085305445 -0.08227598 0.043520402 0.024499815 -0.075089976
0.055130847 0.04545645 0.05828186 -0.012969723 -0.030923247 -0.08766345 0.04279967 -0.030644668
0.035712752 -0.042299535 0.017817602 0.0028107627 -0.032515693 -0.074434735 0.061032735 -0.079590194
-0.07612617 0.06052909 0.083064295 0.025439627 0.011500874 -0.08454776 -0.0364526 0.035742506
-0.007474185 -0.0022330664 0.048813067 -0.057714164 0.08597615 -0.0017021216 -0.036587227 0.014587645
-0.011305882 0.025219694 0.07296305 0.0068347016 0.070148826 0.024946086 -0.015049733 0.0012877443
0.051260892 -0.05606536 0.014019264 0.0048706373 -0.020350173 0.077559106 0.037469033 -0.03624374
-0.029357798 -0.04312279 0.05819205 0.057634518 -0.064143784 -0.02666905 0.017078198 -0.026111817
-0.05403149 -0.0017702519 0.039830964 -0.02617944 -0.02171749 -0.043911505 -0.0744007 -0.06725755
-0.036952153 -0.03686843 0.08406614 -0.048283756 0.045120064 -0.030232608 -0.01918417 -0.039782103
-0.030435883 -0.015904935 0.012192978 -0.07980884 0.043184776 -0.05415501 -0.013158952 -0.03376187
0.07002212 -0.087255396 0.032465097 0.059457835 0.041939043 -0.0634605 0.066313595 0.023084598
-0.07980982 -0.020018036 0.066695556 0.013596731 -0.07581758 0.07847571 -0.029011646 0.05591041
-0.053060196 0.018361496 -0.060375582 0.040399894 -0.017805105 -0.007608697 -0.026556665 -0.007393653
0.0068395273 0.0401562 0.03833336 -0.06290484 -0.053986445 -0.013275509 0.08763296 -0.06958306
-0.068872124 0.036955558 0.075976394 0.024443 -0.07599323 -0.038045064 0.021298572 -0.061752845
0.07295671 -0.06153366 0.07831886 -0.0068017845 -0.07491889 0.054460745 -0.04251218 -0.0689521
-0.029429985 0.082199514 -0.07169251 0.024296477 0.010180087 0.014092515 -0.03752865 0.034442995
0.07664721 -0.032810353 0.06382469 0.0048379838 0.0046699867 -0.018391442 0.06701603 -0.058014084
-0.04998161 -0.060149644 -0.0062839473 -0.07730341 0.07450738 0.009625803 -0.060623184 0.032417174
-0.05685397 0.081096604 0.039178222 0.086722985 -0.05716273 0.0123165315 -0.058072645 0.0025786601
0.020485643 -0.06692535 -0.07105223 -0.06162256 -0.062807456 0.057526536 -0.07377248 -0.04100997
0.006397533 -0.06734923 0.011357006 0.03278321 -0.07423065 0.056910835 -0.026491981 -0.010899417
0.018737445 0.086648695 -0.07922286 -0.03784596 -0.023085704 0.061521605 0.054108776 -0.06468378
-0.017106226 0.005729485 -0.066729404 0.08289499 0.03766924 -0.016254384 0.054184377 -0.0281964
0.009147246 -0.043095596 -0.0756704 0.07768656 -0.08311194 -0.084736556 0.041831862 0.061622642
-0.015870154 -0.06220587 -0.065183654 0.024471618 0.026255274 0.07776997 -0.019720731 -0.052633468
0.01905108 -0.082915254 0.073769726 -0.006599459 -0.064836994 0.031241393 0.009437196 0.049912617
0.028762147 0.070673764 -0.026709227 -0.0566365 -0.045878075 0.066085495 0.008702871 -0.03745621
-0.07207537 -0.07158869 -0.0032025494 0.053442013 -0.020131389 -0.08559763 0.062860146 -0.018336924
-0.02170276 -0.0020760484 -0.033744432 -0.020688044 -0.06720594 0.08357533 -0.025967453 0.011292511

bias f4 [128]
00000000: c8ca 96bd 720a a5bd a9fc 283c 6462 aabd
00000010: 1225 4bbc c872 33bd b8ba 9a3d 9b84 dd3c
00000020: 6638 60bd 4698 60bd 7f20 853d 9b18 91bc
00000030: f068 a13d e232 d8bc 84ad 643b e263 28bd
00000040: f292 a0ba 43d7 18bd 26c1 5f3d a642 97bd
00000050: 17d3 633d fc62 a23d 6dd2 a03d 3ffa 3e3d
00000060: e864 76bd b600 b13d 6fd7 813d f1bd 0a3d
00000070: d7fd 7f3d b265 15bd 8150 78bd 97c1 b9bc
00000080: 5965 8a3d d859 a4bd f282 5e3d 61aa d2bc
00000090: 538c 723d 2e90 aa3d bb78 943d 4f80 b53d
000000a0: 84a2 763a f95b 2b3d 8881 dcbc ddd5 4b3c
000000b0: 7721 2f3d 2f52 b83c 200b 373d 66a5 993d
000000c0: 70a8 50bd 90db 9b3c 7bcc 963d ebb4 8b3d
000000d0: dddd d0bc 354e 0b3d db8a 1d3b 2b0a 71bd
000000e0: d7d7 713c 0ae4 46bd a419 ae3c 5003 bf3d
000000f0: 70d2 93bc 4938 243d f8c0 95bc 2a41 9d3d
00000100: c715 ae3d 103e 943b 4c3a 4b3d 962e 933d
00000110: 11a2 80bd 3220 443d 0903 443d 008d 903c
00000120: cbb4 3d3d fd04 93bc e214 6e3d 34af 2abc
00000130: b153 81bd 6838 e5bc 1f39 6ebd 47d2 623c
00000140: 10ba dabc d80a 233b 2c63 563d 2d43 b9bd
00000150: f82f 893c 9098 9d3d 36d7 053c 69c3 1dbd
00000160: 7f5b a93d b9b5 cbbc 0b14 6e3d 43c3 503d
00000170: 46f4 a5bd 4f50 5e3d 3c3d cf3c 79a5 a4bd
00000180: c679 19bb b84a f03c ce28 0e3d 7fe0 acbd
00000190: 4dc0 93bc dc12 6cbd 2b63 9cbd 8cdd ba3d
000001a0: 392a 45bb d32f 773d 7181 b23d f271 003d
000001b0: 7501 99bc e38b 723a d26e a8bc 84a6 e7bc
000001c0: f5af 98bd 61e9 b5bb 472c fb3b 9f9e 9dbc
000001d0: 1884 b1bd 5755 803d 2475 663d 3c4d 883c
000001e0: 80cb 7cbc c9b7 15bd de0d 623d d6d9 daba
000001f0: 9eec d23c 9000 78bc 9667 66bd d40e 5fbd
-0.07362896 -0.08058633 0.010314145 -0.08319548 -0.012398975 -0.043810636 0.07555145 0.02704077
-0.054741286 -0.05483272 0.06500339 -0.017711928 0.07881343 -0.02639145 0.0034893462 -0.04111088
-0.0012250824 -0.037314665 0.05462756 -0.07385759 0.055621233 0.07929036 0.078526355 0.046625372
-0.060154825 0.08642714 0.06339919 0.03387255 0.06249794 -0.036473937 -0.06062365 -0.022675319
0.06757612 -0.08024949 0.054324098 -0.025716009 0.059215855 0.08328281 0.0724959 0.088623635
0.0009408372 0.04183576 -0.026917234 0.012441126 0.042756524 0.022500126 0.044688344 0.075022504
-0.050941885 0.019025594 0.0736322 0.06821617 -0.025496418 0.03401013 0.0024039063 -0.058847588
0.014760933 -0.04855732 0.02125246 0.09326804 -0.01804468 0.04009274 -0.018280491 0.07678445
0.085002474 0.004524 0.049616143 0.0718662 -0.06280912 0.047882266 0.047854457 0.017645359
0.046314996 -0.017946715 0.058125384 -0.010417748 -0.06314791 -0.027980998 -0.058159944 0.013844079
-0.02670005 0.002487829 0.05234067 -0.09046016 0.016746506 0.076951146 0.008168986 -0.038516436
0.082694046 -0.024866926 0.058124583 0.050967466 -0.08103232 0.054275807 0.025297754 -0.08039374
-0.002341853 0.029332504 0.034706883 -0.08441257 -0.018036032 -0.057635173 -0.07636102 0.09124288
-0.003008498 0.060348343 0.08716095 0.031358667 -0.018677453 0.0009252412 -0.020560656 -0.028277643
-0.07455436 -0.0055515026 0.0076651904 -0.019240675 -0.08667773 0.06266277 0.056264058 0.01663839
-0.015429378 -0.036552224 0.055189006 -0.0016697 0.025747593 -0.015136853 -0.05625113 -0.0544575

weight f4 [128, 128]
00000000: 6364 c6bc a4c0 833b 93b1 263d d33c 963d
00000010: 5be4 ebbc 2836 93bd c269 0fbd 2105 7cba
00000020: 6ec6 4a3c de96 933d b3a8 4cbd 65f8 f43c
00000030: b970 8b3d 7738 a63d f3c3 58bd 627e 6ebc
00000040: ecb2 763d b010 acbd 46c3 8dbd 96d8 a1bd
00000050: d571 d93c 0104 2ebd 6547 9c3a b237 c8bb
00000060: bf3c 173b dad5 05bd b347 9d3d 3013 273d
00000070: b8f4 b63b d1c9 ef3c 0d63 0dbd 25f9 a83d
00000080: abb4 13bc de1d f1bc 60ab a6bc 4440 c4bc
00000090: c04d a2bd 0744 7cbd 2c34 0f3c 45ac 74bd
000000a0: 838a 62bd a3db 9b3d 3f64 d03c fb5c a8bd
000000b0: a244 7fbd a484 9c3d 2d72 5f3d 4e45 ff3c
000000c0: 01d2 98bd 440f ae3d ca6a c33c 1f07 9dbd
000000d0: 22a5 ca3c f2ee 443c 402c aabd e855 49bd
000000e0: 7c0b 853d f7d0 693d 216f 58bd d58f 283d
000000f0: c50b 5abd 9c28 663d 31fa 533d f3e0 5fbd
00000100: b7fb 513c 2cef 3fbc 8eb1 49bc 1802 be3c
00000110: b0a8 6a3d 6181 0fbc 28c5 de3c 08c8 ad3d
00000120: 3108 4d3d 5d6f a03d 8125 51bd 8930 46bd
00000130: 5955 acbd 3cea 4b3d 096e 1d3c 3e62 723d
00000140: 7c28 6f3b cb4e 0ebd f0fa 3dbc 4ed3 0f3d
00000150: 887a 3bbd a6d4 293d 54fd 0ebd 330f 6a3d
00000160: ad23 653c 0517 80bd a06e ff3c e35d 14bb
00000170: 575d a83b ecb9 863d dc04 813d 7fe1 cbbb
00000180: 1510 293d 62d2 983c 010a 733d a6ca 01bd
00000190: 086e 6c3d e477 04bd aad5 3abd 1773 443d
000001a0: 4eac 843c 8d23 873a 733a fcbc d660 e2bc
000001b0: 3a30 39bd 5f29 6fbb 3b87 a9bd 7a51 0ebd
000001c0: 4ab6 b03d 8d38 6b3c 2725 abbd 5522 69bc
000001d0: dc13 a23d b8ee ac3c a5b9 a2bd eb4d 7c3c
000001e0: da99 bfbc a675 8dbd ba7e 28bd aaba 573d
000001f0: 5c9a 8d3b c33a e6b8 fef6 a8bd 65c7 913d
00000200: e91b 913d e73f 18bd de40 343d 238d 9d3d
00000210: 74ce 993c 7b7b d93c 9ddf 393d 6b60 88bd
00000220: e4e0 25bd 9d71 b4bd f03f 163d 3a81 97bd
00000230: 51ee c93b 6721 8dbd 210a 0cbd 5e2a 033a
00000240: 805f e4bc ef62 85bd 4e53 a0bd 771d c0bc
00000250: e9e2 71bd 144c 18bd 5706 e83c ac83 3bbd
00000260: e153 953d 182a d43c 69bb 533d 72e0 b53d
00000270: 71e4 49bd 25c3 14bd 5577 99bb afde 913d
00000280: 519f 0f3d cc0d 95bc 2266 313d 1ace 70bd
00000290: eaac 963d 2c47 0ebc 9cf3 1e3c d133 6e3d
000002a0: ea31 84bd 1d04 93bc b4d5 9fbc 5e60 b0bb
000002b0: f073 a43d 1d96 68bb 7b08 7cbc 77f4 823b
000002c0: 3704 873d 0c38 15bd ed66 a9bc f955 c6bb
000002d0: c529 8dbd b00c 3bbc 7613 773d 0648 85ba
000002e0: 00f1 2d3d 374d 5bbd ba7a b23d 0e63 0b3d
000002f0: f009 86bd a908 4a3d a430 a93d 4958 793d
00000300: ff35 89bd af8e c33c fa0f 503d 611e 873d
00000310: 2d3e 1dbb a39d 90ba b272 913d b3d0 1bbd
00000320: 1e6f 983d 2de5 58bd 7120 04bd 62c3 b13d
00000330: fd3a 7cbc ae0c 92bd 4b0b ebbc 2b5b 763d
00000340: 6df7 b4bc af2b 79bd bee2 29bd 6b5f 823d
00000350: 50fa a33b d4cb b83d 9af9 71bc 58ef 61bd
00000360: 7921 40bd fa7e 743d 1ecd 62bd 64d6 95bd
00000370: a0f7 e2bc ee76 01bd 3de2 c5bc 7c40 b83c
00000380: 5285 b3bd 1700 2bbd 2feb a23d 957a 8cbd
00000390: a93a 76bd e691 0bb9 cbf5 51bd 0742 5ebc
000003a0: 8814 5d3c 3f31 a6bd 9178 dc3b 3bbf f83c
000003b0: ea3d 29bd 9429 13bd 5c8b 093d 9113 89bc
000003c0: 43b0 573d ac1e 8dbd 4eee a1bd 1b41 97bc
000003d0: 1299 803d ef3a 28bd 601d 8cbd c717 35bc
000003e0: e003 59bc 8f1a 183d bad9 8c3d 4234 31bd
000003f0: 522b 39bd 32ce a1bd 5ff1 1fbb e9d5 d3bc
-0.02421779 0.0040207673 0.04069669 0.0733582 -0.028795412 -0.07188064 -0.035012968 -0.00096138014
0.012376411 0.0720651 -0.04996557 0.0299036 0.068086095 0.081162386 -0.052921247 -0.014556499
0.060229227 -0.084016204 -0.06922011 -0.079026386 0.026543537 -0.042484287 0.0011923133 -0.006110155
0.002307698 -0.032674648 0.07679691 0.040789783 0.005583372 0.029271038 -0.03451829 0.082506455
-0.009015243 -0.029433187 -0.02034539 -0.023956425 -0.07924986 -0.061588313 0.008740466 -0.0597346
-0.055307876 0.07610252 0.025438426 -0.082208596 -0.062321313 0.07642487 0.054552246 0.031160977
-0.0746193 0.084990054 0.023854632 -0.07667374 0.024736945 0.01201986 -0.08309221 -0.049154192
0.06496331 0.05708405 -0.052840356 0.041152794 -0.05323388 0.056191072 0.051752273 -0.054657888
0.012816361 -0.011714738 -0.012310399 0.023194358 0.05728978 -0.008758874 0.02719362 0.084854186
0.05005664 0.07833741 -0.051061157 -0.04838613 -0.08414716 0.04978393 0.009608754 0.059175722
0.0036492636 -0.03474311 -0.011595473 0.035113625 -0.04577115 0.041462563 -0.03490956 0.0571434
0.013985557 -0.062543906 0.03118068 -0.0022638969 0.00513808 0.065784305 0.06299755 -0.0062219496
0.041275103 0.018655006 0.059335712 -0.0316874 0.05772212 -0.0323409 -0.045613922 0.04796132
0.016195443 0.0010310278 -0.03078959 -0.027634066 -0.045212008 -0.0036493165 -0.08277746 -0.03474567
0.08628519 0.0143567445 -0.083566956 -0.014229377 0.07913944 0.021109924 -0.07945565 0.0153994365
-0.023388792 -0.06907205 -0.04113648 0.05266825 0.0043213796 -0.000109782 -0.08250235 0.071181096
0.070854016 -0.037170317 0.044007175 0.07692935 0.018775202 0.026548138 0.04537927 -0.06659015
-0.040497676 -0.088107325 0.03668207 -0.07397695 0.0061624427 -0.068911366 -0.034189347 0.00050035666
-0.02787757 -0.06513011 -0.07828389 -0.02345155 -0.05905429 -0.03718193 0.028323336 -0.04577987
0.07291389 0.025898978 0.0516924 0.088807 -0.049290124 -0.036318917 -0.004683415 0.07122552
0.035064045 -0.018195055 0.043310292 -0.058790304 0.073571995 -0.008683961 0.009701636 0.058154885
-0.06454833 -0.017946297 -0.019511081 -0.0053825816 0.08029926 -0.0035489865 -0.015382881 0.0039964276
0.06592601 -0.036430404 -0.020678962 -0.006052729 -0.068927325 -0.011416599 0.060321294 -0.0010168559
0.042466164 -0.053540435 0.087148145 0.034030013 -0.06544864 0.049324665 0.082612306 0.06087521
-0.06699752 0.023871748 0.050796486 0.06597591 -0.0023993358 -0.0011033308 0.071019545 -0.038040828
0.07443069 -0.052952934 -0.0322575 0.086798444 -0.015394923 -0.07131325 -0.028691908 0.06014554
-0.022090638 -0.060832676 -0.041476004 0.06365856 0.005004205 0.09023252 -0.014768982 -0.055159897
-0.046906922 0.059691407 -0.055371396 -0.073162824 -0.027705967 -0.03160756 -0.02415573 0.022491686
-0.08765663 -0.041748133 0.07955014 -0.06859318 -0.060114536 -0.00013310424 -0.051259797 -0.013565547
0.013493665 -0.08114862 0.00672824 0.030364623 -0.04131881 -0.035928324 0.03358017 -0.016732963
0.05265833 -0.06890616 -0.07906781 -0.018463662 0.06279196 -0.04107183 -0.0684154 -0.011053032
-0.013245553 0.037134703 0.068774655 -0.043262728 -0.04520733 -0.07900657 -0.0024405343 -0.025858836

bias f4 [128]
00000000: bb94 abbd 27a3 ac3c ac07 1fbd 218a 5c3b
00000010: d981 323d 0d37 5e3d f708 77bd 24f0 a2bd
00000020: 34e6 3a3d e0a5 553d 7fe2 6a3d bccf 2c3d
00000030: 0102 5f3d a2ac e33c 85f2 7ebc 2289 a2bc
00000040: 02fb 8a3d 66ce fabb 0859 9f3d 3b6f 08bd
00000050: c83c c6bc a9a2 723d b426 2cbd fd4e 0fbd
00000060: 9611 903d 0cf0 273c 5a2a 11bd 2622 b8bb
00000070: 69b7 efbc 43cc 993d fcb6 9c3d 9897 8a3d
00000080: cef5 a5ba e836 b63c ed46 003d 6d03 8abd
00000090: c013 a73d 6286 9fbd 876c 663d bba3 883a
000000a0: cd75 35bd f2aa ab3d 320d 393d 15f1 6d3d
000000b0: 43cb 943d 83fe 1bbd 40a4 8e3c abf3 dbbc
000000c0: 14bd 40bc 39f7 d63c 7e08 463d d4a3 96bd
000000d0: c02a 13bd cd4f 663b d5ef d3bb 440e 41bd
000000e0: 9774 51bd 523b 333d b356 2abd 72b5 983d
000000f0: ea90 a23b ea83 06bc 2497 df3c c921 75bc
00000100: 4eb8 dabc 4755 adbd 738e 69bc 61e5 50bd
00000110: e58f 21bd 45eb 88bd ec3d 53bd 32ed afbd
00000120: 2b5e a1bd ec08 bebc 6358 13bd 036c 78bd
00000130: 7031 90bd b656 d8bc b391 9a3d 924f b53d
00000140: 4564 113d e0b0 913d 06e9 1abc 41ed c6bc
00000150: f3c6 b2bd 5326 55bd 0099 5dbc e690 5abd
00000160: 8314 edbc a760 9bbd 0ed6 6d3d 1f95 48bd
00000170: 2747 d93c 0a4e d9bb a64f 3bbd 7436 9e3d
00000180: 25fe 513d 94f0 1abc d959 aa3d ba0e 71bc
00000190: 1ec3 1f3d 3248 5f3d 5cab 933d 4a4b 583d
000001a0: 3ef2 6bbd 75cc 8c3c 6abb 51bd a6cb 683d
000001b0: c6a6 5d3d 8911 adbd 5203 aabd e7a1 2cbd
000001c0: e0ef a63d 5bd8 7a3d 3d7f 8abd 16a8 953d
000001d0: 69d4 bbbc 5499 8abd 42c2 6c3d 5d19 3abc
000001e0: 6423 5c3d b37b 2fbd 00d2 033d 6e04 52bb
000001f0: 5007 7fbd e4d1 203b 0afc 16bd 038d 9ebd
-0.083779775 0.02107389 -0.038825676 0.0033651667 0.043580864 0.05425172 -0.060311284 -0.079559594
0.045629695 0.052160144 0.05734491 0.0421903 0.05444527 0.027792279 -0.015560751 -0.01984078
0.06786157 -0.007653999 0.07780653 -0.033309203 -0.024198905 0.059237156 -0.042029098 -0.03498744
0.07034604 0.010250103 -0.03544078 -0.005619305 -0.029262261 0.07509663 0.07652089 0.067671955
-0.0012661756 0.022242978 0.03131764 -0.06738935 0.08158064 -0.07789303 0.056255843 0.0010424772
-0.044301797 0.083822146 0.0451786 0.058091242 0.072653316 -0.03808452 0.017412305 -0.026849588
-0.01176383 0.026240932 0.048347943 -0.073554665 -0.03592944 0.003514278 -0.006467799 -0.047132745
-0.05113658 0.043757744 -0.04158659 0.07456483 0.0049611228 -0.008210162 0.02729375 -0.014961668
-0.026699211 -0.08463531 -0.014255154 -0.051000003 -0.03944387 -0.06685499 -0.051572725 -0.08590163
-0.07879289 -0.023197614 -0.035972964 -0.060649883 -0.070406795 -0.026408534 0.07547321 0.088530675
0.035496015 0.07113814 -0.009454971 -0.024283053 -0.08729353 -0.052038502 -0.013525248 -0.053360842
-0.028940445 -0.07586794 0.058065467 -0.048970338 0.026523186 -0.0066316174 -0.045730256 0.0772523
0.05126776 -0.009456772 0.08317918 -0.014712984 0.039004438 0.05451221 0.072104186 0.052806176
-0.057604067 0.017187336 -0.051204123 0.05683484 0.054114126 -0.0845061 -0.083014145 -0.04214659
0.08151221 0.06124149 -0.0676255 0.073074505 -0.022928433 -0.06767526 0.057802446 -0.011358586
0.05374469 -0.04284258 0.032182693 -0.0032046097 -0.062262833 0.0024539167 -0.036861457 -0.077417396

weight f4 [2, 128]
00000000: 37f6 09bd af8d 24bb 0d97 713d 7403 6e3d
00000010: 999c 8d3d 03fb 0ebc d9de 613d c983 323c
00000020: d2cb 85bc 0f7b 9c3d db70 4ebc 37ef 9fbd
00000030: 439d 623d d34a 4f3d 4543 51bd c1e1 46bd
00000040: 2abf 33bd 122e 69bc 0768 4fbd af02 5b3d
00000050: c982 94bc 5414 ac3d c31f 33bc 6fd3 b83b
00000060: a268 02bd 8747 7e3d 8b4a 873d 0d17 44bd
00000070: 9ede 95bd 95e2 92bd 0bcc 8fbc 71e0 113b
00000080: 4fe3 7bbd 67c6 0abd 3550 6b3d fe3a b83c
00000090: 701f a2bb 2a2e 4dbd bafc a8bd f225 a23c
000000a0: 834a 82bc adbe b0bb e563 38bd f77d 75bd
000000b0: e175 8fbd eb6a 9fbd af76 ad3d 5b16 1d3d
000000c0: e9c3 633d 1d8f eabc ad44 1f3d a578 753d
000000d0: cacb a8bd aedf 58bc b9f0 8fbd 437e 5e3d
000000e0: 898e afbc 43b4 983d 89a7 803d 6dad f03c
000000f0: 8082 8dbd bcee 6e3d 1e01 b63c 85c5 bcbc
00000100: 65c7 abbd cd7d abbd 0260 dfbc 8710 6a3d
00000110: 9f77 4b3d 42ae abbd 23c8 9e3d 7a57 e0bc
00000120: f536 4cbd fda8 3fbd c77b 62bd a77e 503d
00000130: 9910 893d fc73 71bd 488e a03d e4f2 423d
00000140: d6c6 af3c bab7 7e3c c4f3 693d d4fc 993d
00000150: 1751 90bd d46b a03c 9ca3 943d 31b8 ffbc
00000160: ad20 a1bc 3f4c b23d e0d7 11bd d95b 9c3d
00000170: 0f09 6abd d6d9 9fbd 8453 a23c 7b30 41bd
00000180: 584f 92bc 6a91 363d 28b6 5b3d 9734 03bd
00000190: 74c9 44bd 8ad0 abbd c703 c6ba 35f9 09bd
000001a0: 68c3 56bc a110 9e3d 5e67 abbd 91b3 543d
000001b0: aec7 c1bc 81bf bbbc 7d4d 5cbc c18d e73b
000001c0: 154d a5bd 6829 32bd 9469 343d b4cc a23d
000001d0: c379 27bd 74e6 23bd 1791 93bc 97ed f83c
000001e0: c02f 913d eb20 21bd 60c7 893d c6d7 b23d
000001f0: 5fb6 2ebd 4975 803d 4e1d 61bd 886c 00bc
00000200: 9e35 483d c6b0 9e3c 146f 073c 5dd0 403b
00000210: 5fd3 85bd 5d9d 8a3d f912 743d b35f 333c
00000220: 323c 02bd 2088 87bc 321d 85bd 99f8 ffbc
00000230: a80d 9bbc bfe5 a43d f7c2 38bd 8ddf 083d
00000240: c0a2 363d 2c43 223d 50ea 04bd 3f4a 723d
00000250: a816 dbbc 1524 993d 4919 8d3c eb45 f73c
00000260: 2e36 87bd 9acf c53c 9c7f a43d 1ad7 593d
00000270: 0064 88bd 8484 4d3d 62ed a03d aa2f 1c3d
00000280: c7a0 9dbd 08b0 8d3d 87fa 83bc 92a3 5bbd
00000290: 39c6 a1bd 71b0 4e3c 1b9c 72bd 3b6c 40bd
000002a0: da69 01bc 3aa4 5b3c 5c88 76bd 5e2f 05bd
000002b0: b175 773d 30c6 73bd c642 37bd 1a50 74bd
000002c0: 7c2c 1b3d 8469 40bd 1080 1a3c 18cb 8e3c
000002d0: a345 983c 8264 113b 1504 9e3b 2678 cdbd
000002e0: 4014 88bd cf32 8ebc cba2 89bd a31c 94bd
000002f0: b98a 053c d081 9ebb a004 a23d 3258 45bd
00000300: 2af2 2a3d c162 85bd aa5e 023d 9be6 3fbd
00000310: 93c2 2b3d 021b e7bc b767 87bd 47a9 91bd
00000320: b904 64bb 7f4f 2abb a685 2bbd 4a5d 903d
00000330: 2066 14bd 2453 303d a972 adbd 8a7c a9bd
00000340: bcf9 a53d 061d 9ebd 79a7 983d 9d16 81bd
00000350: 7200 67bd d7e2 193c e1dc 66bd c790 b7bd
00000360: 4ab1 43bd 6039 c4bc 11b1 94bd fbf9 76bc
00000370: ec14 ab3d f9cc b1bd fc4a 7fbd c043 2a3c
00000380: 1d3f 53bd 62e7 0a3d 5cec 9e3b e9a5 4a3d
00000390: 525b a63d 6062 efbc e4c3 633c a42a 52bd
000003a0: b653 6cbd 69d3 39bd c7cc aebd f61b 8cbd
000003b0: c6c4 713c 02c3 2c3d 7336 8d3d 6b4a 6d3d
000003c0: 02f8 a0bd c9d5 703d b9d1 34ba 1eb6 c2bc
000003d0: 42b0 96bd b8ea 293c 350b 883d 98c7 a9bd
000003e0: 9412 28bd e072 fabc 1ddf 96bd 3b22 00bd
000003f0: a770 96bd 8bd9 5b3d e082 9e3d a032 763d
-0.033682074 -0.0025108864 0.058981944 0.058108762 0.06914634 -0.008726838 0.055144165 0.010895678
-0.01633254 0.07640659 -0.012600149 -0.078092985 0.055325758 0.050608467 -0.051089544 -0.04855514
-0.04388348 -0.014232175 -0.050636318 0.053469356 -0.01812877 0.08402315 -0.010932866 0.005640439
-0.031838067 0.062079933 0.06606015 -0.047873545 -0.073178515 -0.07172123 -0.01755335 0.0022259022
-0.061496075 -0.033880617 0.05744954 0.022489067 -0.0049475953 -0.050092854 -0.08251329 0.019793484
-0.01590467 -0.005393824 -0.04501714 -0.059934583 -0.070049055 -0.07784065 0.08469903 0.038351398
0.055606756 -0.028632695 0.038883854 0.05992951 -0.08241995 -0.013236923 -0.07028336 0.05431963
-0.02143027 0.07456257 0.06281955 0.02937957 -0.069096565 0.058333144 0.02221733 -0.023043403
-0.08387641 -0.08373604 -0.02726746 0.057144668 0.049674626 -0.083828464 0.07753017 -0.027385462
-0.0498571 -0.04679202 -0.055293825 0.050902035 0.06692619 -0.058948502 0.07839638 0.04759492
0.021457117 0.0155467335 0.05711724 0.07518926 -0.07046717 0.019582666 0.072577685 -0.031215759
-0.019668901 0.08705949 -0.035606265 0.07634706 -0.057137545 -0.07805221 0.019815214 -0.047165375
-0.0178601 0.04457227 0.053640515 -0.032032575 -0.048043683 -0.08389385 -0.0015107327 -0.033684928
-0.013108112 0.077180155 -0.08369325 0.05192906 -0.023654785 -0.022918465 -0.013446209 0.007066459
-0.08071343 -0.04349652 0.044046 0.079492 -0.040887605 -0.0400147 -0.01801352 0.03038673
0.07089186 -0.039338034 0.06727481 0.08732562 -0.04265439 0.0627237 -0.054959588 -0.007838376
0.04887926 0.019371402 0.008266229 0.002942107 -0.065344565 0.06768296 0.059588406 0.010948109
-0.031795688 -0.016544402 -0.06499709 -0.03124647 -0.01892741 0.08051633 -0.045107808 0.03341632
0.044588804 0.03961484 -0.03245002 0.059152838 -0.026744202 0.07477585 0.017223971 0.030184707
-0.06602131 0.024146844 0.08032152 0.053183652 -0.066596985 0.050175205 0.07857777 0.038131393
-0.076966815 0.06918341 -0.016110672 -0.05362279 -0.07899136 0.012615309 -0.059230905 -0.046978217
-0.007898772 0.013405854 -0.060188636 -0.032515876 0.060414974 -0.05951518 -0.044741414 -0.059646703
0.03788422 -0.046975628 0.009429947 0.017430827 0.018587893 0.0022185151 0.004822264 -0.10032682
-0.066444874 -0.017358212 -0.067205034 -0.072320245 0.00815075 -0.004837252 0.079110384 -0.048179813
0.041734852 -0.065129764 0.03182856 -0.046850782 0.041933607 -0.02821112 -0.06611579 -0.07112365
-0.0034792854 -0.0025987325 -0.041875504 0.070490435 -0.036230206 0.04304804 -0.08469135 -0.08275707
0.08104274 -0.077203795 0.07453818 -0.06303141 -0.05639691 0.009392462 -0.05636299 -0.08963161
-0.047776498 -0.02395314 -0.07260335 -0.015074248 0.083536 -0.086816736 -0.06232737 0.010392129
-0.05157386 0.03391207 0.0048499536 0.04947463 0.08122887 -0.029221714 0.013901684 -0.051310197
-0.05769702 -0.045367632 -0.08535152 -0.068412706 0.014756387 0.04217816 0.06895151 0.0579323
-0.07859804 0.05879763 -0.0006897706 -0.02376848 -0.07357837 0.010370903 0.066427626 -0.082900226
-0.041033342 -0.030572355 -0.07366774 -0.031282645 -0.073457055 0.053674262 0.07739806 0.060106874

bias f4 [2]
00000000: 6433 89bd f1eb 843c
-0.06699255 0.016225787
