model_saved/epoch_34.pth (torch, 139407 bytes, 8 tensors)

weight f4 [128, 5]
0	0xbeb9dbea	-0.36300594
1	0x3ead49e0	0.33845425
2	0x3d2d402f	0.04229754
3	0xbeb555d9	-0.3541706
4	0x3e63cc2c	0.22245854
5	0x3ed25fe5	0.41088787
6	0x3ed8202a	0.4221204
7	0xbde45df1	-0.111507304
8	0x3ed1e8bf	0.40997884
9	0xbe8294af	-0.25504062
10	0x3ed09956	0.40741986
11	0x3ec8706c	0.3914827
12	0xbe7c4861	-0.24636985
13	0xbe99101d	-0.29895106
14	0x3e337772	0.17526034
15	0xbe4a2e59	-0.19744243
16	0xbeca2d0b	-0.3948749
17	0x3d5bd139	0.053666327
18	0xbdc9dfdd	-0.09857152
19	0xbe993abb	-0.2992762
20	0xbe8c575c	-0.274104
21	0xbe87c47d	-0.26517096
22	0xbe208761	-0.15676643
23	0x3e1202d8	0.14258897
24	0x3ebe007b	0.37109742
25	0xbeb2f7ea	-0.34954768
26	0xbd85cffa	-0.06533809
27	0xbed4e542	-0.4158116
28	0x3edace75	0.4273564
29	0x3e8838d3	0.26605853
30	0xbe66df66	-0.22546157
31	0xbec41e1f	-0.3830423
32	0xbd0dc941	-0.03461576
33	0xbe18a2c2	-0.14905837
34	0xbdfbab44	-0.12288526
35	0xbecaa3b2	-0.39578015
36	0x3ead2bbd	0.33822432
37	0x3ecdbcb0	0.4018302
38	0xbeb0e809	-0.3455203
39	0xbd3e9a14	-0.04653366
40	0x3eaa992b	0.33319983
41	0xbc240e9b	-0.010013248
42	0xbe2bce7e	-0.1677799
43	0x3e8040fc	0.2504958
44	0xbee44a84	-0.445881
45	0x3ebcefe2	0.36901766
46	0x3ea32ae2	0.31868654
47	0x3d546119	0.051850412
48	0xbe05c9f7	-0.13065325
49	0xbeb00f6c	-0.34386766
50	0x3d1487d1	0.036262337
51	0xbd715773	-0.05892129
52	0x3ec9fbd7	0.3944995
53	0x3e1f9be7	0.15586816
54	0x3eaf8709	0.3428271
55	0xbe0356b8	-0.1282605
56	0x3c858cb2	0.01630244
57	0x3ebe0b41	0.3711796
58	0xbecb82fc	-0.3974837
59	0xbea655ba	-0.3248728
60	0xbe437437	-0.19087301
61	0xbed605a5	-0.4180118
62	0x3e611384	0.21980101
63	0xbe6a274f	-0.22866558
64	0xbed4f21d	-0.41590968
65	0x3e12f05a	0.143495
66	0x3e616b5a	0.22013608
67	0xbecabab8	-0.3959558
68	0xbb7a32d3	-0.0038177266
69	0xbe6dd995	-0.23227532
70	0xbd91ba8f	-0.07115661
71	0xbe926a8e	-0.2859692
72	0x3ebf8e94	0.37413466
73	0xbcb3284e	-0.021869805
74	0x3ed336e2	0.4125281
75	0x3eebcc8d	0.46054497
76	0xbe7e1e04	-0.24816138
77	0xbe17a42b	-0.14808719
78	0x3de9a310	0.11408055
79	0x3e95e82f	0.29278705
80	0x3d8630da	0.065522864
81	0xbecb2407	-0.39675924
82	0xbd6e227b	-0.058138352
83	0x3ed72f04	0.42028058
84	0x3e0d52e2	0.13801149
85	0x3eb28896	0.34869832
86	0x3e99a130	0.3000579
87	0xbea4023b	-0.32032952
88	0xbe6168a0	-0.22012568
89	0xbe569737	-0.20956121
90	0x3e41925b	0.18903486
91	0xbec7f7ce	-0.39056247
92	0x3cdd22c2	0.026994113
93	0x3ed6e1e1	0.41969207
94	0x3c773298	0.015087746
95	0x3be00cf1	0.0068374802
96	0xbd9ac413	-0.075569294
97	0x3e639d8e	0.22228071
98	0x3eab1c73	0.33420143
99	0xbed3b586	-0.4134943
100	0x3e9d8fcd	0.30773774
101	0x3ee00654	0.43754828
102	0xbe725143	-0.23663811
103	0xbebc4d02	-0.36777502
104	0x3df3cc75	0.119042315
105	0xbe8813a9	-0.265775
106	0x3e9305c8	0.28715348
107	0x3e55bbbb	0.20872395
108	0xbe8a9fd1	-0.27075055
109	0xbe0dcbcc	-0.13847274
110	0xbec49bd0	-0.38400126
111	0x3eb8285d	0.35968295
112	0xbcae9280	-0.021310091
113	0x3e3b804d	0.18310662
114	0xbb78e534	-0.0037978413
115	0x3ddab71a	0.10679455
116	0x3e36b7bd	0.17843528
117	0x3d658c5e	0.056042068
118	0x3e9358a8	0.28778577
119	0x3db86ef7	0.0900554
120	0xbe7a1b68	-0.24424517
121	0x3ea34da3	0.3189517
122	0x3de0dc4d	0.10979519
123	0x3ec01f4c	0.37523878
124	0xbe60bf37	-0.21947943
125	0x3e915042	0.28381544
126	0xbdf9d2ca	-0.12198408
127	0x3ed1e68b	0.40996203
128	0xbdabe635	-0.08393518
129	0x3e5f75ad	0.21822233
130	0xbf07f978	-0.53115034
131	0xbe982336	-0.29714364
132	0xbe1a4a90	-0.15067506
133	0x3e970d03	0.29502115
134	0xbdfc5d02	-0.12322427
135	0x3e9a102e	0.3009047
136	0xbe63a235	-0.22229846
137	0xbea92397	-0.33034965
138	0x3ca3f693	0.020015037
139	0xbd16e2e6	-0.03683748
140	0x3efae104	0.48999798
141	0x3e0c713c	0.1371507
142	0x3e8053ae	0.25063843
143	0xbed39549	-0.41324833
144	0xbe746a82	-0.23868755
145	0xbdf8f64f	-0.12156355
146	0x3e40ad1d	0.18816037
147	0xbeae151b	-0.34000477
148	0xbdfb0eb2	-0.12258662
149	0x3ec58027	0.38574335
150	0xbb1d8a1c	-0.0024038618
151	0x3e5bf3f8	0.21479785
152	0x3e12d402	0.14338687
153	0xbe0056a3	-0.1253305
154	0x3e8f23f1	0.2795711
155	0xbe3dd242	-0.18537238
156	0x3e6bc267	0.23023377
157	0x3e3d180c	0.18466204
158	0x3e50e5ad	0.20400114
159	0x3e925beb	0.28585753
160	0xbe957aac	-0.29195154
161	0xbef1d6cb	-0.47234187
162	0x3dc262be	0.0949149
163	0x3ea3fdb3	0.32029495
164	0x3e88d655	0.26726022
165	0xbc6479d3	-0.013945061
166	0xbe212d32	-0.15739897
167	0x3eb51a6e	0.35371727
168	0x3ecaab52	0.39583832
169	0x3e55a337	0.20863043
170	0xbed312a4	-0.4122516
171	0xbbba8866	-0.0056925295
172	0x3ed44f66	0.41466826
173	0xbe757e82	-0.2397404
174	0x3e2f102c	0.17096013
175	0x3ea39f07	0.31957266
176	0xbe746336	-0.23865971
177	0xbe7dabb1	-0.24772526
178	0x3ec8666b	0.3914064
179	0xbe20de0e	-0.15709707
180	0x3e548dba	0.2075719
181	0x3ec78b43	0.38973436
182	0xbeb354e8	-0.35025716
183	0x3e3f2d74	0.18669683
184	0xbd8f3745	-0.06992964
185	0xbeb9d030	-0.36291647
186	0x3ea9fc0a	0.33200103
187	0xbeac8814	-0.3369757
188	0xbddd656a	-0.10810359
189	0xbe18634b	-0.14881627
190	0xbeca5918	-0.39521098
191	0xbbd6dd51	-0.0065571447
192	0xbe86400b	-0.26220736
193	0xbe9e9336	-0.30971688
194	0xbed3576b	-0.41277632
195	0x3e57169e	0.21004722
196	0xbe751d56	-0.23936972
197	0xbec0e362	-0.3767348
198	0xbee17061	-0.4403105
199	0xbe6b215f	-0.22961949
200	0x3eb9de4c	0.36302412
201	0x3ef656e4	0.48113167
202	0xbe94bce7	-0.2905037
203	0xbe912275	-0.283466
204	0xbe640c77	-0.2227038
205	0x3d6f58b3	0.0584342
206	0x3e8821de	0.2658834
207	0xbdb4b9de	-0.08824514
208	0x3e9881b1	0.29786447
209	0x3ee2bcfa	0.44284803
210	0x3adc62f8	0.0016814163
211	0xbdc29d22	-0.09502627
212	0xbe94e605	-0.2908174
213	0x3e11a0d7	0.14221512
214	0x3ee0a472	0.43875462
215	0xbe0d39f0	-0.13791633
216	0xbeb955a6	-0.36198157
217	0x3e0ad206	0.1355668
218	0x3ca17b0c	0.019711994
219	0x3daa825a	0.08325644
220	0xbe3f4a36	-0.18680653
221	0x3cfd16bd	0.030894632
222	0xbd8db4d9	-0.069192596
223	0x3d590f85	0.052993316
224	0xbeddddf9	-0.43333414
225	0xbe60df4b	-0.2196018
226	0xbe80db9a	-0.25167543
227	0xbe602523	-0.21889167
228	0xbe93cc05	-0.28866592
229	0x3e6a83da	0.2290186
230	0xbe8ce7e8	-0.2752068
231	0x3ea1c636	0.31596535
232	0x3e82f9d7	0.25581238
233	0x3e78abb9	0.24284257
234	0x3d2027a4	0.039100304
235	0x3dcec70e	0.100965604
236	0x3e051b96	0.12998804
237	0xbd2b3cb7	-0.04180595
238	0x3ea32504	0.31864178
239	0xbe2c984c	-0.16854972
240	0x3e672c05	0.22575386
241	0x3c8468d6	0.01616327
242	0x3baa1445	0.0051904046
243	0x3ed365cb	0.412886
244	0xbec6faec	-0.38863313
245	0x3e107e08	0.14110577
246	0xbe03d14a	-0.12872806
247	0x3dd3a41f	0.10334038
248	0xbeaedf3d	-0.34154692
249	0x3ece123f	0.40248296
250	0xbe961405	-0.2931215
251	0xbedb2c9b	-0.4280747
252	0xbea70074	-0.32617533
253	0xbdf72cc5	-0.12069086
254	0x3df5c61a	0.120006755
255	0xbeb7b499	-0.35879973

bias f4 [128]
0	0xbe813d3e	-0.25242037
1	0x3ec669d7	0.38752624
2	0x3e4fa05b	0.20276015
3	0x3e06e43d	0.13173003
4	0xbda177db	-0.07884189
5	0xbd8f6255	-0.07001177
6	0xb9f6a367	-0.0004704252
7	0xbe6d5494	-0.23176795
8	0x3eb142d0	0.34621286
9	0xbe85e9c4	-0.26154912
10	0xbdea4dd2	-0.11440624
11	0xbe48f39c	-0.1962418
12	0x3d8401b9	0.06445641
13	0xbe9bdfa7	-0.3044407
14	0x3e72220f	0.23645805
15	0xbe5e7d03	-0.21727376
16	0x3e17061b	0.14748423
17	0x3e048e33	0.1294487
18	0x3e184309	0.14869322
19	0xbe0b73d8	-0.1361841
20	0xbe167eba	-0.1469678
21	0xbe5df4c4	-0.21675402
22	0xbed5219a	-0.41627198
23	0xbeaa084a	-0.3320945
24	0x3e3f50a3	0.18683104
25	0xbe301094	-0.17193824
26	0x3eab33e3	0.33438024
27	0xbe9b5faa	-0.30346423
28	0x3d9ee2af	0.0775808
29	0xbcc44a77	-0.023961289
30	0x3e91ca6d	0.2847475
31	0x3ecd64f0	0.40116072
32	0xbec084b5	-0.37601247
33	0x3ec50435	0.38479772
34	0xbe2fdad7	-0.17173325
35	0x3e09a456	0.13441595
36	0xbeaceef5	-0.3377606
37	0x3d4de370	0.05026573
38	0x3eab7dcc	0.33494413
39	0x3ee0f3d2	0.4393602
40	0xbe96dcc3	-0.29465303
41	0x3e82ca76	0.2554509
42	0xbe930b3e	-0.28719515
43	0xbe8b547e	-0.272129
44	0xbdbeac86	-0.0931025
45	0xbdbf567b	-0.09342667
46	0x3e34ba9d	0.17649312
47	0xbd0e6328	-0.03476253
48	0xbe42d8d3	-0.19028024
49	0xbebd114b	-0.36927256
50	0x3e93c743	0.28862962
51	0x3ea1bd23	0.31589612
52	0x3ebe4cd5	0.37167993
53	0xbd1cb862	-0.03826178
54	0xbe8dc73c	-0.27691066
55	0xbe6dd7a7	-0.23226796
56	0xbeb3b14d	-0.35096207
57	0xbe19071d	-0.1494412
58	0x3c3a429e	0.011368422
59	0xbe5b0f1b	-0.21392481
60	0xbe9c2fc3	-0.3050519
61	0xbda6c99b	-0.08143922
62	0x3d1cc502	0.03827382
63	0xbeb3d62c	-0.35124338
64	0xbe6afc35	-0.22947772
65	0x3e13c47b	0.1443042
66	0x3efcc57b	0.49369416
67	0x3e1cd525	0.15315683
68	0x3ec912b7	0.3927209
69	0xbe27410f	-0.16333412
70	0xbe5df3d2	-0.21675041
71	0xbe7f58c6	-0.24936208
72	0x3df24f1b	0.118314944
73	0x3ed89708	0.42302728
74	0xbe6e68fa	-0.23282233
75	0x3e90d2ca	0.2828582
76	0x3c980b2a	0.018560011
77	0x3ec0a683	0.37627038
78	0x3e982156	0.29712933
79	0x3eed3c45	0.46335045
80	0xbe74bdf0	-0.2390058
81	0xbe9315c9	-0.28727558
82	0x3e634579	0.2219447
83	0x3d9ed99b	0.07756349
84	0x3dc4a130	0.096010566
85	0x3ece7196	0.40321034
86	0x3edd1980	0.43183517
87	0x3e239f03	0.15978627
88	0xbed9f73f	-0.42571446
89	0xbe9aadc4	-0.30210698
90	0xbeaab9c6	-0.3334486
91	0x3d5c8856	0.053840958
92	0x3eb6c5ad	0.3569769
93	0x3e704054	0.23462039
94	0x3e3925b5	0.1808079
95	0xbea8563f	-0.328783
96	0xbe9d2b2f	-0.3069701
97	0xbebfb0dc	-0.3743962
98	0xbdbf3ff8	-0.09338373
99	0xbd9381c4	-0.07202485
100	0x3e5979f3	0.21237926
101	0x3e8ea7be	0.27862352
102	0x3e8d10f9	0.27552012
103	0x3e308122	0.1723676
104	0xbe898aaa	-0.26863605
105	0xbe329f15	-0.17443497
106	0x3ed2ee2f	0.41197345
107	0xbe4e27a7	-0.20132314
108	0x3e1c00ab	0.1523463
109	0x3e8e1b4d	0.27755204
110	0xbdaa6ba5	-0.08321313
111	0xbd3f617b	-0.046723824
112	0x3cc2e5da	0.023791242
113	0xbd16cb2d	-0.036814857
114	0x3ecf4973	0.40485725
115	0x3eb8ab84	0.36068356
116	0xbe6c6137	-0.2308396
117	0x3ece07ce	0.4024033
118	0x3e40f4d1	0.1884339
119	0xbe28c9d4	-0.16483241
120	0xbbc0f48d	-0.0058885277
121	0xbe66dd66	-0.22545394
122	0xbd8bc735	-0.06825105
123	0xbe9815f5	-0.29704252
124	0x3ec30150	0.3808694
125	0xbe8b5dce	-0.27220005
126	0x3db37ceb	0.087640606
127	0xbe219db0	-0.1578281

weight f4 [128, 128]
0	0x3d389f2c	0.045073673
1	0xbd17e0fe	-0.037079804
2	0xbd81f82d	-0.06346164
3	0x3d9777bf	0.07395887
4	0xbda168b5	-0.078812994
5	0x3d281ca8	0.041042954
6	0xbcf529e4	-0.029927202
7	0xbd972155	-0.073794045
8	0x3d795b46	0.06087806
9	0xbe1a64f9	-0.1507758
10	0xbbf72330	-0.0075420365
11	0x38c8af8d	9.569442e-05
12	0x3cd38259	0.02581899
13	0xbafca2d0	-0.0019274596
14	0x3e1bd2ac	0.15217084
15	0xbc8b29bd	-0.016987676
16	0xbbc88fea	-0.0061206715
17	0x3cc0b22a	0.023522455
18	0xbddd1dd7	-0.10796707
19	0xbbaaaf16	-0.00520886
20	0xbd2c7087	-0.042099502
21	0xbd9c738a	-0.07639225
22	0xbc96a0b3	-0.018387174
23	0x3dbd0f0a	0.09231384
24	0xbc9c6753	-0.019092238
25	0xbd7805b7	-0.060552325
26	0x3e70194d	0.23447151
27	0x3dab6c29	0.08370239
28	0xbdb1e407	-0.08686071
29	0xbe3559d8	-0.17710054
30	0x3ddb78ca	0.10716398
31	0x3cec5d4c	0.028853081
32	0x3b848b7e	0.004044949
33	0x3c87d6ca	0.016581912
34	0xbc32de6c	-0.010917287
35	0xbd9a1a00	-0.0752449
36	0xbe677e9f	-0.22606896
37	0xbe56ef3c	-0.20989698
38	0xbde97cc7	-0.114007525
39	0x3d863141	0.06552363
40	0x3d904c48	0.070457995
41	0x3bb08bdc	0.0053877663
42	0xbd1257ee	-0.035728388
43	0xbd826743	-0.06367352
44	0x3d95d46f	0.07315909
45	0xbd0cabcc	-0.034343526
46	0x3db63565	0.08896903
47	0x3ce076c5	0.027400384
48	0xbc92d3e0	-0.017923295
49	0xbc5ba779	-0.013406628
50	0xbd5a2b76	-0.053264104
51	0x3e23d19a	0.15997925
52	0x3dd9ae32	0.10628928
53	0x3ded1fd4	0.11578336
54	0x3d250eb3	0.04029722
55	0x3e9c8826	0.30572623
56	0x3d26f992	0.040765353
57	0x3d50df0d	0.050993968
58	0xbda462f6	-0.08026688
59	0xbdab070a	-0.08350952
60	0x3d0f113a	0.034928538
61	0x3d75aae5	0.05997743
62	0xbd003d1d	-0.031308282
63	0xbcf9a964	-0.03047628
64	0xbde210eb	-0.11038383
65	0x3d78f044	0.06077601
66	0x3d80f459	0.062966056
67	0x3c2ae9ef	0.010431751
68	0x3e045ca8	0.1292597
69	0x3e33ede0	0.17571211
70	0xbd1f6585	-0.038915176
71	0xbd74ae83	-0.05973674
72	0xbd99536d	-0.07486615
73	0x3e0668d6	0.13125929
74	0xbc4e4114	-0.012588758
75	0x3cbe77ae	0.023250427
76	0x3d2f2efd	0.04276942
77	0xbd6f8643	-0.05847765
78	0x3d4aaaac	0.04947917
79	0xbc1442ba	-0.009049112
80	0xbc71c634	-0.014756728
81	0x3d041e00	0.032255173
82	0x3d5d8ac7	0.054087427
83	0x3e02f7d4	0.12789851
84	0xbda76783	-0.0817404
85	0xbd2cc865	-0.0421833
86	0xbcaf30de	-0.021385606
87	0xbdd54722	-0.10413958
88	0xbd60bdfc	-0.054868683
89	0x3d4e7c85	0.05041172
90	0xbd19f237	-0.03758451
91	0x3d4c4b44	0.049876466
92	0xbd801d50	-0.06255591
93	0x3d8d1700	0.068891525
94	0x3c9e87e6	0.01935191
95	0xbe12830d	-0.14307804
96	0xbdb10ad3	-0.08644643
97	0x3c6d044d	0.014466357
98	0xbdbde92b	-0.09272989
99	0xbe40c92a	-0.18826738
100	0x3d9438ae	0.07237373
101	0x3d62a2a6	0.055330895
102	0x3b92a545	0.004475268
103	0x3cc832e3	0.024438327
104	0xbdc20156	-0.09472911
105	0x3e1112b9	0.14167298
106	0x3dfc4d50	0.12319434
107	0xbdf0abf9	-0.11751551
108	0xbdb282a7	-0.08716326
109	0x3ded5d90	0.11590111
110	0x3dadc6de	0.084851965
111	0x3c975e79	0.018477665
112	0xbe01b304	-0.12665945
113	0xbdb5cbc0	-0.08876753
114	0xbd61fd94	-0.05517347
115	0xbd943dba	-0.07238336
116	0xbdb50155	-0.08838145
117	0xbc71c856	-0.0147572365
118	0x3e192c41	0.14958288
119	0x3d3ceedb	0.046126228
120	0xbdd71a6c	-0.105030864
121	0xbe6fed5a	-0.23430386
122	0x3c47575d	0.012166825
123	0x3d201243	0.039079916
124	0x3ce5f622	0.028071467
125	0xbdb3b8ea	-0.08775504
126	0x3dd4100b	0.103546225
127	0xbd7a502b	-0.06111161
128	0xbd9d41da	-0.07678576
129	0x3d7b9d64	0.061429396
130	0xbd8f2b85	-0.069907226
131	0xbda1bd66	-0.07897453
132	0x3d4701dc	0.048585758
133	0x3d443f56	0.047911964
134	0xbd3228ad	-0.043495823
135	0x3d82e31c	0.06390974
136	0x3da50453	0.080574654
137	0xbe9a9a51	-0.3019586
138	0xbdb003f9	-0.08594508
139	0x3da397e1	0.07987953
140	0x3d8e9d49	0.069635935
141	0xbd8d7845	-0.06907705
142	0x3e358a63	0.17728572
143	0xbda5ba6a	-0.08092196
144	0xbd5bbaea	-0.053645052
145	0x3c32b963	0.010908457
146	0x3d693dc1	0.05694366
147	0xbdb16da3	-0.0866349
148	0xbdc2a413	-0.09503951
149	0xbce0d481	-0.02744508
150	0x3bf44dbd	0.007455556
151	0x3e84b336	0.25917977
152	0x3d945a26	0.07243757
153	0x3d2fb9e4	0.04290189
154	0x3e7d24c4	0.24721056
155	0xbd9dde05	-0.077083625
156	0xbd622b1b	-0.05521689
157	0xbe1415bc	-0.14461416
158	0xbc9e221c	-0.019303374
159	0x3db21053	0.0869452
160	0x3d6fbe92	0.05853135
161	0xbd8ea762	-0.069655195
162	0xbd091ba4	-0.033473626
163	0xbdaa692f	-0.083208434
164	0xbe5f4213	-0.21802549
165	0xbe9a1a88	-0.30098367
166	0xbe390ec3	-0.18072037
167	0xbcbce2e9	-0.023057418
168	0xbd7da1f6	-0.061922036
169	0xbd275048	-0.040848047
170	0x3d362f4b	0.044478696
171	0xbcc3f161	-0.02391881
172	0x3d3e1234	0.04640408
173	0xbd85ee72	-0.065396205
174	0x3d3d6aaa	0.0462443
175	0xbd7fa540	-0.062413454
176	0xbd776b54	-0.06040509
177	0x3d2b1fb5	0.041778285
178	0x3bef1e75	0.007297332
179	0x3e72205a	0.23645154
180	0x3da7a5b9	0.08185906
181	0xbd9f5a81	-0.07780934
182	0xbcb1c29c	-0.021699242
183	0x3e21def8	0.15807712
184	0x3d966f27	0.073454194
185	0xbc6a329c	-0.014294293
186	0xbe56347a	-0.20918456
187	0x3d6a2c9a	0.05717144
188	0x3cf50ab1	0.029912325
189	0x3d9ec31b	0.07752057
190	0xbc2753c8	-0.010212846
191	0xbd828377	-0.06372731
192	0xbd9a95ef	-0.07548129
193	0x3db77a10	0.089588284
194	0x3dd6a863	0.10481336
195	0xbe006e91	-0.12542178
196	0x3e1bdc17	0.15220676
197	0x3c9a0bd4	0.018804468
198	0xbe0aa510	-0.13539529
199	0xbd3d6ee8	-0.046248347
200	0x3d79cc8c	0.060986087
201	0x3de8e3b5	0.11371557
202	0xbccf0925	-0.025272915
203	0xbb125ab1	-0.0022331888
204	0xbdc089f2	-0.09401311
205	0xbda13894	-0.078721195
206	0x3dfbf397	0.123023205
207	0xbd00ab48	-0.031413347
208	0x3d0101e6	0.03149595
209	0x3d682a9c	0.05668126
210	0xbcfcde0b	-0.030867597
211	0x3e2d6c00	0.1693573
212	0xbde7eb82	-0.113242164
213	0xbd61b350	-0.055102646
214	0x3d330851	0.043709103
215	0xbe402d1a	-0.18767205
216	0xbc2af457	-0.010434232
217	0xbd3b3d44	-0.045712724
218	0xbd9221ba	-0.07135339
219	0x3dd73ced	0.105096675
220	0xbc1e4fff	-0.009662627
221	0xbd974e47	-0.07387977
222	0x3cdaf5b7	0.026728494
223	0xbd30e09f	-0.043182965
224	0xbd60394e	-0.05474215
225	0x3d948f54	0.072539
226	0xbe26aaa7	-0.16276036
227	0xbe958b71	-0.29207948
228	0x3d2a9602	0.041646965
229	0xbc65e21e	-0.014030961
230	0xbcc4708a	-0.023979444
231	0x3d7c5269	0.06160203
232	0xbe753eba	-0.2394971
233	0x3d9baee1	0.07601715
234	0x3e41a530	0.1891067
235	0x3d60176e	0.054709844
236	0xbd96ecd2	-0.07369389
237	0x3e22c3df	0.15895031
238	0xbda39247	-0.079868846
239	0xbe498c74	-0.19682485
240	0xbdde2167	-0.10846215
241	0x3c45eb02	0.012079956
242	0xbd7a8b68	-0.061168104
243	0x3d5526a6	0.05203881
244	0x3d5da0c4	0.054108396
245	0x3c8e8941	0.017399432
246	0x3e75fb85	0.24021728
247	0x3d910a51	0.07082046
248	0xbe2b98d0	-0.16757512
249	0xbe0ed66d	-0.13948984
250	0xb9c35c3f	-0.00037262027
251	0xbcc04192	-0.023468766
252	0x3c08155e	0.008305876
253	0x3d88bb00	0.066762924
254	0x3df8d7e3	0.12150552
255	0xbd9ab51a	-0.07554074

bias f4 [128]
0	0x3cfe8519	0.031069325
1	0x3d42bfb1	0.047546092
2	0x3d63e7fa	0.055641152
3	0xbb44212d	-0.0029927
4	0xbc0679ca	-0.008207748
5	0x3b10195e	0.0021987776
6	0x3dc2bcc3	0.0950866
7	0x3d7ca216	0.061678015
8	0x3d27ac47	0.04093578
9	0xbaca2842	-0.0015423375
10	0x3d91c9c2	0.071185604
11	0x3c956395	0.018235961
12	0x3d7e60b5	0.062103946
13	0xbc8d9562	-0.017283145
14	0xbcf6c33c	-0.030122392
15	0x3d90a155	0.07062022
16	0x3c9baee1	0.019004287
17	0x3dec330d	0.11533175
18	0xbcdc983f	-0.026928065
19	0xbc6967da	-0.014245952
20	0x3d4417e9	0.047874365
21	0x3db9fe86	0.090817496
22	0xbd95846b	-0.07300647
23	0x3cf51a31	0.029919716
24	0x3d61652a	0.05502812
25	0x3d22ef59	0.03977904
26	0xbd07d16c	-0.033158705
27	0xbd8691da	-0.06570788
28	0xbcc33bb0	-0.023832172
29	0x3d448655	0.04797967
30	0x3d3f5d80	0.046720028
31	0x3d2d9e71	0.04238743
32	0xbd245cc3	-0.040127527
33	0x3d6bf417	0.05760583
34	0x3d1fe0c7	0.039032724
35	0x3d614182	0.054994114
36	0x3d51ce6f	0.05122226
37	0x3dad81cd	0.08472023
38	0x3cf7f4db	0.030268123
39	0x3d070743	0.03296591
40	0x3d951891	0.07280076
41	0x3d13cde1	0.036085013
42	0xbd17e937	-0.037087645
43	0x3d9c55fc	0.07633588
44	0x3d82b838	0.06382793
45	0xbda83350	-0.08212912
46	0x3d9bf0d3	0.07614293
47	0x3d9ed4cd	0.07755432
48	0x3da9672e	0.08271633
49	0x3d0485a3	0.03235401
50	0x3cfb56eb	0.030681094
51	0x3cc5d4ac	0.024149261
52	0xbdaaa011	-0.083313115
53	0xbd2b7561	-0.041859988
54	0xbd28221f	-0.041048165
55	0xbd12bc23	-0.035823952
56	0xbd327162	-0.04356516
57	0x3d416d16	0.047223173
58	0x3d9826dd	0.074292876
59	0x3d32c43f	0.043644186
60	0x3cacc98d	0.0210922
61	0x3d99d53d	0.07511375
62	0xbd5fbadd	-0.054621566
63	0xbd18f9e4	-0.03734769
64	0x3d06404b	0.03277616
65	0x3d86afbd	0.06576488
66	0xbd25ebe7	-0.040508177
67	0x3d30b1d6	0.043138348
68	0xbd0269bf	-0.03183913
69	0x3da13327	0.07871085
70	0x3dadb78d	0.08482275
71	0x3d69e0b9	0.057099078
72	0xbc870103	-0.016479975
73	0x3d30540d	0.043048907
74	0xbcaed95b	-0.021343878
75	0x3d94678e	0.07246314
76	0xbdc3d3ec	-0.09561905
77	0xbd558496	-0.052128397
78	0x3db6a6db	0.08918544
79	0x3cc5b081	0.024132015
80	0x3d2e7f0c	0.04260163
81	0x3d6430c6	0.055710576
82	0x3d2329b1	0.039834682
83	0xb9e6e4e4	-0.00044039555
84	0x3d540e6d	0.05177157
85	0x3cabbde9	0.02096458
86	0xbd8a1598	-0.067424
87	0xbd9f0097	-0.077637844
88	0x3cdad13b	0.026711097
89	0x3d0637f4	0.032768205
90	0xbc8ed7da	-0.01743691
91	0x3d1b4f4f	0.03791743
92	0xbdca0275	-0.0986375
93	0x3d28237b	0.04104946
94	0x3d247a8a	0.040155925
95	0x3d78bba6	0.06072583
96	0xbccf33f5	-0.02529333
97	0x3d541620	0.051778913
98	0xbbe9119e	-0.007112696
99	0x3d2af8fb	0.041741353
100	0xbc64116d	-0.01392017
101	0x3c21358f	0.0098394295
102	0x3d96bf0a	0.073606566
103	0x3d54bdd8	0.05193886
104	0x3cdc6f13	0.026908433
105	0xbd69155c	-0.056905136
106	0x3d05c993	0.03266294
107	0x3d88f50d	0.06687365
108	0x3da4073d	0.08009193
109	0xbd4c0499	-0.049809072
110	0xbca322b9	-0.019914018
111	0xbd9662ee	-0.07343088
112	0x3db2095f	0.08693194
113	0x3db4a25d	0.08820031
114	0xbd1f4611	-0.03888518
115	0x3d45d704	0.048300758
116	0xbd2f8d22	-0.042859204
117	0x3c613df3	0.01374768
118	0xbc7fede8	-0.015620686
119	0x3d91852e	0.0710548
120	0x3d211f35	0.039336402
121	0xbd475670	-0.048666418
122	0x3d072389	0.032992873
123	0xbd7c436a	-0.06158773
124	0xbd7f1e29	-0.062284622
125	0x3d4408e4	0.04786004
126	0xbb108ed0	-0.002205778
127	0xbce01e17	-0.027358098

weight f4 [128, 128]
0	0xbe929b66	-0.28634185
1	0xbec43654	-0.383227
2	0x3cf1e089	0.029526012
3	0xbd7f78c2	-0.062371023
4	0xbd35d5a9	-0.044393215
5	0x3da8832f	0.08228146
6	0x3e116f63	0.14202647
7	0xbd832d40	-0.06405115
8	0x3d8e0df4	0.06936255
9	0xbd574806	-0.05255892
10	0xbc964842	-0.018345002
11	0x3bc4d8dd	0.0060072974
12	0x3ccfb34f	0.025354056
13	0x3d636f64	0.055526152
14	0x3d2ab81c	0.041679487
15	0xbd67d373	-0.056598138
16	0xbce3fca9	-0.027830439
17	0xbd086cb7	-0.033306804
18	0x3ca2b66a	0.019862372
19	0xbd02bfbb	-0.03192113
20	0xbd011fe9	-0.031524573
21	0xbe207c88	-0.15672505
22	0xbd24386a	-0.040092863
23	0xbd2b5dc1	-0.041837458
24	0xbd1d1cd0	-0.038357556
25	0xbd9011e0	-0.070346594
26	0xbd3d0e7e	-0.0461564
27	0xbb396585	-0.002828927
28	0xbc85cdd1	-0.016333492
29	0x3d0322fb	0.03201578
30	0x3d62119b	0.05519257
31	0xbd71847a	-0.05896423
32	0xbe0501de	-0.12988994
33	0x3d77bc8c	0.060482547
34	0x3d8398b0	0.06425607
35	0x3dad880d	0.08473215
36	0x3d413874	0.04717298
37	0x3cea3e4e	0.028594162
38	0x3c51dff5	0.012809743
39	0x3da2a553	0.07941689
40	0xbd925dee	-0.07146822
41	0xbe36e172	-0.17859438
42	0x3c8ee943	0.017445212
43	0x3d65c76d	0.05609839
44	0xbc4a5a4e	-0.012350632
45	0x3c831a01	0.01600361
46	0xbd1ab06c	-0.037765905
47	0xbdb1a67c	-0.086743325
48	0x3d70f532	0.058827586
49	0x3d9c3e81	0.07629109
50	0x3c8ad160	0.01694554
51	0x3d4ef14d	0.05052309
52	0x3c847889	0.016170757
53	0x3d8bd7dc	0.06828281
54	0x3cf2a8b9	0.029621469
55	0xbc8d89d0	-0.017277628
56	0xbd4db36f	-0.05021995
57	0xbc8ac21a	-0.016938258
58	0x3c108652	0.008821087
59	0x3d0a4f26	0.033766888
60	0xbe7fa1a4	-0.24964005
61	0xbd6e4c27	-0.058178093
62	0xbda1df40	-0.0790391
63	0xbda1f0ca	-0.07907255
64	0x3d841658	0.06449574
65	0x3d6133e0	0.054981112
66	0xbcf211b0	-0.02954945
67	0x3c0d6f0f	0.008632435
68	0xbd9fd711	-0.078046925
69	0x3d983afb	0.07433125
70	0xbd7a1c51	-0.06106216
71	0xbc41d467	-0.011830426
72	0x3d8fc702	0.070203796
73	0xbd1f47c0	-0.038886786
74	0x3d849632	0.0647396
75	0xbd96ea8c	-0.07368955
76	0x3dfe299c	0.1241028
77	0xbd71bae1	-0.059016112
78	0x3d898b7c	0.06716058
79	0x3cfbd5c2	0.030741576
80	0xbd140565	-0.036137957
81	0xbc56542c	-0.013081592
82	0xbd5afbdc	-0.053462848
83	0xbcf3ab4e	-0.02974477
84	0x3da47e7b	0.08031937
85	0x3d26713d	0.040635336
86	0xbbb6b179	-0.0055753556
87	0x3d496cf9	0.04917619
88	0x3cf4b1e0	0.029869974
89	0xb9cab844	-0.0003866573
90	0x3d586925	0.05283465
91	0xbad6533e	-0.0016351712
92	0xbd1eaf22	-0.03874124
93	0xbc8caa47	-0.017171038
94	0x3cc7425a	0.024323631
95	0x3d00aa9a	0.0314127
96	0xbd8def82	-0.06930448
97	0x3d33ef0d	0.04392915
98	0xbcaff18b	-0.021477481
99	0xbcca92ec	-0.024728261
100	0x3d846c84	0.0646601
101	0x3c1bec7d	0.009516832
102	0x3c7618d7	0.015020571
103	0x3c4a4b63	0.012347075
104	0xbd26e640	-0.040746927
105	0x3c4bb6b9	0.012433701
106	0xbd66fdcc	-0.056394383
107	0xbcfb57d2	-0.030681524
108	0x3dc1dbb5	0.09465734
109	0xbcf2d96c	-0.02964469
110	0x3d5087e3	0.05091084
111	0xbda1bccd	-0.07897339
112	0x3c63bdbc	0.013900217
113	0xbd767460	-0.060169578
114	0x3d05df9a	0.032683946
115	0xbc4e60a2	-0.012596281
116	0xbc9da251	-0.019242438
117	0xbd046ad8	-0.032328457
118	0x3da9416c	0.08264431
119	0xbd7e30e4	-0.062058344
120	0xbd2cd947	-0.0421994
121	0xbd83fbed	-0.064445354
122	0xbcaf3b35	-0.021390537
123	0x3d4c2e29	0.04984871
124	0xbbd3a1e7	-0.0064585092
125	0xbc010fd4	-0.007877309
126	0x3da25690	0.07926667
127	0x3c89ee43	0.016837245
128	0xbe870dce	-0.2637772
129	0xbe0a2cb2	-0.13493612
130	0xbd3469d5	-0.04404624
131	0x3d6ffa27	0.058588173
132	0xbdb25d37	-0.087091856
133	0x3d48ad15	0.04899319
134	0x3d92400c	0.07141122
135	0xbe01185a	-0.12606946
136	0x3c92e911	0.0179334
137	0xbbb6958c	-0.0055720266
138	0x3dba5ec8	0.09100109
139	0xbc40d00a	-0.01176835
140	0xbcb16837	-0.021656139
141	0xbe154204	-0.14575964
142	0x3e09c16a	0.13452688
143	0x3e562c42	0.2091532
144	0xbd7ebec4	-0.062193647
145	0x3d906957	0.07051342
146	0xbd8cedc5	-0.068812884
147	0xbcb74825	-0.022373268
148	0xbe759371	-0.23982026
149	0xbe1a360b	-0.15059678
150	0x3d83a846	0.0642858
151	0xbde942e9	-0.11389715
152	0x3db5c943	0.08876278
153	0x3de3cae3	0.11122682
154	0xbe06f5f2	-0.13179758
155	0xbe1857c1	-0.14877225
156	0xbc97ff51	-0.018554362
157	0xbd6eabda	-0.05826936
158	0x3c274cc4	0.010211173
159	0x3c1e1816	0.009649297
160	0xbe077f61	-0.13232185
161	0xbe1926f5	-0.14956267
162	0x3d23cb84	0.03998901
163	0xbd400092	-0.046875544
164	0x3cf39e5c	0.029738598
165	0xbd51a77f	-0.051185127
166	0x3de4609e	0.11151241
167	0x3dc9339f	0.09824299
168	0x3dce3402	0.100685135
169	0xbdce68dc	-0.10078594
170	0x3c1a76a6	0.009427702
171	0x3d7be9d1	0.06150228
172	0xbd019c6f	-0.031643327
173	0xbdc1d9e6	-0.09465389
174	0x3db08176	0.08618443
175	0x3e009199	0.12555541
176	0x3d049978	0.03237292
177	0xbda6b618	-0.081402004
178	0x3df998f5	0.12187377
179	0x3db1f990	0.086901784
180	0x3d1f5d2c	0.038907215
181	0xbdf13201	-0.117771156
182	0xbd9ad3fa	-0.075599626
183	0x3cf64dff	0.030066488
184	0x3da3499f	0.079730265
185	0x3da28d11	0.079370625
186	0x3cab7231	0.020928474
187	0xbd1cc031	-0.038269226
188	0xbe48a760	-0.19595098
189	0xbd030428	-0.031986386
190	0xbe2268aa	-0.15860239
191	0x3da0a565	0.078440465
192	0x3e15f08d	0.14642544
193	0x3dbcf183	0.09225752
194	0x3d96117f	0.07327556
195	0xbb9f5b1e	-0.004863157
196	0x3d1a7b61	0.03771532
197	0xbcff332b	-0.031152328
198	0xbb9f0ff8	-0.0048541985
199	0x3c6a5a9d	0.01430383
200	0xbcdb1bcd	-0.026746655
201	0xbd9bb4ac	-0.0760282
202	0x3d9d40b4	0.07678357
203	0xbe1ce940	-0.15323353
204	0x3e473272	0.19452837
205	0x3cfc29ee	0.030781712
206	0x3d05e14b	0.03268556
207	0x3de36093	0.111024044
208	0x3cb8d4da	0.022562433
209	0xbcf49560	-0.029856384
210	0xbd84c240	-0.06482363
211	0x3dd4dfea	0.10394271
212	0xbd293fd8	-0.04132065
213	0x3d978e74	0.07400218
214	0xbe3892a4	-0.18024689
215	0x3ce2fe99	0.027709292
216	0x3d28e52a	0.041234173
217	0xbcf62490	-0.030046731
218	0xbd155abf	-0.036463495
219	0x3b34bd5b	0.0027578685
220	0x3df0cb0a	0.11757477
221	0xbdc02fe6	-0.09384136
222	0xbd0e1cf1	-0.03469557
223	0x3d2b86ca	0.04187659
224	0xbd98fd7e	-0.07470225
225	0xbc470527	-0.0121472245
226	0x3d8e08bc	0.0693526
227	0x3c8c39cd	0.017117405
228	0x3dd6622c	0.104679435
229	0x3c0aeb7d	0.008478996
230	0xbc993a16	-0.018704455
231	0x3db13b18	0.08653849
232	0xbd43a603	-0.047765743
233	0x3e1a0180	0.15039635
234	0xbd55f99c	-0.05224
235	0x3cbc2856	0.022968452
236	0x3d60c54f	0.05487567
237	0x3d775219	0.06038103
238	0x3d88be6c	0.06676945
239	0xbd528e4f	-0.051405247
240	0x3bfe6a07	0.0077641043
241	0x3cdf07b4	0.027225353
242	0x3e56f042	0.20990089
243	0xbdad86c0	-0.08472967
244	0xbde82354	-0.11334863
245	0xbd0ad8b9	-0.03389809
246	0xbd88fe1b	-0.06689092
247	0x3c5ee7fe	0.013605116
248	0x3cc5e4c5	0.024156937
249	0x3db08d55	0.08620707
250	0xbc9c7b1d	-0.019101674
251	0xbd36f0e1	-0.044663314
252	0xbb801008	-0.003908161
253	0x3d53b230	0.051683605
254	0x3ded7de1	0.11596275
255	0xbdb3228e	-0.08746825

bias f4 [128]
0	0xbdb02e45	-0.08602575
1	0xbd8648f7	-0.06556886
2	0xbd9d8501	-0.07691384
3	0x3d38d621	0.045126084
4	0x3de8019b	0.11328431
5	0x3d6a92a2	0.057268746
6	0xbc630ad7	-0.013857565
7	0x3c499324	0.012303147
8	0xbd85bc0c	-0.06530008
9	0xbbc3200e	-0.005954749
10	0x3d20209d	0.039093602
11	0x3d7b6758	0.061377853
12	0x3d6b5677	0.057455506
13	0xbd8138e8	-0.06309682
14	0xbdb5ee0e	-0.08883296
15	0xbd96af13	-0.073576115
16	0x3d9356a8	0.07194263
17	0xbce8dc52	-0.02842537
18	0x3b9c3272	0.0047667557
19	0xbddd8c2d	-0.10817752
20	0x3d8cb628	0.06870681
21	0xbd17bf98	-0.037047952
22	0x3c181d09	0.009284266
23	0xbd871358	-0.065954864
24	0x3da4a6b3	0.08039608
25	0x3da1406c	0.078736156
26	0x3d5de11b	0.054169755
27	0xbd8c8fdf	-0.06863379
28	0x3c8cc388	0.01718308
29	0xbdaab3d0	-0.08335078
30	0x3db57f95	0.08862225
31	0xbcdf24db	-0.027239254
32	0xbb41ba0b	-0.0029560353
33	0xbd9cd898	-0.076584995
34	0x3d671001	0.056411747
35	0xbda67327	-0.08127432
36	0xbd907e7b	-0.07055374
37	0xbd68d3dd	-0.056842674
38	0x3cf35975	0.029705742
39	0xbd568ab4	-0.05237837
40	0x3d930677	0.071789674
41	0x3d7b76bd	0.061392535
42	0xbd3462fc	-0.04403971
43	0xbda395d1	-0.079875596
44	0x3cc4ed4b	0.024038931
45	0xbd1f8601	-0.038946155
46	0x3d3a9d87	0.045560386
47	0xbd7c6688	-0.06162122
48	0x3d8dbf6e	0.06921278
49	0x37b14e99	2.1136644e-05
50	0x3d535766	0.05159702
51	0xbb4d1399	-0.0031292199
52	0x3da4d021	0.0804751
53	0xbcdb23fb	-0.026750555
54	0xbd6e8728	-0.058234364
55	0x3d1db2dd	0.038500655
56	0xbd3e8a8c	-0.046518847
57	0xbcd02fc4	-0.025413401
58	0xbcf81dd9	-0.03028767
59	0x3d32d1b4	0.04365702
60	0x3cc8a0f1	0.024490805
61	0xbdb83819	-0.08995075
62	0xbdaf3f7e	-0.08557032
63	0x3d98abf1	0.0745467
64	0xbd258cf1	-0.040417615
65	0x3db18d23	0.08669498
66	0x3cfbe7da	0.030750204
67	0xbd289c6a	-0.041164793
68	0xbdb2b8c5	-0.08726648
69	0x3d9edc4d	0.07756863
70	0x3d82f192	0.06393732
71	0xbd63a000	-0.05557251
72	0x3c27ba16	0.010237237
73	0xbcaa6cf2	-0.020803902
74	0x3d97c5e5	0.07410792
75	0x3d4bd524	0.049763814
76	0x3d9e22a8	0.07721454
77	0x3da6ef9f	0.08151173
78	0x3d0fc481	0.03509951
79	0x3c8ee571	0.01744339
80	0xb8d12620	-9.972998e-05
81	0xbd0a70ad	-0.033798862
82	0x3c7fd190	0.015613928
83	0x3d5b600d	0.053558398
84	0xbb87202d	-0.0041237087
85	0x3d0a0232	0.0336935
86	0xbd4f0d38	-0.050549716
87	0x3c5e69fa	0.0135750715
88	0xbd24852a	-0.040166058
89	0x3d3924af	0.045201
90	0x3d9120a1	0.070863016
91	0x3d0e3315	0.034716684
92	0xbda77fea	-0.081786945
93	0x39033c0f	0.00012515507
94	0xbd3f88b8	-0.046761245
95	0xbda1e245	-0.079044856
96	0xbd8d16da	-0.06889124
97	0xbc2658dd	-0.010153023
98	0xbd000531	-0.03125495
99	0x3d303747	0.043021467
100	0x3d7cfaf5	0.06176277
101	0x3c020081	0.00793469
102	0x3c9f64b0	0.019457191
103	0x3da5b33e	0.08090828
104	0x3ccdaa50	0.025105625
105	0x3d8d2d98	0.06893462
106	0xbd880938	-0.06642383
107	0x3d894e67	0.06704407
108	0x3d46aa90	0.048502505
109	0x3d323598	0.043508142
110	0x3cdfc588	0.02731587
111	0x3d9d9b03	0.07695582
112	0x3d361aae	0.044459037
113	0xbbde6079	-0.006786403
114	0x3c7526e2	0.014962884
115	0x3c400154	0.011719067
116	0xbdc23aea	-0.09483893
117	0xbcc16112	-0.023605857
118	0x3c1a526f	0.009419068
119	0xbd1929bc	-0.037393317
120	0x3ce06735	0.027392963
121	0x3d97bf86	0.07409577
122	0xbd00115c	-0.031266555
123	0x3c95fc56	0.0183088
124	0x3d5688b8	0.05237648
125	0x3d5d8340	0.054080248
126	0x3d2deedf	0.042464133
127	0x3d818593	0.063243054

weight f4 [2, 128]
0	0xbd8fe586	-0.070262
1	0x3d3a4c41	0.045482878
2	0xbd131a0b	-0.03591351
3	0xbda25215	-0.07925812
4	0x3d84c0ec	0.064821094
5	0x3da326e5	0.07966403
6	0xbd8d07fb	-0.06886288
7	0xbd9097f0	-0.0706023
8	0x3d49e72d	0.049292732
9	0x3d6f368d	0.058401633
10	0x3cf4527d	0.02982449
11	0x3c6bd097	0.014392993
12	0xbd8a1c1d	-0.067436434
13	0x3b670c05	0.0035254967
14	0xbd152f48	-0.036422044
15	0xbd5385b2	-0.051641174
16	0x3d96c2ae	0.07361351
17	0x3d893d32	0.06701125
18	0xbcc398c6	-0.023876559
19	0xbd91b990	-0.07115471
20	0xbd796dba	-0.06089566
21	0x3d2d7889	0.04235128
22	0x3d21d1d4	0.03950675
23	0x3d7b57f7	0.061363187
24	0xbcd7a1fc	-0.026322357
25	0x3dfc295b	0.123125754
26	0x3cdac2d0	0.026704222
27	0x3c7949be	0.015215335
28	0x3d0f6aa1	0.0350138
29	0x3ca779a9	0.020443754
30	0x3dd7d296	0.10538213
31	0xbb7622e8	-0.0037557427
32	0x3da5fd56	0.081049606
33	0x3db39cb9	0.08770127
34	0xbd73c7c1	-0.059516672
35	0x3caf8681	0.021426441
36	0xbdaf4998	-0.08558959
37	0x3d933806	0.0718842
38	0xbda82c0b	-0.082115255
39	0xbe0e4fb8	-0.13897598
40	0x3d6254b0	0.055256546
41	0x3d0310a1	0.03199828
42	0x3d9e7f0c	0.07739076
43	0xbcfb62c8	-0.030686751
44	0xbccd667b	-0.02507328
45	0x3d94a47c	0.072579354
46	0xbc506a1f	-0.012720614
47	0x3d9f9ad0	0.077932
48	0x3c47afed	0.01218794
49	0x3d506e7a	0.05088661
50	0x3d14dee2	0.03634537
51	0xbd210fab	-0.039321583
52	0xbd4bb5cf	-0.049733933
53	0x3db2d921	0.0873282
54	0xbda53b17	-0.08067911
55	0xbd1f25c6	-0.038854383
56	0x3d70605a	0.058685638
57	0xbd27c9ef	-0.040964063
58	0xbd9e9bdf	-0.07744574
59	0x3d504c19	0.050853822
60	0xbd92175a	-0.0713336
61	0xbc125d0b	-0.008933316
62	0xbca1c197	-0.019745631
63	0x3b931ee7	0.004489768
64	0x3cb8c019	0.022552537
65	0xba98c5b9	-0.0011655606
66	0x3bad9e14	0.0052983854
67	0x3d94a135	0.0725731
68	0xbd4fc010	-0.050720274
69	0xbd4eb2ce	-0.05046349
70	0x3dc8c08b	0.0980235
71	0x3d13e7f1	0.03610987
72	0xbd7a1134	-0.061051562
73	0xbd6d2482	-0.057896145
74	0xbd9824bd	-0.07428882
75	0x3b91e20a	0.004451995
76	0xbd861743	-0.065474056
77	0x3d865ead	0.06561027
78	0xb9105cc6	-0.00013767471
79	0xbd9badfb	-0.076015435
80	0xbd6089dc	-0.054818973
81	0xbd805691	-0.06266511
82	0x3db39d23	0.08770206
83	0x3da4f0a0	0.08053708
84	0xbd99ebab	-0.07515653
85	0x3d9fc1bc	0.07800624
86	0xbcf14e81	-0.029456379
87	0xbc7d4127	-0.015457428
88	0xbdb02f58	-0.0860278
89	0xbd4c02da	-0.049807407
90	0x3e485131	0.19562222
91	0x3d4e2735	0.05033036
92	0xbc9a25a6	-0.01881678
93	0xbd7ad72c	-0.06124036
94	0xbdacf74d	-0.084456064
95	0xbdb03565	-0.08603934
96	0x3d9ac4e4	0.07557085
97	0x3d06d181	0.032914642
98	0xbb89264f	-0.004185475
99	0xbd944223	-0.07239177
100	0x3d8fdfda	0.07025118
101	0x3cfa365f	0.030543504
102	0xbca9254a	-0.020647664
103	0x3d5902a0	0.05298102
104	0x3b63edf0	0.0034779273
105	0xbd60d24d	-0.05488806
106	0x3c9b3464	0.01894588
107	0xbd377638	-0.044790477
108	0x3d050069	0.032471094
109	0xbd590177	-0.052979913
110	0x3b3530f6	0.0027647591
111	0x3e0bf24f	0.13666652
112	0x3cbcfed8	0.023070738
113	0xbcdc3b0e	-0.026883628
114	0xbd94dd10	-0.07268727
115	0xbda235b3	-0.079203986
116	0xbdafcaa0	-0.085835695
117	0x3c13a41b	0.009011294
118	0xbd731734	-0.0593483
119	0xbd264771	-0.040595476
120	0x3c150b2a	0.0090969
121	0x3e0e1bdc	0.13877815
122	0x3c209fca	0.009803722
123	0xbd6aae8d	-0.05729537
124	0x3daa8f23	0.083280824
125	0x3d1b8980	0.037972927
126	0xbd81f64b	-0.06345805
127	0xbd8dcc82	-0.069237724
128	0x3da608e0	0.081071615
129	0x3e0801df	0.13281964
130	0x3e76c966	0.24100265
131	0x3eba486b	0.36383376
132	0x3db07076	0.086152
133	0xbda7a62e	-0.08185993
134	0xbd93f520	-0.07224488
135	0x3e50848c	0.20363063
136	0xbd1e539d	-0.03865396
137	0x3cee6679	0.029101597
138	0x3ea2dee6	0.31810683
139	0xbdada458	-0.08478612
140	0x3d5fe3a2	0.054660447
141	0x3cf59ef0	0.029983014
142	0xbd2244fc	-0.03961657
143	0x3ca91f7d	0.020644898
144	0xbb089487	-0.0020840482
145	0x3da19c0d	0.078910924
146	0xbe2dba66	-0.16965637
147	0xbc80756d	-0.015680993
148	0xbe3c2342	-0.18372825
149	0xbcb09f7a	-0.02156042
150	0xbd8876d0	-0.06663287
151	0xbda72e95	-0.08163182
152	0x3d9b1763	0.0757282
153	0x3e890535	0.26761785
154	0xbd254abc	-0.040354475
155	0xbd41b872	-0.04729504
156	0xbd2ce337	-0.042208876
157	0xbd9313f7	-0.07181542
158	0x3e1f0006	0.15527353
159	0xbd85d457	-0.06534641
160	0x3d4e1749	0.050315175
161	0xbd20a4a3	-0.03921951
162	0x3d6c7e44	0.057737604
163	0xbd3f2bbe	-0.046672575
164	0x3da52f16	0.080656216
165	0x3d5bad40	0.05363202
166	0xbe2f6777	-0.17129312
167	0xbe9fc4af	-0.31204745
168	0xbe2d6c3a	-0.16935816
169	0x3c356f2a	0.011073867
170	0xbdace3fc	-0.08441922
171	0xbd16b356	-0.03679212
172	0xbd4e88fa	-0.0504236
173	0xbd4a4cad	-0.04938953
174	0x3daecfba	0.085357144
175	0xbc19752f	-0.009366318
176	0x3b8a5814	0.0042219255
177	0xbd7811f4	-0.060563996
178	0xbd6a5b81	-0.05721617
179	0xbd11a19c	-0.035554513
180	0x3b722a50	0.003695149
181	0x3d442284	0.04788448
182	0x3d921a37	0.07133906
183	0xbd8f3953	-0.069933556
184	0x3daf4cd6	0.08559577
185	0xbd0c2ad9	-0.03422055
186	0x3e74ce1a	0.23906747
187	0x3e9edf51	0.31029752
188	0x3da42b8e	0.0801612
189	0xbd0f6035	-0.03500386
190	0xbcdc2edf	-0.026877819
191	0x3d944fc1	0.07241774
192	0x3d09c696	0.033636652
193	0x3d9ab886	0.07554726
194	0xbc33630d	-0.0109489085
195	0x3cfe0ddd	0.03101247
196	0xbd293c09	-0.04131702
197	0xbe61312e	-0.21991417
198	0x3e1c9e9e	0.15294883
199	0x3e791180	0.24323082
200	0xbc340d6b	-0.010989527
201	0x3d47c4c5	0.04877164
202	0x3d33eb34	0.04392548
203	0xbad66cbf	-0.0016359313
204	0xbe06c6ac	-0.13161725
205	0x3d8deb8d	0.06929693
206	0x3e87855b	0.2646893
207	0x3d31dbe9	0.043422613
208	0xbd8b51f5	-0.068027414
209	0xbd0d2610	-0.034460127
210	0xbcac238c	-0.021013044
211	0x3dd594ad	0.10428748
212	0xbc3f6646	-0.011682099
213	0xbaafe1bb	-0.0013418713
214	0xbd48b14c	-0.04899721
215	0x3d895df4	0.06707373
216	0xbd0e44cc	-0.03473358
217	0xbd96de3d	-0.07366607
218	0x3e773c8d	0.24144192
219	0x3d2ca321	0.04214776
220	0x3db2b6d6	0.087262794
221	0x3d4375ae	0.04771965
222	0xbc2ba02f	-0.010475202
223	0x3d9ffbc6	0.07811694
224	0x3d63e346	0.055636667
225	0x3c89fb12	0.016843352
226	0x3c255be6	0.010092711
227	0xbd55dec4	-0.0522144
228	0xbda960e3	-0.08270433
229	0xbd44d3f1	-0.048053686
230	0x3c82503b	0.015907397
231	0x3d21e1f2	0.03952212
232	0x3da3bdd2	0.0799519
233	0x3d50381f	0.05083477
234	0xbc0fc85d	-0.008775798
235	0x3d000d1b	0.0312625
236	0xbe4cf1c2	-0.20014098
237	0xbd5d5565	-0.054036517
238	0xbd51eb44	-0.051249757
239	0x3e968de7	0.29405138
240	0xbd5e3115	-0.054246027
241	0xbd4f7c32	-0.05065555
242	0x3c8357bb	0.016033044
243	0x3d89fdae	0.06737839
244	0x3c19441a	0.009354616
245	0xbd24af12	-0.040206023
246	0xbcc9df8d	-0.02464273
247	0x3db108dc	0.08644268
248	0x3d88e805	0.06684879
249	0x3e87c41b	0.26516804
250	0x3d420bad	0.047374416
251	0xbe5934d2	-0.21211556
252	0xbdb3c9a6	-0.08778696
253	0x3d50def8	0.05099389
254	0x3d599ce4	0.05312814
255	0x3d42587b	0.047447663

bias f4 [2]
0	0xbda5268d	-0.080639936
1	0x3c4b440c	0.01240636
