model_saved/epoch_1.pth (torch, 139407 bytes, 8 tensors)

weight f4 [128, 5]
00000000: cc35 b2be c66f e5bd 4b8d 11be 836f a13e
00000010: ef65 cf3e 4c91 b23e 8d40 e3be 99be 95be
00000020: c263 e73e 302d 8e3c 60b5 2dbe c1a1 213d
00000030: c921 c73e f084 b83e 491d cdbe 9a6e 4f3e
00000040: ee83 ab3d 1074 c0be fd1c 833d 3ccb 3d3e
00000050: ee98 d43d e58a 0bbe dcbe 9fbe 6e9e af3d
00000060: 7c54 d03e 53a4 bbbe 469f 853e 7d00 dcbe
00000070: cc39 783e 520a 833e feb4 96be 10ca d1be
00000080: 62f8 af3d 3617 26be 2929 d8be 10a1 63be
00000090: 0479 86be 56ff d9bc 8ed6 b9bd 0b3e e1bd
000000a0: 55f2 253e 4eb1 c3bd 858b 1abe 56ea 3e3c
000000b0: cb16 833d 624a 72be 58e5 d53e 66b5 543c
000000c0: 21aa 60bd 6806 c03e b1f6 e93e fbe0 453e
000000d0: b188 65be 2767 88be f952 b0be 0fde be3e
000000e0: 0f76 d53e 1e7a c63e 4f62 b63d 4530 a9be
000000f0: ff58 653e 8a4b 9e3e 5a60 dc3e d79a 9b3d
00000100: 753a 79be aa32 13bc 947d cbbe ce0e d03d
00000110: 37a6 33bd b6a7 2cbe 688c b2be 91cd 24be
00000120: d08c 453d 1079 c73d c73b a53e 65be 9c3e
00000130: 1cb1 a83e 69b1 f83d 0f38 1fbe e326 35be
00000140: 591e 81be d039 c23e 25df 86be d5fc 69be
00000150: 7d2a c5be 36c9 723d bc2a 19bd 6fa6 113c
00000160: 0e4c 713d cddd 17be 15ad 38be 1088 b93e
00000170: 06d9 4e3e d7bb 15be fe02 d83e c819 64be
00000180: 11b3 ef3c bc4d cf3e 301e ca3e 6f71 cf3e
00000190: 69f3 aabd 839e 3d3e 7ea1 ddbe f7ad 2d3e
000001a0: 9d3b 453d 2802 bdbe ada9 b13e 891a 79be
000001b0: 86cf 14be a597 07be a54b cc3e fb40 debc
000001c0: 3014 33be e9dd 16be 37f3 32be 71ce 263e
000001d0: 56ee b9be eda8 50bd 7c38 d93e 76d3 453e
000001e0: 948a 42be bd51 b8bd ff9e bebd 4f26 a23e
000001f0: 2774 943d 4be8 7bbe 4079 ca3e dba6 d03e
00000200: 8f8a a9bd 328d 253d 73c2 9fbe 72ac 383e
00000210: 6497 c43e dbb9 c83e a719 8d3e c7c9 29be
00000220: 886b e43e a4af 98be efb7 d83e 2594 5fbe
00000230: f1d7 f13d e740 95be f550 4dbd a190 ddbd
00000240: d9dd acbe 7260 6bbd 2417 4d3c bfc3 1c3e
00000250: f00a 90be 76ce aabe d583 c63e 6dfb c63e
00000260: 5e7b c7be 3839 d4be 94d0 e9bd fd55 0e3d
00000270: 990b 9fbe f43d 3f3e ca8f c9be 478d c83e
00000280: 008b 12be 065f adbe 738b 9abe 87a4 11be
00000290: 45b2 1c3e 888d c9be 831c bdbe 191a 7fbe
000002a0: 9a40 943e d019 d8bd 6d0e 533b ff1b a53e
000002b0: 189d 5c3d 797b 373e 5f46 023e d502 e1bd
000002c0: ccbb e43e a046 dabe 220f 81bd b3e8 983e
000002d0: af98 3fbe 9392 c0bc 77f1 273e e4ab 5b3e
000002e0: 73ec f9bb 01c9 5fbe e207 093e 641a cabe
000002f0: 576a a7be b2d3 3fbe 5184 12be 9d18 c73a
00000300: 5377 c43e b4c1 8b3d 6ffa 2d3e 2d53 403e
00000310: fd94 c13d 183d 34bd 0f2b e43d 869c 0d3d
00000320: 6e5c cebe 7ab8 ed3e 5b19 493e bfde b4be
00000330: 7c6f 45bd b6ee 66be e19d 8c3c a01b 9dbe
00000340: 971f 92bd 59e0 70be 18dc d5be ad08 6cbe
00000350: 8eb9 c4be e0a7 b23e 2faa 7e3e ae3b c63e
00000360: 48df d5bd 6ba3 d33e a7ab de3e a687 443e
00000370: 957e 9cbe 28df 5f3e 25dc 493e 59a3 183e
00000380: 3149 31be e290 98bd c7b8 8f3e ffb3 d2bc
00000390: 7955 acbe 2d66 af3e 4e35 b3be 8746 c03e
000003a0: 8b73 b13e 429b 623e 8c74 11bd 5d57 c2be
000003b0: fabe 2f3e 9032 993e e9d0 b6be ceee af3d
000003c0: cac1 3e3e 46f7 b53e 955f 8b3e 5852 f4bd
000003d0: 4ed5 4b3c b305 96be 4c66 b43d 4ea0 e13e
000003e0: 4859 c7be 6d7d 303d 07b2 9ebd 191e 44bd
000003f0: 17cf 873e 72d3 dfbe 534e c9bd 2c01 7fbd
-0.3480667 -0.1120296 -0.14214055 0.3153039 0.40507457 0.34876478 -0.44385186 -0.29246977
0.45193297 0.017355531 -0.1696372 0.0394609 0.38892964 0.36038923 -0.40061405 0.20257035
0.08374773 -0.3758855 0.064020135 0.18534559 0.103807315 -0.13627203 -0.31200302 0.0857514
0.40689456 -0.36648807 0.26098078 -0.42969123 0.24240798 0.2559381 -0.2943496 -0.40974474
0.08592297 -0.16219792 -0.42218903 -0.22229409 -0.26264203 -0.026611011 -0.09074126 -0.10998162
0.16205724 -0.095553026 -0.15092285 0.01165255 0.06400832 -0.23661187 0.41776538 0.012982702
-0.054849748 0.37504888 0.45696023 0.19324104 -0.22415425 -0.266412 -0.34438303 0.37278792
0.41691634 0.38765043 0.089054696 -0.3304464 0.2239723 0.30917007 0.4304226 0.07597893
-0.24338706 -0.008984247 -0.39744246 0.10159074 -0.043859687 -0.16860852 -0.34872746 -0.16094042
0.048229992 0.09739888 0.3227217 0.3061401 0.32947624 0.12143213 -0.15548728 -0.17690615
-0.25218466 0.37934732 -0.2634212 -0.22850354 -0.38508978 0.05927392 -0.03739427 0.0088897785
0.058910422 -0.14830704 -0.18034776 0.3623662 0.20199975 -0.14622436 0.42189783 -0.2227546
0.02926019 0.40488994 0.39476156 0.4051623 -0.08347208 0.18517499 -0.4328727 0.16960894
0.048152555 -0.36915708 0.34699765 -0.24326529 -0.14532289 -0.13241442 0.39901462 -0.027130594
-0.1748817 -0.1473309 -0.17475592 0.16289689 -0.36314648 -0.05094235 0.42425907 0.19318947
-0.18998176 -0.08999965 -0.0930767 0.31669852 0.07248717 -0.24600331 0.3954563 0.407523
-0.08278381 0.040417857 -0.3120304 0.18034533 0.38396752 0.39204296 0.27558634 -0.16580878
0.4461329 -0.29821503 0.4232783 -0.21833856 0.11808766 -0.2915108 -0.050126035 -0.108186014
-0.33763006 -0.057465024 0.012517724 0.15309046 -0.28133345 -0.33360642 0.38772455 0.38863698
-0.3896131 -0.41449904 -0.11416736 0.034749974 -0.31063536 0.18675977 -0.39367515 0.39170286
-0.14310837 -0.3386156 -0.30184516 -0.14222918 0.1530238 -0.39365792 -0.36935815 -0.24912299
0.28955537 -0.10551798 0.0032204643 0.32247922 0.053860754 0.17918195 0.12722157 -0.10986868
0.44674528 -0.42632008 -0.063017145 0.29865035 -0.18710588 -0.023507392 0.16400705 0.2145229
-0.007627064 -0.2185402 0.13381913 -0.3947326 -0.32698318 -0.18733099 -0.14308287 0.001518983
0.38372287 0.06824055 0.16990064 0.18781729 0.094522454 -0.044003576 0.11141025 0.0345731
-0.40304893 0.46429807 0.19638579 -0.35326192 -0.048202023 -0.22551998 0.017165126 -0.3068514
-0.071349315 -0.23523082 -0.4176948 -0.23050185 -0.38422817 0.34893703 0.24869607 0.38717407
-0.10442978 0.41335616 0.43490335 0.19192371 -0.30565324 0.21862471 0.19712885 0.14906062
-0.17313077 -0.07449509 0.2807066 -0.025720594 -0.3365896 0.3425764 -0.35001606 0.37553808
0.34658465 0.22129539 -0.03551154 -0.37957278 0.17162696 0.2992139 -0.3570626 0.0859047
0.18628612 0.35540217 0.2722136 -0.11929768 0.0124409925 -0.29301223 0.08808574 0.44067615
-0.38935304 0.043088365 -0.077488 -0.047880266 0.26525185 -0.43716007 -0.09829392 -0.062256977

bias f4 [128]
00000000: 78f6 963e 740b f4bc 7d0f a7be 50e0 d83e
00000010: 8230 3ebd f76d 08bd d695 603d 4bb8 bebd
00000020: 6b98 9bbe 201d 4c3e c25a 903e dfa5 c93e
00000030: 6b9a 83bd 2cfe dfbc 086e d23d 253f aabe
00000040: 9e77 b73c ebf0 773e 533c bd3d dc36 4cbe
00000050: 21cc 363e 5a9d 943e aeab c53e 5892 0ebe
00000060: 0c3a 5ebe 0d06 acbe db8d aebd 270c c13d
00000070: a309 a53d fbd6 e2be afaf 94be 5ec8 54be
00000080: e321 a0be ee68 a7bd dce6 47bd b49c 19be
00000090: f91d e8bd e3f8 383e 49b9 9cbe d30d ec3e
000000a0: 21d7 bf3e 282a d43e f90a 7cbe e8cf bcbe
000000b0: 4bd1 cb3e 28e9 973e 8985 a9bd 9408 293e
000000c0: ef39 913e 9963 ef3d 9660 d3be 3bfc 803e
000000d0: 32ab 43be a1f3 34be f619 88bb 05f0 a6be
000000e0: 3f4f b53e 6e46 f23d 736e 94bd 1e50 433e
000000f0: 28ce 18be 2ac4 7dbe 378d dcbe f86f 80be
00000100: 973a 8abe 5a1b 3dbd c071 913e 4af2 3f3e
00000110: f35e 3cbe 633a e43d d690 dd3e 97fb 2ebd
00000120: 5a8c b93e 9137 cf3e 6941 c93d 9a1e 833e
00000130: fb32 4ebe 5fb2 5ebe d88a f83c f6a7 4a3e
00000140: 3fe2 ebbd a4c6 ed3e 9e0a 2b3e f37e abbb
00000150: 1883 6abe 8360 c0be 7046 913e 1ab9 f0be
00000160: 3257 6fbe 3ee1 8e3e fb93 31be f908 953e
00000170: c398 c23e b3f8 a2bd 494d 953d 8d9c 40be
00000180: 396c 1ebe 6e26 be3e c6c2 a13e fc90 5f3e
00000190: d72a c3be e446 e43e a1ee a53e 3a3f a83e
000001a0: 6431 c33d bbb3 1dbe d20e aabd d6a4 ecbd
000001b0: 31bc a4be f1a4 5b3e 1cd1 5d3e f855 2db9
000001c0: 76c3 693e 8d5b fa3d 6c58 c1be cc2d da3e
000001d0: f4db 70be 1a52 f53d 216a b8be 9fd4 b3be
000001e0: 62b1 c23e 7bd7 34be e763 8a3e 6e2c 8dbd
000001f0: 476f 0e3e 58fd db3e e2f6 863e 7b8c 6e3e
0.29484916 -0.029790618 -0.32629004 0.42358637 -0.04643298 -0.033307996 0.054830395 -0.09312495
-0.30389723 0.19932985 0.28194243 0.39384362 -0.06425937 -0.027342878 0.10274893 -0.332513
0.022395905 0.24212997 0.092400216 -0.19942802 0.17851306 0.290263 0.38607544 -0.13923013
-0.2170183 -0.33598366 -0.085231505 0.09426146 0.08058479 -0.44304642 -0.29040286 -0.20779559
-0.31275854 -0.081743106 -0.04880415 -0.15001184 -0.11333842 0.18063693 -0.3061011 0.46104297
0.37468818 0.41438413 -0.2461356 -0.3687737 0.39808115 0.29670072 -0.08277423 0.16507179
0.28364512 0.116889186 -0.41284627 0.25192437 -0.19108275 -0.17671062 -0.0041534854 -0.32604995
0.35412022 0.1182984 -0.07247629 0.19073531 -0.14922392 -0.24781862 -0.43076488 -0.25085425
-0.26997826 -0.046168663 0.28407097 0.1874477 -0.18395595 0.11143949 0.43274564 -0.042720404
0.36239892 0.4047208 0.09826929 0.25609285 -0.20136635 -0.2174773 0.030339643 0.19790635
-0.115177624 0.46440613 0.16703269 -0.0052336394 -0.22901571 -0.37573633 0.28374052 -0.4701622
-0.23373106 0.2790622 -0.17341606 0.29108408 0.38007173 -0.07957592 0.072901316 -0.1880972
-0.15470971 0.37138695 0.31593913 0.21832651 -0.38118622 0.44585335 0.32408622 0.32860738
0.09530905 -0.15400593 -0.08303608 -0.115548775 -0.3217483 0.21449639 0.216618 -0.00016530592
0.22828469 0.12224493 -0.37762773 0.42613065 -0.23521405 0.1197855 -0.3601847 -0.35123155
0.38025957 -0.17660324 0.27029344 -0.0689324 0.13909636 0.42966723 0.26360232 0.23295777

weight f4 [128, 128]
00000000: 43e6 0dbd 909a acbd 6cf3 a03c 2cf5 08bd
00000010: affb 20bd 85dc 583d 29c1 443b 3f8d 863d
00000020: e122 1ebd dc0f 363d 87d1 633d 5d52 25bd
00000030: 575c 773d 1ea8 823c c550 733c 7849 9abd
00000040: 8843 ef3b 54e8 f4ba 4dc3 233c 8733 893d
00000050: ad85 63bd d720 c1bc a95c 863d 1172 743c
00000060: 601d 95bd 2795 14bd fabd 443d 2856 88bd
00000070: 44e3 773d 50ca 91bc 676f 6e3c f1d1 1a3d
00000080: b31d 613d 56fe 6abd 3453 443b b287 91bd
00000090: e2e8 8f3d af44 623d 75a3 8abd b200 9dbd
000000a0: 0cd6 aa3d a621 9fbd ba23 95bd 04f7 2a3d
000000b0: 66ed 8abd ad27 ccbb 002e 9d3d c083 853c
000000c0: d1dd 943d c9f7 dd3c fee4 803d 8d63 6fbd
000000d0: 2918 3ebd 638d 593d 00f7 83bb 7de9 8c3d
000000e0: 668b a1bd 3ec3 3f3c 5476 d33c 2a7c f03c
000000f0: 9ba1 b1bd b6b0 13bd 760a 443d 69fc 90bd
00000100: 2814 84bd bc10 ae3d a85f ab3d 17ee 773d
00000110: 07f0 84bd a412 933d eec5 533d 728a 18bd
00000120: 2277 2fbb 797f 25bd 4141 a0bc c158 11bc
00000130: 6e93 2f3d 754c 72bd 3472 e6bc 6fd1 853d
00000140: 60f6 36bd 403b fbbc 7b5b df39 cc83 8c3d
00000150: c56c 4d3c 35f8 843b 7847 623c 53d0 8c3d
00000160: c1c0 523d 4ffd d93b f594 803d 1579 81bd
00000170: d976 b4bd 77d8 4cbd 2071 853b ec9e 26bd
00000180: 5d3e cd3b fc8d 1ebd c6cf c7bc 7d04 cebc
00000190: 654b 8d3d 1a2a 71bd 487a 143d 0257 61bb
000001a0: 4c9d 5d3d e5ae 943c d3ad 55bd d874 8cbd
000001b0: ce42 773d f8fa 24bd 1ca0 b4bd eb28 94bc
000001c0: 1abd 23bd d8ee 12bd 02f9 983c 5bab 963d
000001d0: 40c6 38bd 6b64 403d 8ef6 5c3c edcc 203c
000001e0: c2e7 fcba 4048 8cbd 982f 2d3c 4b6c 01bd
000001f0: 3cc7 eabc ef7b 083d 08e1 8ebd fdcc 9dbd
00000200: 439a 853d 6475 ac3d c2e4 0c3c 5ec2 99bd
00000210: 5b3d e4bc 239c 973d efbb 7bbd eca9 8f3d
00000220: a275 353b b508 57bd be9c 3fbc 365b 953d
00000230: f135 63bb a162 443c a8cd 9dbd 75b8 bdbb
00000240: accd b2bd 3daa cd3d b5dd f9bb cd5b a13d
00000250: 6b63 5a3d 74e7 ebbc ac0c 8ebd 846e b03d
00000260: e963 b53a 3390 fdba ef01 923d 59e4 84bd
00000270: 43ce 253d 3102 7cbb 01db 243d 88f2 8cbb
00000280: 89c1 373d a6d0 223d df60 58bd adc1 a2bd
00000290: 8144 873d 68a5 d2bb e39d ab3d 7672 843d
000002a0: 2131 3c3d 254d aebc ba2f b5bd 0f74 88bd
000002b0: 46fe 94bd 4ce1 99bd 7e6d 1cbd 858f 8a3d
000002c0: e573 40bd e789 dbbd d6cc 25bd 008f 213d
000002d0: 9ffa 1cbd a4fd 7c3d aa1e 2039 f6a0 ad3d
000002e0: d5a0 95bd a5bf cf3c 9f5f 9b3d 0e8d d9bc
000002f0: e83a 4e3d d439 babd 45b5 cb3d b7f3 a33d
00000300: 5197 573b 5294 053d a54d 62bd 840e 0ebd
00000310: f68c 963d 3023 0a3d 62bf 80bd 44e3 77bd
00000320: a439 473d 0dae cbbc fbb1 133d 3dd0 933d
00000330: 8187 da3c b2af a43c 333d 833d 86dd 3fbd
00000340: 8c47 25bc 866e b6bc 5e72 8cbd bfbe 503d
00000350: f0ff 9dbb 0ceb 733c 29bc fc3c 6111 9d3d
00000360: d191 d73d 6561 633d fcbb 323b 9ebc 86bc
00000370: fc20 873d d209 783d acd4 993d 6761 813c
00000380: 5eed 823c 8d64 32bb 8c9a 603d 1bf6 a0bd
00000390: b7cc afbd 1e76 913d 2d92 003d a7e8 553d
000003a0: 2caf aabc 7e18 ff3a 1b8c 0a3d 3be0 c23c
000003b0: 58d0 4cbd 0251 38bb a649 98bd b2ea c8bd
000003c0: 7f75 dabc 31e0 6d3d d049 873d 9960 3fbd
000003d0: b05f f63c 3d16 a43c 50ed 0d3d a1ef 2fbd
000003e0: 07bd b4bb aac3 d0bc 53ab 66bc 731c cc3b
000003f0: a529 31bd 54bb 683c 8ea5 b73d 2483 3abd
-0.034643423 -0.08427918 0.019647323 -0.03343694 -0.039302524 0.05294468 0.003002236 0.06569909
-0.038607482 0.04444872 0.055619743 -0.04036175 0.060390797 0.015949305 0.0148508 -0.07533544
0.0073017515 -0.0018684962 0.009995294 0.06699281 -0.055547405 -0.02357523 0.06560642 0.014919774
-0.072809935 -0.036275055 0.04803274 -0.06657058 0.06051947 -0.017796665 0.014552928 0.037797872
0.054959964 -0.05737146 0.002995682 -0.0710596 0.07026841 0.055241283 -0.06769458 -0.07666148
0.083416075 -0.0777009 -0.07282205 0.04173948 -0.067835614 -0.0062303157 0.076747894 0.016298175
0.072688706 0.027095692 0.06293677 -0.05844455 -0.04640976 0.053113353 -0.0040272474 0.06880472
-0.07887916 0.011704264 0.02581326 0.029356081 -0.08673402 -0.036057197 0.04786154 -0.070793934
-0.06449157 0.084992856 0.08367854 0.060529795 -0.06491094 0.0718129 0.051702432 -0.037241407
-0.002677389 -0.04040477 -0.019562365 -0.008871258 0.04286521 -0.059154946 -0.028130628 0.06534087
-0.044668555 -0.030667901 0.00042602033 0.06861076 0.01253814 0.004057909 0.013810985 0.06875672
0.051453356 0.006652511 0.06278411 -0.06321923 -0.08811731 -0.050011124 0.0040723234 -0.040678903
0.006263538 -0.038709626 -0.024391066 -0.025148625 0.06899146 -0.05887804 0.03624943 -0.0034384136
0.054105088 0.018149802 -0.052167725 -0.06858224 0.060366444 -0.040278405 -0.08819601 -0.018085917
-0.039975263 -0.03587231 0.018673424 0.07356902 -0.04511094 0.046970766 0.013486518 0.009814483
-0.0019295143 -0.06849718 0.010570429 -0.031597417 -0.028659455 0.033321317 -0.06976515 -0.07705114
0.06523564 0.08420828 0.008599462 -0.07507776 -0.027861288 0.074028276 -0.061458524 0.07014832
0.0027688523 -0.052498538 -0.011695085 0.07292788 -0.0034669603 0.011986406 -0.077052414 -0.0057898113
-0.08730635 0.10042236 -0.0076253065 0.07878838 0.05331747 -0.028796889 -0.06936011 0.08614829
0.001383898 -0.0019345343 0.07129275 -0.06488866 0.04047991 -0.0038453455 0.04024792 -0.004301373
0.044862304 0.039749764 -0.05282676 -0.07947097 0.06604863 -0.0064284094 0.08379724 0.06467144
0.04594529 -0.02127702 -0.08846994 -0.066627614 -0.07275061 -0.07513675 -0.038190357 0.067656554
-0.046985526 -0.10719662 -0.04047855 0.039443016 -0.03832495 0.061765328 0.00015270212 0.084779665
-0.07306067 0.025359938 0.07586598 -0.026556518 0.050349146 -0.09093061 0.09946684 0.08005469
0.0032896588 0.032612152 -0.05524983 -0.034681812 0.07351105 0.033724964 -0.062865034 -0.06051947
0.048638955 -0.024863267 0.036058407 0.07217453 0.026675941 0.02010331 0.06408157 -0.04684212
-0.010087859 -0.022269499 -0.06857751 0.05096316 -0.00482177 0.0148875825 0.03085144 0.076693304
0.10525859 0.055512805 0.0027272692 -0.016447362 0.06598088 0.06055624 0.07511267 0.015793515
0.015982326 -0.0027220577 0.054834887 -0.07859441 -0.08583968 0.07102607 0.031389404 0.052223828
-0.020835482 0.0019462255 0.03382502 0.023788562 -0.05000338 -0.0028124456 -0.07435922 -0.098103896
-0.026667355 0.058075134 0.066058755 -0.046722982 0.030074924 0.020030135 0.034650147 -0.042953137
-0.005515698 -0.025483925 -0.014078933 0.0062289773 -0.043252606 0.014204819 0.08967124 -0.04553522

bias f4 [128]
00000000: 3400 6bbd 5db9 29bd 0379 c1bd 6f0e 4bbd
00000010: 1580 233d f27b 24bd e442 cc3d 7970 833c
00000020: 40e6 c33b e1bd c6bc 54e1 a33d 111f a5bd
00000030: 182e a43d 0fbb bc3d 4a92 a0bd efd9 91bd
00000040: f040 043d 3236 b63d e112 bebd 8c8d 5cbc
00000050: 4630 103c 49d4 4f3d 47c8 c8bc 1557 28bd
00000060: 3332 7fbd c533 b6bb 2415 553d b486 893d
00000070: d196 1dbd b349 80bc 92e6 45bd 9d50 28bc
00000080: b390 6d3c a2e3 df3d 61e3 e6bd 0bee 6c3c
00000090: c32f 403c 5722 af3c 016d 583c 4dcd a5bd
000000a0: c3d8 a53c 2301 573d d804 423d c320 8a3d
000000b0: 5b9d 88bd 638f c2bd 8aa7 afbd ec6f 983c
000000c0: f3ba 293d 2dc0 bfbd 5539 933d da67 3fbd
000000d0: 4f48 3c3d 3660 f4bc 9c70 fbbc b3a5 79bd
000000e0: 9d40 05bd 6e4a 883c 04f7 2ebc 5111 7a3c
000000f0: c5a7 643d 3915 a43d bebf 9e3d 33e3 3c3d
00000100: 5f54 4dbd 1ed8 173d e1e9 543d 5e6e edbb
00000110: e202 b9bd 6b2a 7d3c 9df6 463d 5e4a 333d
00000120: 1b85 16bd 3cbd cd3a 7c0d 9fbd 123a 113d
00000130: 2509 e43b 8c5e 1f3d d2f2 343b 04d5 14bd
00000140: 6b61 0cbd 5469 84bd a98c 5ebd 3011 e3bc
00000150: 7c16 763d 24a4 6cbc fcc1 a2bb 9984 033d
00000160: 061a 25bd ce61 ed3d c810 51bd 3ac9 12bb
00000170: 82c6 c23d 2aee 05bb 0172 613d 1c9b 1ebd
00000180: b5d4 15bd 93da 073d c1df 2b3d edf4 62bd
00000190: 0934 7a3d 098b 1c3d 6c9a 3dbd 0db2 ac3d
000001a0: 0a56 2c3d b2ad 943d 72d1 123d 8a2e ae3d
000001b0: 4d08 5dbd a207 98bd 5f3b 30bd 36d0 80bd
000001c0: 5231 103d cb5d 16bd 9dab 333d f44b a4bd
000001d0: 68d3 babc e82d 703d bd65 d33c 8842 ab3d
000001e0: b9a7 16ba 9dbd 453d 5f07 463d e6ef 913d
000001f0: 01bd 5dbb 4138 093d f2ee 37ba 96cf f1bc
-0.05737324 -0.04143654 -0.09446909 -0.04957431 0.03991707 -0.040157266 0.09973696 0.016044842
0.0059783757 -0.024260463 0.08001962 -0.08062566 0.08016604 0.09215366 -0.078404024 -0.07121646
0.03228849 0.08897056 -0.092809446 -0.013461482 0.008800572 0.05073956 -0.024509562 -0.041098673
-0.062303733 -0.0055603706 0.052022114 0.06715146 -0.038473908 -0.015660143 -0.048315592 -0.010273126
0.014499831 0.109320894 -0.11273838 0.014461051 0.011730137 0.02137868 0.013209582 -0.08095799
0.020244962 0.05249132 0.0473679 0.0674453 -0.06670638 -0.09500005 -0.085768774 0.018608056
0.041438054 -0.093628265 0.071886696 -0.0467299 0.045967396 -0.029831033 -0.030693345 -0.06094904
-0.032532323 0.016637053 -0.01067901 0.015262918 0.05582406 0.080118604 0.07751416 0.04611511
-0.05012929 0.03707134 0.051980857 -0.007245823 -0.09033753 0.015452008 0.048575033 0.043772094
-0.036748033 0.0015696655 -0.07766244 0.03545577 0.006959098 0.038908526 0.0027610552 -0.03633596
-0.034272593 -0.06465402 -0.054333363 -0.027718157 0.060080037 -0.014443431 -0.0049669724 0.032108877
-0.04030802 0.115909204 -0.051041394 -0.0022397772 0.095105186 -0.0020436146 0.055040363 -0.038722143
-0.036579806 0.033167433 0.041961435 -0.05540936 0.06108478 0.03821853 -0.046289846 0.08432398
0.04207424 0.07259692 0.035844274 0.0850497 -0.053962994 -0.07423331 -0.04302537 -0.06289713
0.035203286 -0.03671054 0.043864835 -0.080222994 -0.022805884 0.05863753 0.025805349 0.08362299
-0.00057470385 0.048276532 0.048346873 0.07125835 -0.003383458 0.033500914 -0.00070165016 -0.02951793

weight f4 [128, 128]
00000000: 1343 44bd 4ae0 893c f260 fdbc 9791 eb3b
00000010: 4d70 0fbd b096 b6bd de31 0fbd 1f2e 583d
00000020: 4bfd 7d3a 8639 623d 2775 283c 1939 fc3b
00000030: dc7c a93d 04f0 9b3d f13d 65bd f978 aa3d
00000040: e194 cd3c f948 41bd 5a6d 2dbd ca4d 0e3d
00000050: 1493 a33d c827 373d 249b 453d edcf 143d
00000060: 7408 4c3d 379a 46bb f9ea 6dbd 4741 863d
00000070: 622e 3ebc 702a d93c c04c 643c 365f a1bb
00000080: 7e24 62bd 581c f3bb e851 283d c783 0dbc
00000090: 236b 4e3c a84b aeba 5d94 15bd 02d1 a5bd
000000a0: ee0b a93d 8f26 b43d b0fe 003c 4b1e a73d
000000b0: 8384 0e3d f7f7 59bd 50a7 81bd 1e00 56bd
000000c0: 3190 62bd 113a 153d 4e31 84bd bac0 813d
000000d0: 52fc 7fbc bb11 a0bc b890 69bc 7136 05bd
000000e0: a1f8 d2bd b41b bebb 6975 bc3c d8ab a33d
000000f0: a2c2 2abd 9097 a93d 88b5 523d 7949 40bd
00000100: 92ac 2bbd 9d88 993d 814a bebc fc97 43bc
00000110: 53d6 2b3b c726 953d 73a1 85bd 1b85 243d
00000120: 4dff 763c 66be 6fbc c374 e53c ec9c a63b
00000130: dcf5 cabd c37b bb3c 531d 97bd c48d 8bbd
00000140: 14ef 87ba 8759 a9bc 6d5e c33b ab9d 6f3b
00000150: 1d14 c7bd cdf9 903d f92a 38bd 9a25 33bd
00000160: 09fb 12bd bb11 5fbd 856e 6d3d 99b4 79bd
00000170: 453f 7dbd efc1 d6bc 2091 9fbd c6e9 933b
00000180: dfeb d7bd 4baf d5bd 5f0c 6fbd 4485 083b
00000190: 583e 44bd 438c b1bc d3cd 09bd e098 a43c
000001a0: ba90 3a3d 6285 d9bd 8792 c83d 2b27 aa3d
000001b0: 8914 a9ba 05b3 a0bd 2f77 9a3c 94bf d93a
000001c0: 9801 933d 8e2b 6bbd 9365 a8bc 1ab4 bfbd
000001d0: 6980 a6bd c5a4 6b3d 4526 ee3c 52c2 4cbd
000001e0: de40 7ebc e535 19bd a1f4 7a3d 77cc 273d
000001f0: 9a64 b43d 52a3 84bc 7389 4539 51ab 98bd
00000200: e7c0 79bd f8ff 173d 7945 bf3d 91f6 443d
00000210: eb26 333c de8e 933d b0fa 95bc 2603 ccbb
00000220: 3e33 26bd 8362 673b d1c3 8fbb ee5e 043c
00000230: 28b2 d83c 907f c4bd de3e 1f3d 47bd 8c3d
00000240: fd8d 883b a8f1 f23a 402a 53bc 812c a6bd
00000250: 2402 6b3d c919 ae3d f634 26bd 1a73 1bbc
00000260: 87ba 39bd 5db7 9bbd 1682 06bd 14f4 6ebd
00000270: 5ea0 833d e509 c13c 9bbe 0c3d 2428 043d
00000280: 4dce 86bd 8989 5d3d b0ee 36bd 2d22 b83d
00000290: 57d3 c23d a7fa 5abb b827 d23d f1ee 9c3d
000002a0: 8bdb 51bd d1bd 133d af67 3b3c 06a7 58bb
000002b0: 8daa 8f3c 7244 4ebd 25c2 08bd 83c7 2fbc
000002c0: 604f 86bc f9ce 523b 3114 913d 287c 71bd
000002d0: 1652 383d 2b07 b7bd 5fb5 8c3d 5749 75bc
000002e0: 222b c23c 2712 2f3c 804b 71bd 5f8a 5fbd
000002f0: d079 95bd 513b 833d 01db 8bbd c337 2fbc
00000300: 6550 17bd d97d acbc e9bc 5a3d edcf e83d
00000310: 6832 b53d 7c75 b9bd 9985 4c3d 3cc0 82bd
00000320: e130 7a3d a736 00bd 378d 9c3d 943a 313c
00000330: cd64 cb3d e69d 8e3c 483e 853d 48ff 35bd
00000340: 0075 f13c 31f4 483c 6e71 b43b afd3 713d
00000350: c568 923d 4c2e 1d3c eee8 9a3d 99d3 3bbd
00000360: e289 5abd 662a ca3d fd47 d83b 5f71 92bd
00000370: 8776 65bd 8e16 81bd 59a2 76bd 8929 b3bd
00000380: 4c34 723c 41ef 833d aaa1 b83c 701f 333d
00000390: 18b8 92bd 161d e2bc cab7 85bd 98ab df3c
000003a0: 7460 71bb e1e9 7d3c a1c1 fc3c 9f3a e4bc
000003b0: eca2 e0bd 46f6 b9bc 47d0 77bc d3ba aabd
000003c0: 4cea 32bc 2665 05bd 2d87 0b3d bb57 d7bc
000003d0: f272 34bd 672e 20bd 9e66 793d b044 4c3d
000003e0: df86 fe3c 5698 f93a abcf ac3d 64ef 173d
000003f0: ffd4 e33c 6731 cabc 0bea 93bd 0145 643d
-0.04791553 0.016830582 -0.030930016 0.0071889865 -0.035019208 -0.0891546 -0.034959666 0.05277836
0.00096889277 0.05523064 0.010281838 0.0076972363 0.08275768 0.07614139 -0.055967275 0.08323855
0.025095405 -0.047188733 -0.042340614 0.034742154 0.07987037 0.044715673 0.048243657 0.036331106
0.04981275 -0.0030304322 -0.058085416 0.065554194 -0.011607738 0.026509494 0.013934314 -0.00492468
-0.055210583 -0.0074191503 0.041093737 -0.008637375 0.012598786 -0.0013297694 -0.036518443 -0.08096506
0.082542285 0.08796417 0.007873222 0.08160075 0.03479434 -0.053214993 -0.063307405 -0.052246206
-0.055313293 0.03643233 -0.064547166 0.06335588 -0.015624123 -0.019539705 -0.014255695 -0.032522622
-0.103013285 -0.0058016423 0.023005204 0.07991761 -0.041689523 0.082808614 0.051442653 -0.04694507
-0.041912623 0.0749676 -0.023228886 -0.011938091 0.0026220276 0.07282787 -0.065249346 0.040166
0.015075517 -0.014632797 0.028009778 0.0050846245 -0.09910175 0.022886163 -0.0737864 -0.06814149
-0.0010370933 -0.020672573 0.005962184 0.0036562483 -0.09720633 0.07078896 -0.044962857 -0.04373703
-0.035883937 -0.05446027 0.057966728 -0.060963247 -0.061827917 -0.026215522 -0.07791352 0.004513952
-0.10543036 -0.10433825 -0.058361407 0.0020831386 -0.047911018 -0.021673327 -0.033643555 0.020092428
0.04554818 -0.10621144 0.09793573 0.08308252 -0.0012899797 -0.07846645 0.01885566 0.0016612881
0.07178038 -0.057414584 -0.020556247 -0.093605235 -0.08129961 0.057530183 0.029070983 -0.049990006
-0.015518395 -0.037404913 0.061268453 0.040966477 0.08808251 -0.016191158 0.00018838588 -0.07454551
-0.06097498 0.037109345 0.09339423 0.048086707 0.010934572 0.07204984 -0.018308014 -0.0062259613
-0.040576212 0.003530652 -0.004387357 0.008079274 0.026452139 -0.09594643 0.038878314 0.06872039
0.004167317 0.0018535154 -0.012888491 -0.08113957 0.05737509 0.08501012 -0.04057785 -0.009487892
-0.045343902 -0.07603333 -0.032838903 -0.05833824 0.06427072 0.023564288 0.034361463 0.032264844
-0.065823175 0.054086242 -0.044661224 0.089908935 0.09512966 -0.003341356 0.10261482 0.07662762
-0.051234763 0.036069695 0.011438294 -0.0033058538 0.01753738 -0.050358243 -0.033388276 -0.01072872
-0.01639527 0.0032166822 0.07083929 -0.058956295 0.04500016 -0.08936914 0.06870531 -0.014971099
0.023702208 0.01068548 -0.058909893 -0.05457532 -0.072986245 0.06407798 -0.06828881 -0.010694447
-0.036941905 -0.021056103 0.053402815 0.11367784 0.08847505 -0.090556115 0.049932096 -0.06384322
0.06108177 -0.03130212 0.07644122 0.010817189 0.099313356 0.017409276 0.0650602 -0.04443291
0.029474735 0.012265251 0.005506686 0.059039768 0.071488895 0.009593558 0.07563959 -0.045856092
-0.05335415 0.09871368 0.0066003785 -0.0715053 -0.05602124 -0.0630313 -0.06021342 -0.087481566
0.014782976 0.064421184 0.022538025 0.043731153 -0.07164019 -0.02760176 -0.065291956 0.027303502
-0.0036831172 0.015497656 0.030854048 -0.027859984 -0.10968575 -0.02270044 -0.015125341 -0.08336415
-0.010920119 -0.032567166 0.03406446 -0.02628695 -0.044054933 -0.039106753 0.06088888 0.049870193
0.03107017 0.0019042592 0.08438047 0.037093535 0.027811525 -0.02468176 -0.072223745 0.05572987

bias f4 [128]
00000000: 3327 653c 889b 40bd f301 d2bc 112e 12bd
00000010: 5950 5ebd 47c6 8bbd f86a 1bbd 823e 803d
00000020: ab81 7bbc ab2f 0f3d 85e8 ccbc 7fe9 993d
00000030: 137b 3abc 47be 76bd 1b0a 67bd c07c 9b3d
00000040: 0d37 7cbd cd51 45bd 127c 9abd 692f 40bd
00000050: cbbd a6bb 36fc bebd 0451 d03d 370b c1bd
00000060: 6a53 6c3d 5c1e 7c3d 6a39 96bd 6903 20bd
00000070: 77b4 4d3d 6bf7 a8bd 39cd 433d 0815 5dbd
00000080: 7b29 22bc a9be 423c 337b 53bd 2ad2 763d
00000090: 76ee d2bd a7fb 693d 91d4 49bd a42a b5bd
000000a0: e4f6 a9bd d95b f0bc 319e 3dbd 69b9 a4bd
000000b0: f391 393c a36e b53b 98c4 f63c d574 36bd
000000c0: 22ac 5b3d 5b85 053d e096 10bd 1908 923d
000000d0: 5c41 28bc fbc0 aabd 98c2 89bd 006b a5bd
000000e0: 389e d23c 3b3e 80bd 034b 8f3d dda1 9bbd
000000f0: d5a8 4c3d 623c 18bb 0537 0a3d 6e19 3d3d
00000100: 3f54 ac3d 0903 403d b4c8 5fbd dce5 08bd
00000110: 571e 97bd e6b8 20bd 4fc3 c33d 0c6d d83d
00000120: 225c f43c 73ec 493b cb34 853d cd17 44bd
00000130: 8ece 9cbd 89ed 86bd 8919 02bd a03e d73d
00000140: dfa4 83bd b24d 04bc f737 813d 9e3b babd
00000150: f78b db3d e4e2 05bd 763b af3a 5bd1 abbd
00000160: 30ba bf3c 7628 3abc 862e 423d c2ee 6fbd
00000170: c13e 77bd 3131 58bc cd4a 3cbd 498e febc
00000180: 0d73 27bd 84dc 7abd 6a17 f73c 6823 ac3d
00000190: b3cf 00bc 8a61 613d 148c 513d 6492 d9bc
000001a0: 3da0 903d b8f8 bebc 26eb b1bd 9312 853d
000001b0: f173 23bd afe9 cebc 72c7 12bd 548d 1abd
000001c0: 1257 eb3c 5c7a 4a3d 654b a53d 6e4e 7dbc
000001d0: 9120 753d dbbf c7bc 70aa e43c 1530 b23d
000001e0: 0718 523c 4144 ad3d 937b 7fbd c225 8c3d
000001f0: 821f 3dbd dac9 85bb 953f ec3b df87 343d
0.013986397 -0.047023326 -0.025635695 -0.035688464 -0.054275844 -0.06824928 -0.03794381 0.062619224
-0.0153507395 0.03495757 -0.025013218 0.07515239 -0.011381882 -0.060240056 -0.05640612 0.075921535
-0.061575938 -0.048173714 -0.07543196 -0.046920214 -0.005088543 -0.09325449 0.101717025 -0.09425967
0.057696737 0.06155239 -0.073351696 -0.039065752 0.050220933 -0.08250316 0.047803137 -0.053975135
-0.009897585 0.011886277 -0.051631164 0.06025902 -0.10299389 0.05712476 -0.049274985 -0.08846024
-0.08299044 -0.029340671 -0.04629344 -0.08043177 0.011326301 0.0055368706 0.03012304 -0.044545013
0.053630956 0.03259788 -0.035300136 0.07130451 -0.010269489 -0.08337589 -0.06726569 -0.08077049
0.02571021 -0.062618695 0.06996729 -0.07599232 0.0499657 -0.002322935 0.033743877 0.04616683
0.08414506 0.046877895 -0.054634765 -0.033422336 -0.07378834 -0.039238833 0.095587365 0.10567674
0.029829089 0.00308111 0.0650421 -0.04787426 -0.07656585 -0.06588275 -0.031762633 0.10509992
-0.06427931 -0.008075165 0.063095026 -0.09093402 0.107200556 -0.032687083 0.0013369161 -0.08389541
0.02340421 -0.011362186 0.04740765 -0.058577307 -0.06036258 -0.013195322 -0.045969773 -0.031073706
-0.040881205 -0.061245456 0.030162532 0.08405191 -0.007862019 0.05502466 0.05115898 -0.026559062
0.07061813 -0.023311958 -0.08687429 0.064976834 -0.039905492 -0.025257913 -0.035834737 -0.037732437
0.028728042 0.049433097 0.08071021 -0.015460594 0.05984551 -0.024383476 0.027913302 0.08700577
0.012823111 0.08460284 -0.06237371 0.06843139 -0.046172626 -0.0040829005 0.007209728 0.04407489

weight f4 [2, 128]
00000000: 8a95 973d bf26 08bd 38f3 d2bb e2f7 49bd
00000010: 8a7e 97bd cdd1 16bc 8614 aa3c 48e6 d4bc
00000020: e556 373d 13cb 243d d8cc 4d3d b15a 643d
00000030: e710 40bd f6fb b13c a2be 91bd 7d9a 9c3d
00000040: 4098 6e3d 1ea4 663d db51 b2bd cc70 2f3c
00000050: 1dcd 1dbd 4ab0 2f3d d5be 863d 1891 083d
00000060: 0806 5a3d 9d8d 3dbc 67c2 a73d a381 12bb
00000070: ffbe 89bd ca51 ab3c eac4 8c3d 34e7 ba3c
00000080: 8cbf 383d 8c11 1d3d 4712 69bb 1b3c 6fbd
00000090: 4ce4 d7bd 5403 4dbd 51c9 35bd 4661 9b3d
000000a0: 96c9 01bd 626b 973d c331 533d f361 7dbd
000000b0: 7e49 c63d c05e 803d 3ef1 403d 5dec 92bd
000000c0: 39d5 4e3c 2ce2 5d3d 58a6 643d da12 a03c
000000d0: 0b8b 453d 3841 f5bc 3ac6 e4bb b796 1dbd
000000e0: 4d5a 433d a9a7 773d 2320 febb 3601 8abd
000000f0: c6ca 0f3d a970 83bd fc50 9bbc 81fa 103b
00000100: 45e0 733d 0c16 e63b fa13 893d e5f5 b13c
00000110: 6000 74bc 6888 e53c 481b ea3b 04ab b33d
00000120: de1e b03d 011a b6bc 8650 45bd 2a92 1e3d
00000130: a154 26bd 84a0 f1bc f79f 673c 3704 383d
00000140: 9051 d0bd e09a 993c fc79 c23d 47f3 54bd
00000150: 76a4 9a3d e1fe 513a 4adf 6f3d e67d 2c3c
00000160: d258 a8bc efa5 b9bd 3fee 353d 6d3c cfbd
00000170: 51f8 b63d bb7d 29bc 93a2 c8bd f55d e43b
00000180: 8fb1 68bb 4d8a 5f3d 74e5 d43c fb86 00bd
00000190: 0fba 8f3d 6880 bcbd 897e 92bd a8d1 8abd
000001a0: ed01 56bd 4030 563d 4315 a93d af64 44bc
000001b0: f468 2c3c fe35 83bd 3bab 823d d9a5 1a3d
000001c0: 3e9e f7bc 6ee0 2cbd 2d21 3a3d 6a57 fa3c
000001d0: c5b7 a2bd 5149 ecbb eb5f 963d e7ff dabc
000001e0: 4825 ccbd f8ea a33c 0b92 7ebc e147 09bd
000001f0: 0c35 a93d 149e 533b d6a7 3f3d bbeb 11bc
00000200: e264 4c3d c1b7 a93d 0020 c23d 5014 91bd
00000210: 74d7 72bd 908e 0fbd 3443 473d 7bed bc3d
00000220: f4d1 b9bd e72f 993d 5eb1 0a3d 8a57 1c3d
00000230: 9b3f 57bd 536f 823d b8e4 b33d 855c 2abd
00000240: 7376 85bd c1dd a1bd 0caa cdbb d27c 9a3d
00000250: f461 bd3d f949 f53c 697b 913d 505e a8bd
00000260: 7f21 cf3d d8bb 5cbd 542a c63c aaf7 993d
00000270: ca44 a23d 6731 713d 6902 b3bd c220 a2bd
00000280: 7d57 afbd a5fd c9bd b1cf 133d b7a4 133d
00000290: fd3e 34bd 07c7 44bd b802 adbd 92ba 8c3d
000002a0: 2e21 abbd bd9c 5f3d a996 d4bd 6ead 40bd
000002b0: c7ec 733d 3979 29bd 3bef 03bd e808 3a3d
000002c0: 5299 dbbd 0a5b dbbd 73d1 91bc d97e 9cbd
000002d0: dddb ddbc b272 d5bd ad74 97bd 4455 e13b
000002e0: a380 983d ac13 ff3c 70dc bf3d 09e3 7e3d
000002f0: c995 c9bd 3384 28bd 36a0 963c d60f a2bd
00000300: 2645 03bd ee36 bf3d 1ead 76bd df59 a5bd
00000310: bd90 d6bd 44e2 833d 09ca 713d 2c28 a23d
00000320: 7e02 e93c 1f8b e93d af30 d63d 39bb 813d
00000330: 25cf a3bd d432 c93d 3e1c 673d 1c2f 8c3d
00000340: e984 bbbc fe13 6bbd e442 5a3d 59a8 a2bd
00000350: 9b4a 7a3d 4003 98bd 8f03 80bd 0b41 8fbd
00000360: fd23 2b3d 5133 183d 3e35 a73d 47f3 e6bd
00000370: ad94 853d 8a87 1e3d 6348 babc 27a3 c83d
00000380: 4733 27bd defd ae3c cb12 27b8 618c 93bd
00000390: b7d1 b3bd 7555 e5bd bc5e c5bd dbfe d33d
000003a0: 739a bebd 0280 b23d 1da4 783d cfd5 a53c
000003b0: 420a 89bd 8860 883d 4f70 973d f0e7 dd3d
000003c0: 6bb2 3b3d db91 10bd 5aed a63d 49d7 84bc
000003d0: 2ee9 333d 4bd4 ad3d e72c 5cbd 80ad 88bd
000003e0: c1b0 65bd 64c2 0d3d fc52 bbbd d9f5 9ebc
000003f0: f67c 2c3d c57f a53d 0f98 1fbd c440 d83d
0.07401569 -0.033240076 -0.0064376853 -0.049308665 -0.07397182 -0.009205294 0.02076174 -0.025988713
0.044760603 0.04023273 0.050244182 0.055750553 -0.04689112 0.02172659 -0.071164384 0.07646654
0.058250666 0.056308858 -0.08707019 0.010708045 -0.03852569 0.04289273 0.06579367 0.033341497
0.053228408 -0.011569408 0.08191376 -0.0022355102 -0.06725883 0.020913024 0.06873496 0.022815324
0.04510455 0.038346812 -0.0035563873 -0.05840693 -0.10541591 -0.050052002 -0.044381443 0.07586913
-0.031686388 0.073935285 0.05156113 -0.06186099 0.09681986 0.06268072 0.047105066 -0.07173989
0.012624078 0.054170772 0.0558227 0.01954024 0.048228305 -0.029938325 -0.0069816383 -0.03847381
0.04769354 0.060462628 -0.007755296 -0.06738512 0.03510549 -0.064179726 -0.018959515 0.0022121968
0.059540052 0.007021671 0.06693263 0.021723697 -0.0148926675 0.028019145 0.0071443655 0.08772853
0.085996374 -0.022229197 -0.048172496 0.03871361 -0.040608052 -0.029495485 0.01413726 0.044925895
-0.10171807 0.018750608 0.09495923 -0.05198982 0.075509 0.0008010697 0.058562554 0.010528063
-0.020550165 -0.090648524 0.044416662 -0.10118947 0.08934081 -0.010344918 -0.097966336 0.0069692084
-0.0035506224 0.054575253 0.025988318 -0.031378727 0.0701791 -0.09204179 -0.07153041 -0.0677827
-0.05224793 0.05229211 0.082560085 -0.011986895 0.01052307 -0.064067826 0.06380316 0.03775582
-0.030226823 -0.04220622 0.045441795 0.03055926 -0.079452075 -0.0072108884 0.07342514 -0.026733352
-0.09968048 0.020009503 -0.015537749 -0.033515815 0.08262071 0.0032290267 0.04679092 -0.0089063
0.049900897 0.082870014 0.0947876 -0.070839524 -0.059287503 -0.035048068 0.048648074 0.09224983
-0.090732485 0.0747984 0.033860557 0.03816942 -0.052550893 0.0636889 0.08783859 -0.04159214
-0.06516733 -0.07903624 -0.0062763747 0.07543339 0.09247199 0.0299425 0.07103617 -0.08221114
0.10113811 -0.05389008 0.024190105 0.07517941 0.07923277 0.058885004 -0.08740694 -0.07916404
-0.08561609 -0.09862832 0.03608674 0.036045756 -0.044005383 -0.04804137 -0.08447784 0.06871523
-0.08355938 0.054592837 -0.10380299 -0.047040395 0.05955198 -0.041375373 -0.03221057 0.04541865
-0.10722603 -0.10710724 -0.017800068 -0.07641382 -0.027082378 -0.10422267 -0.07395301 0.0068766195
0.074464105 0.03113731 0.09368217 0.062228236 -0.098430224 -0.0411417 0.018386941 -0.07913177
-0.032048367 0.09336649 -0.06022369 -0.08073782 -0.104768254 0.06439641 0.059030566 0.079178184
0.028443571 0.11403488 0.104585044 0.06334538 -0.07998494 0.09824148 0.05642342 0.06844923
-0.022890525 -0.057392113 0.053286448 -0.07942266 0.061106306 -0.07422495 -0.06250679 -0.06994828
0.041782368 0.037158314 0.08164452 -0.1127687 0.06522498 0.03870348 -0.022739595 0.09796744
-0.040820386 0.021361288 -3.9833405e-05 -0.072045095 -0.08780234 -0.1119794 -0.0963721 0.10351344
-0.093068026 0.08715822 0.060703386 0.020243553 -0.0669141 0.06659037 0.07394468 0.10835254
0.04582445 -0.03529535 0.0815074 -0.016215937 0.04392355 0.08487757 -0.05375376 -0.066737175
-0.05607677 0.034609213 -0.091466874 -0.019404339 0.04211136 0.08081011 -0.038963374 0.10559228

bias f4 [2]
00000000: 0f68 15bd f0f5 cf3d
-0.03647619 0.10154331
