model_saved/epoch_29.pth (torch, 139407 bytes, 8 tensors)

weight f4 [128, 5]
00000000: e14e e9bd 709d 33be 3e18 153e 7db2 ccbe
00000010: 4710 7e3e e168 f9bd 5378 bcbe a56e ce3d
00000020: 50b5 f2bd cc28 9dbe 264f dc3e 296a bbbe
00000030: 3381 d8be 612b b93e edbb d73e f28a 843e
00000040: bc5a 6b3e e42b 4bbe d44e ddbe a178 8d3e
00000050: 230d 853d 53de ccbd 8639 c4be f4ec 07be
00000060: c0bb 613e 2103 77be bf22 bebe 1fb2 ba3e
00000070: a8b1 b6bd 0b8b c13e c58b 953e 6786 93be
00000080: a687 8b3e fca1 4f3d 0e07 b93e a54b bfbe
00000090: beac 943e 41c7 e4be 521e 13be e706 cfbd
000000a0: c1bd bebe 1fe0 b2be 66a7 8e3e 7ef2 853e
000000b0: de7d 8d3d 0418 ddbe 2089 c9be b74e bb3e
000000c0: 022d 793e 9cee bfbe dc64 6d3e ad1e b23d
000000d0: 47b6 aebe 2a12 8c3e f782 593e 52d8 523e
000000e0: 32b8 8cbe 7bb0 183c f350 c63e 24cc d33e
000000f0: 5572 c73e e2cb a93e b9c3 bdbd bb42 f83d
00000100: d0ef 063e 5215 de3e 2b2f 853e f0cd 533e
00000110: 88ff 5f3e 797f 3a3e fdd6 59be 11c4 813e
00000120: 16b0 aebe e573 8b3e 77c1 92bd 9285 98be
00000130: f21a 253d f759 b2bd 0e6d d1bd 6788 a4be
00000140: c7a9 61be 754a d8be 69b9 4ebd 559a 853e
00000150: 27ab c03e eaa1 9b3d 111a 0cbc 6dd6 653e
00000160: 18b6 9a3e a54a a2be 71e6 debc 0e16 cfbe
00000170: db6c 03be 701a 54bc 0f95 babe b7f7 32be
00000180: 59d9 aabe 53e3 82be c358 8dbe 99d0 bebe
00000190: 9166 b8be 7279 3b3e 0f45 06bc 39b9 99be
000001a0: d0c2 07bc f587 e8bd ec14 c13e bbef f23d
000001b0: e787 a93e def4 23be 7c31 883e aa9c 253e
000001c0: 4a95 04be 977e 59be 0bd0 06be 0f68 32be
000001d0: 3963 a63e 43cf 2c3d 117d e1bd 76e4 7d3e
000001e0: 6069 983d 1a90 31be a238 9b3e 94a3 45be
000001f0: 7619 b2be 2bfb c9be 68b5 373e 648f 8abe
00000200: df78 debe 9a0c bb3e 1b0c 37be add9 7cbe
00000210: c264 2dbe 2dfe 60be 6bd6 dcbd 01b6 6cbe
00000220: 8104 b73e 8828 493d e30b 6bbe f808 eb3b
00000230: 1202 213d 35d1 afbe d19c 3e3c 8144 483e
00000240: 28f4 903e ebab 573e 8d2c a3bd c8f5 3d3c
00000250: 2343 aabd 0c6a ba3e 8fcc ae3e f66c 553d
00000260: 978e 7bbd 6616 5ebe fbe8 b03e b7ba b43e
00000270: b200 3db9 d970 9fbc ab1e 993e 756f a33e
00000280: 5c31 1abe 6aa5 813e 1e0e 99bd 8d6b d43e
00000290: 7890 6abe facf 42be 4d3f c0be 9d55 2fbe
000002a0: 1b4b d9be 2588 883e 620c 893e d4f1 debe
000002b0: 118d 283e a3fd 12be beb0 b1bb 3c5f b33d
000002c0: 3270 783e bbb8 b13e 7d1b c43b 146b 36be
000002d0: 41a5 15be 5053 e43d 3b0b b43e 6f20 63be
000002e0: b825 5ebe e35e 943e b0b7 6a3e 2ef1 a43d
000002f0: 1058 b4be 8264 2bbe aea9 943e 66a5 d33e
00000300: 5c82 63be 31d4 c0be 7ecc b13e cf80 bf3e
00000310: 6a00 d9be 6665 b43e ae95 ccbe ab6c 243e
00000320: 80a1 623e 4025 4cbe 32c5 ae3e 8363 a33e
00000330: b2f1 813e fdec a4be 2639 843e b29d c9be
00000340: a600 bebe a240 b2be fb60 90be f250 cb3c
00000350: efeb 98bd f4e9 87be dd7a 543e 61c5 99be
00000360: 39a2 853e 7628 a13e 346f 3bbe 011a a5be
00000370: 5b11 b9be e8ed d33e 109a ca3e 4763 8d3e
00000380: 5425 b3be 6def 9abe ed8d 3f3e 6096 46be
00000390: bbea d2bd 38f8 9ebe 88a9 893e 1a5f ac3e
000003a0: 476e 813c 3f04 a0bd 4899 033e 9b18 a73e
000003b0: e2b1 9f3d e3e7 a73e 7fe0 0fbe 72bf cbbe
000003c0: fd11 bb3e ec25 c53e 1988 8fbe 83ec a3bd
000003d0: cd5c dd3e f3fb 8abe 6128 67be 54f2 5a3e
000003e0: b8ea 913d 49b2 86be b474 dd3e ea28 b6be
000003f0: cef1 47be c019 dd3d a3de 0abd 451f 82be
-0.11391998 -0.17540526 0.14560029 -0.39979926 0.24810897 -0.12178207 -0.3681055 0.100796975
-0.11850989 -0.30695188 0.43029135 -0.3660443 -0.4228607 0.36165908 0.42135563 0.25887257
0.22983831 -0.19840962 -0.43224204 0.27631095 0.06496646 -0.100033425 -0.38325137 -0.13273984
0.22044277 -0.24122287 -0.37135884 0.3646402 -0.08920604 0.37801394 0.29208198 -0.28813478
0.2725193 0.05069159 0.36138195 -0.373624 0.29038042 -0.4468327 -0.14367035 -0.101087384
-0.37254146 -0.34936616 0.2786209 0.2616157 0.06908773 -0.43182385 -0.3936243 0.36583492
0.24333575 -0.37486732 0.23183006 0.08697257 -0.34123442 0.27357608 0.21241365 0.20590332
-0.2748428 0.00931942 0.38733634 0.41366684 0.38954416 0.33163363 -0.09265847 0.12122103
0.13177419 0.4337564 0.2601255 0.20684028 0.21874821 0.1821269 -0.21273418 0.253449
-0.34118718 0.27236858 -0.07165807 -0.29789406 0.0403089 -0.08708566 -0.10225879 -0.32135317
-0.22037421 -0.42244306 -0.05046979 0.26094308 0.3763058 0.07599242 -0.008551137 0.22445078
0.30217052 -0.31697574 -0.027209492 -0.40446514 -0.12834494 -0.012945756 -0.36441848 -0.17477308
-0.33368948 -0.2556406 -0.27606782 -0.37268522 -0.36015752 0.18308046 -0.008195176 -0.30024126
-0.008286193 -0.11354057 0.37711275 0.11862131 0.33111498 -0.16011378 0.26600254 0.16173044
-0.12947574 -0.21239696 -0.131653 -0.17422508 0.32497576 0.042189848 -0.11010183 0.24794182
0.07441974 -0.17340127 0.30316645 -0.19300681 -0.3478505 -0.39449438 0.17940295 -0.27062523
-0.43451592 0.36533052 -0.17875712 -0.24692412 -0.16932967 -0.2197196 -0.107830845 -0.23116304
0.35745624 0.04911092 -0.22953753 0.0071727 0.039308615 -0.343393 0.011634068 0.19557382
0.28311276 0.21061675 -0.07967482 0.011594243 -0.083135866 0.36409032 0.3414044 0.052105866
-0.06141528 -0.21688232 0.3455275 0.35298702 -0.00018024704 -0.01946299 0.2990621 0.31920972
-0.15057892 0.25321513 -0.07473396 0.41488305 -0.22906673 -0.1902465 -0.37548295 -0.17122503
-0.42440113 0.2666637 0.2676726 -0.43543875 0.16460063 -0.14354567 -0.0054226806 0.08758399
0.24261549 0.3471125 0.005984722 -0.17814285 -0.1461382 0.11148703 0.35164818 -0.22180341
-0.21694076 0.28978643 0.22921634 0.08053814 -0.35223436 -0.1673756 0.29035705 0.41337126
-0.22217697 -0.3766189 0.34726328 0.3740296 -0.42383128 0.3523361 -0.39957947 0.16057079
0.2213192 -0.19936085 0.34134823 0.3191186 0.2537971 -0.32212058 0.2582485 -0.39378124
-0.3710987 -0.34814936 -0.2819899 0.024818871 -0.07466876 -0.2654568 0.20749994 -0.300334
0.2610033 0.31476182 -0.1830414 -0.32246402 -0.36146054 0.41392446 0.39570665 0.27614805
-0.34989417 -0.30260792 0.18706484 -0.19393301 -0.102986775 -0.3104875 0.26887155 0.33666307
0.015799655 -0.0781331 0.12851441 0.3263596 0.077976 0.32794103 -0.14050482 -0.397945
0.3653716 0.38505495 -0.28033522 -0.080040954 0.43234864 -0.27145347 -0.22573997 0.21381503
0.07124847 -0.26307896 0.432531 -0.3557809 -0.19525835 0.10795927 -0.03390373 -0.25414482

bias f4 [128]
00000000: dd5c 5bbe 10c5 b5be b6d9 8bbe 6771 293e
00000010: e2fc a93e 0caa 83be 0c27 503e 5929 043d
00000020: a8b0 8bbe c989 7dbd d57b 5fbe a7bc 2d3e
00000030: 8ad6 c2be 02e7 cf3e c270 d5be f72b 403e
00000040: 73a5 8ebe 7bf1 733e 5797 5ebd 3c4f ad3e
00000050: 93af 763c 495f 243e 8a3b 713e 4a91 873e
00000060: ea06 dfbe ad9f 91be 4040 803e 2828 fbbc
00000070: eb10 613e ab10 c53e fa69 af3e 1e89 a43e
00000080: 79a2 803e baa7 cfbe 210b 15be 3b48 a33d
00000090: df4c 5a3e 2daa 11bd 2173 5b3e 6a6d 97be
000000a0: 7037 873e 4aa9 c1be 0fe8 77be 07ac bd3e
000000b0: a026 c5be 2a69 383e 6ce9 953e f73f 843e
000000c0: 7e7e 823e 705c a6be 6bcb b93e f1ed d4be
000000d0: 58f4 58bd d504 6b3e a90e afbe 0afe bdbd
000000e0: 996b bfbe f2e4 a43e d94a cbbe ebd6 dbbd
000000f0: e376 e1be cbc9 ed3d 3b9c 16bd 9970 913e
00000100: 003e 0d3e 647d 183e 6074 323e 7a8e 6cbd
00000110: 20b1 263e 6a92 883e acd0 d5be 31f2 b3be
00000120: ce45 b3be ea56 9e3e 5135 313e a6f4 e03e
00000130: 78fc 49be e1ab 71be 9839 d13e 4246 0bbe
00000140: f256 b2be 5e4e bc3e 8227 b3be b616 8e3c
00000150: ec05 1d3d a982 97be 2436 43bd 6fda ae3e
00000160: d61f 61be 5d02 e03d 5786 dc3e ebdc c9bd
00000170: 3d17 093e c356 a63e 5e7f 93be 31f7 353e
00000180: 4eed cbbe 4553 b6be c4bb 043e d86d d53d
00000190: 6803 97be 7e18 5a3e 1ba1 9abe b73c db3e
000001a0: 1bb8 d13d f00d febd 3e99 e2be d9c2 113e
000001b0: d93a 3ebe 92bb 5e3d e733 aebe f7b7 80be
000001c0: 47a1 bf3d 6232 393e 6fc5 98be 3264 b2be
000001d0: 6182 c63e b7a1 4a3e a67b 33be 6fa1 edbd
000001e0: 5ffb 0bbe c62b e1be 97a4 b8be 0389 493e
000001f0: c0ab b7bd e6c6 b3be d7e1 dabc cb14 a43e
-0.21422143 -0.3550191 -0.27314538 0.16547166 0.33200747 -0.25715673 0.20327395 0.032265995
-0.27283216 -0.06189898 -0.21824582 0.16966496 -0.38054305 0.40605932 -0.4168759 0.18766771
-0.27860603 0.23822586 -0.054343548 0.33849514 0.015056509 0.16051973 0.23557869 0.26478034
-0.43559963 -0.28442135 0.2504902 -0.030658796 0.2197911 0.3848928 0.3426054 0.32135862
0.25123957 -0.40557653 -0.14555027 0.07972761 0.21318386 -0.035562683 0.21430637 -0.29575664
0.26409483 -0.3782447 -0.24209617 0.3704531 -0.3850603 0.18008867 0.2927965 0.2583005
0.2548713 -0.324924 0.36288008 -0.41587785 -0.0529674 0.22951062 -0.34190872 -0.0927697
-0.37386778 0.3220592 -0.39705542 -0.10734352 -0.44036016 0.116107546 -0.036770087 0.28406218
0.13793182 0.14891583 0.17427206 -0.057753064 0.16278505 0.26674205 -0.41760767 -0.35145715
-0.35014194 0.30925685 0.17305495 0.43936652 -0.19725215 -0.23600723 0.40864253 -0.1360102
-0.3483196 0.3677854 -0.3499108 0.017344814 0.038335726 -0.29591873 -0.047659054 0.34151027
-0.219848 0.10937951 0.43071243 -0.0985659 0.13387771 0.3248807 -0.2880811 0.17770077
-0.39829487 -0.35610405 0.12962252 0.10421342 -0.29494786 0.21298406 -0.3020104 0.4281976
0.102401935 -0.12405002 -0.4425754 0.14234485 -0.18577136 0.0543781 -0.34023973 -0.25140354
0.09356933 0.18085626 -0.2983813 -0.34842068 0.38771346 0.19788252 -0.17527637 -0.11603057
-0.13670109 -0.4397871 -0.36063072 0.19681172 -0.089683056 -0.35112685 -0.026719017 0.32047114

weight f4 [128, 128]
00000000: 9094 b43c b637 6d3d 3ee5 16bd 5c00 da3c
00000010: a11a e83a a750 8c3d 529f 98bd 777f af3d
00000020: fe95 6cbb 913d 32bd 2533 8f3d 98dc 19bd
00000030: 0ee2 9a3d 163f 0f3d 8008 873d 31bb 34bc
00000040: 8e5e ac3b f5a8 6abd e623 26bd 1f15 45bd
00000050: 7305 353c d09f 863d eff5 73bd 31de 163d
00000060: 55c0 37bd 8323 a4bd 28dc b13d 89f1 eebc
00000070: c502 073d fadb 2dbd 5542 143d 2012 93bd
00000080: f4c7 863d 53c3 09bd d0e1 d6bb 627a 9ebd
00000090: ab37 723c 62f1 8d3d 2f84 07bc e7a3 18bd
000000a0: 0ed8 733d 08e3 813c 7574 303c f39e 8abd
000000b0: 74e4 58bc 95fb 3dbd 0f42 a53d 2978 123b
000000c0: 28ba 5abd dec4 0e3d a614 d1ba 7a76 5cbd
000000d0: 6970 63bd 7887 cc3c 73bc a1bd ec25 89bd
000000e0: 7bb5 db3b 7591 973d bdef 64bd a33e c3bc
000000f0: 8c6a b33d 92fe 233d cfda 69bd bd4a a03c
00000100: 5042 11bd d6c9 ce3c 98bd ab3d 102b 833d
00000110: e4c8 42bd faea 31bd dd33 a9bd 2bdc c73c
00000120: a6ee 4a3c 1b5a 2b3c e82d 273c 91f0 a7bb
00000130: 0fa9 a33d 40fb 60bd da2a 223a 7691 813d
00000140: b375 ddba 9bf7 813d 0982 0c3c 35a8 9b3c
00000150: f2b0 c73c 2c56 993d 89ac b4bd 95d5 18bb
00000160: f19c 983d 1eaf 68bd 9554 13bd ae74 623d
00000170: 55f5 783d fbff edbc a8fe 96bc c34b a0bd
00000180: 0cc9 053d f167 4f3c 7f39 133d 2729 f3bb
00000190: adad 49bd dc00 a8bd dd47 9bbb c7a4 2cbc
000001a0: 2f04 9abd 0e9c a2bd 84a8 9a3d 883d 50bd
000001b0: 6730 2f3d 67c0 66bb 51de bebc 9959 cfbc
000001c0: c87a aebd 0b7a 913c 8d5c 813d 1a28 e43c
000001d0: b170 b03d 2d94 1bbc 261a 9abc 7515 3a3d
000001e0: 86c4 863d a386 a13d cff0 513d 332d 4cbd
000001f0: 3f5b a93d 70ac aa3c 7a8b 96bc 0957 2d3d
00000200: 47b4 8e3d c31e 283d 1a73 c0bc 8d91 19bd
00000210: 7148 4dbd 77ab b03d df5b 45bc 1a25 683d
00000220: b3ad eabc 4538 4abd ac41 86bc 3701 183d
00000230: 5884 25bd c474 8fbd f5a5 18bd d69f 8cbd
00000240: 541d 12bd 848e 903d ddc3 383d 7107 cd3c
00000250: fbaf 013d f3c2 e13c 5011 4abd 36f7 3c3d
00000260: c91e a0bd a5a8 36bd 5b60 32bd 814c 383d
00000270: 3fde 11bd 32f3 72bd d085 17bd 91cd 703d
00000280: 903b f33c 65c6 ac3d 011e 4c3d 4d09 2b3b
00000290: 94a0 1cbd 712e 173b 3bc1 9d3d ac8d a6bd
000002a0: ea69 9cbd 9459 92bd fdb2 313d 1cf6 903d
000002b0: a8a6 fb3c 69b0 32bd 8ecf 123d 7662 6abd
000002c0: 6eba 943d 3891 c6bc 3ec2 b43d 61c7 a73d
000002d0: 4925 b23d 6561 e73c 4f1f 7a3a 1c32 e53c
000002e0: beb2 a03d e503 6bbc 1519 6bbc 77ce df3b
000002f0: e578 06bd a29d a5ba ceda 57bd 9214 723d
00000300: 3fdd 493d 6de4 a6bb 0db0 b23d c14f a4bd
00000310: 66da a13d 9326 6c3d 92a8 39bc 4375 873d
00000320: b1bb a4bd e4be 98bd bc56 85bc f991 d0bb
00000330: ecf4 59bd e2a9 90bd 110f acbd 0185 a43d
00000340: ef08 b8bb 25b1 92bd ca45 e63c a244 b93d
00000350: 7424 443c 65e1 ef3a 3933 72bd 3f69 64bd
00000360: dc0b d93b 6d9e 833d ea9f 0e3d 63ab 2ebd
00000370: 69f7 4fbd 5676 31bd 8328 933c 494d d9bc
00000380: 1799 753d 301f 37bd 2464 aabd 583a 1bbd
00000390: a068 b33c 5cde 6a3b 3c15 1d3d 4106 7bbc
000003a0: e13e 55bc c06b 48bd 36c8 ad3d 8ede 613d
000003b0: 9f5f 5e3c 0edf 0dbd 7ae0 20bc 883d 94bc
000003c0: 1d23 b53d 41b7 54bd 4129 b3bd 3edc 823c
000003d0: f2b8 883c 40b3 92bc 3856 8dbd 7f21 bcbc
000003e0: 74e7 64bd fc2b f0bc 3f13 d73c 1cbd 6e3d
000003f0: 947c a3bd e5e7 00bb b5b6 9ebc 8880 efba
0.022043496 0.05791446 -0.036839716 0.0266115 0.0017708131 0.06851321 -0.07452263 0.08569234
-0.0036100144 -0.043515746 0.06992177 -0.03756389 0.07562648 0.034972273 0.06593418 -0.011030958
0.0052602952 -0.057290036 -0.04056158 -0.048115846 0.0110486625 0.065734506 -0.059560712 0.036832992
-0.044861156 -0.08014586 0.086845696 -0.029167907 0.032961626 -0.042446114 0.03619607 -0.071811914
0.06581107 -0.03363354 -0.0065576807 -0.077381864 0.01478378 0.06930806 -0.008271261 -0.037265684
0.059532218 0.015855327 0.010769953 -0.067685984 -0.013238061 -0.046382505 0.0806924 0.0022349453
-0.05340019 0.034855716 -0.0015951588 -0.053823926 -0.055527125 0.02496694 -0.07897272 -0.06696686
0.0067049838 0.074007906 -0.055892695 -0.023833578 0.087605566 0.0400377 -0.057093438 0.019566888
-0.03546363 0.025242727 0.083857715 0.06404698 -0.047554865 -0.04343698 -0.08261845 0.024396976
0.012386 0.010458495 0.010203816 -0.0051251133 0.0799123 -0.05492711 0.0006186195 0.063265726
-0.0016896039 0.06346055 0.008575925 0.019001106 0.024376366 0.07487139 -0.08821971 -0.0023320664
0.07451809 -0.05680763 -0.035969336 0.055287056 0.06078084 -0.029052725 -0.018431976 -0.078269504
0.032662436 0.012659059 0.035943504 -0.007420677 -0.049237896 -0.08203289 -0.0047387914 -0.010537333
-0.07520329 -0.07939921 0.07551673 -0.05083993 0.04277077 -0.0035209896 -0.023299368 -0.025311278
-0.085195124 0.01775839 0.06316481 0.027851153 0.08615244 -0.009495777 -0.018811297 0.04543062
0.065804526 0.07887008 0.051255044 -0.049847793 0.08269357 0.020834178 -0.018377054 0.04231933
0.06967979 0.04104496 -0.023492385 -0.037492324 -0.050117914 0.08626454 -0.01204583 0.056676008
-0.02864728 -0.04937007 -0.016388737 0.037110534 -0.040409416 -0.07004693 -0.037267644 -0.06866424
-0.0356725 0.07058433 0.045108665 0.025027962 0.03166197 0.02755878 -0.049332917 0.046134196
-0.07818372 -0.044594426 -0.043548923 0.044994835 -0.03561234 -0.05931396 -0.036992848 0.058789793
0.029691488 0.08436278 0.0498333 0.0026098073 -0.038239077 0.0023068453 0.077028714 -0.081324905
-0.07637389 -0.07145992 0.043383587 0.07078192 0.030719116 -0.04362527 0.03584247 -0.057222806
0.07262121 -0.024239168 0.08826111 0.081923254 0.08698518 0.028244684 0.00095414085 0.027977996
0.07846592 -0.01434419 -0.014349242 0.0068300324 -0.032830138 -0.0012635479 -0.052698903 0.05910165
0.049283262 -0.0050931484 0.08724985 -0.08023024 0.07902984 0.057653975 -0.011331694 0.06614163
-0.08043612 -0.074582845 -0.01627671 -0.0063650575 -0.05321209 -0.070636526 -0.08401311 0.08033181
-0.0056162993 -0.07162694 0.02810945 0.09046294 0.011971582 0.0018301426 -0.05913088 -0.055764433
0.006623728 0.06426702 0.034820475 -0.042643916 -0.050773058 -0.043325745 0.017963653 -0.02652611
0.05996045 -0.044707477 -0.083198816 -0.037897438 0.021900475 0.0035838103 0.03835033 -0.015321315
-0.01301548 -0.048930883 0.08485453 0.055143885 0.0135726025 -0.03463655 -0.009819144 -0.018095747
0.08844588 -0.051932577 -0.08748103 0.01597416 0.016689751 -0.017907739 -0.069012105 -0.022965191
-0.055884793 -0.029317848 0.026254294 0.058285818 -0.07982746 -0.001966947 -0.01937423 -0.0018272558

bias f4 [128]
00000000: 4c0c 633c 5e92 c3bb 8b0f 013d 792b a53c
00000010: b7fb 0ebd 1db7 b63c d188 923d 2f66 62bd
00000020: 2080 23bc 7018 88bd 07df 16bd a533 86bc
00000030: a019 0cbb 0431 a8bd f01d 2d3d 8913 563c
00000040: b075 b83c bc7c 073d ff4a a23c 195f 403d
00000050: 7142 3abd e489 b9bc f377 81bb 253f edbc
00000060: 87ff 473d b980 90bd 79e6 92bd a2df 49bd
00000070: e7b7 b63b ee12 813d a2f0 92bd ab31 3fbd
00000080: c57e 243d 3312 083a d1ce 903d 50e8 283c
00000090: 525c 983d c832 03bd 5cb4 48bc d716 28bd
000000a0: a5a2 9a3d 04ef 3fbd e12c 5d3d ce6c afbb
000000b0: 657c 25bd e24c 01bd cc04 e73c ea93 d6bc
000000c0: 5d45 1cbd 85c1 323d 6b24 26bc 972b 863d
000000d0: 0321 9bbd 16fc e03c 2545 1db9 5571 483d
000000e0: 362e a3bb 6dc3 a7bd 9bc5 8a3d 4f89 003d
000000f0: df34 613c 9496 eab9 5d5a 8d3d d612 933d
00000100: afdb 91bd 183f af3d 3d8d 973d b4e2 13bc
00000110: a9d3 08bc 1083 a33d 45a6 04bd 1593 abbd
00000120: c061 b1bc 2cbe 0d3d a5e7 d3bc 5389 9abd
00000130: 91a9 9dbb 3ba9 f83b e54e 5cbd 8d1d 4b3d
00000140: 4b83 8abd 7c04 fd3c 7dfb ee3c a557 d53c
00000150: 5575 c83c 4b11 acbd 6d5b af3d 2cd1 5dbd
00000160: ec1e c4bc ce62 d3bb 88fa f8bc f2c1 413c
00000170: 69d0 ac3c 3ef8 5c3d c638 0abd 448a 41bd
00000180: 3f9a 403d 2b88 d9bc bf2b 913b 332a 60bd
00000190: aac0 763d 81f2 633d c2d3 533d 9978 523d
000001a0: 230f cebc 1fe9 83bd 61a4 513d 3145 9a3d
000001b0: c1fb d33c c542 253d d77c 803d 559a 9e3c
000001c0: ded8 68bd ba6e 423b c739 763d 368e 573d
000001d0: 60de ab3d fa2b 97bc 6ba6 5d3d 8479 a1bd
000001e0: 1908 6f3c ce8d 20bd 222d e53b 9301 a33d
000001f0: 7fd8 eebb 0cfa 623d 5402 5f3d decb 88bb
0.013857912 -0.005968376 0.031508964 0.020162331 -0.034908023 0.022304112 0.07155002 -0.05527323
-0.009979278 -0.06645286 -0.03683379 -0.016382048 -0.0021377578 -0.08212474 0.04226488 0.013066181
0.022517055 0.03307794 0.019811152 0.046965692 -0.04547352 -0.02264876 -0.0039510666 -0.028960774
0.048827674 -0.07055802 -0.071728654 -0.04928554 0.005576122 0.06302439 -0.07174803 -0.046678226
0.04015996 0.00051907 0.07070697 0.010309294 0.07439484 -0.03203085 -0.012250032 -0.041037407
0.07550553 -0.046858802 0.053997878 -0.0053535467 -0.040401835 -0.03156746 0.02820053 -0.026193578
-0.038152087 0.043641586 -0.010140519 0.06551283 -0.07574656 0.027463954 -0.00014998445 0.048936207
-0.004979874 -0.081915714 0.067759715 0.031380948 0.013745516 -0.00044744147 0.06902001 0.07181327
-0.071219794 0.08556956 0.07399986 -0.009026218 -0.008351245 0.079839826 -0.03238513 -0.08377663
-0.021653056 0.03460519 -0.025867293 -0.07545724 -0.0048114737 0.007588533 -0.053786177 0.04958873
-0.067633234 0.030885927 0.029172653 0.026042769 0.02447001 -0.08401736 0.0856236 -0.05415456
-0.023940526 -0.0064509874 -0.0303929 0.011826025 0.021095471 0.05394768 -0.03374555 -0.047251
0.0470221 -0.026554188 0.004430264 -0.054727744 0.060242333 0.05565119 0.05171562 0.051384542
-0.025153702 -0.06440949 0.051182155 0.075327285 0.025876882 0.04034688 0.06273811 0.0193607
-0.056847446 0.002966805 0.060113695 0.052625857 0.08392024 -0.018453587 0.054113787 -0.078845054
0.014589333 -0.039197735 0.0069939056 0.07959285 -0.007288992 0.055414245 0.05444558 -0.0041746935

weight f4 [128, 128]
00000000: b6a5 263d b54f f43c 565c 19bd 6bbc a1bd
00000010: c55d 833d ee7e 32bd 8889 b3bd 1434 71bd
00000020: eaf6 ca3b 16c0 96bd ac3b 883c 86fb 8abd
00000030: 598a 38bd 7f75 8dbd b3db 6b3d dceb 31bd
00000040: aa18 ab3d e053 8f3d f849 74bd 4ef6 1abd
00000050: a00e 133d 5b00 b1bd 244e 1b3d f118 9e3d
00000060: 3960 cdbc a4b5 073c 5bd5 8cbc 3b1d fd3c
00000070: 222c 14bd 2ab4 d23c b070 033d 5493 abbd
00000080: 64cb 5fbd e984 533c 9ffc 553c 50cd ef3c
00000090: 0360 f1bc edec b23d 3d84 6f3d 7fcd 5c3d
000000a0: 1bf9 a93d 008b 8dbc aad5 993d 5eaf 8dbc
000000b0: 70a2 4e3d 0b67 c93a 0f93 17bd 006b b93d
000000c0: 387f 1cbc 874f 943d b8d1 2ebd b462 373d
000000d0: 8f6a a8bd fc29 92bd 58d3 a73d 96e1 a33d
000000e0: 5253 583d f6ef 7c3c 0c5f 5fbc 6990 88bd
000000f0: 896e c1bc 22f6 e0bb dee7 463d a752 f23c
00000100: cc8d 703c 6887 4bbd 8ed8 613c 527f eb3c
00000110: 01fe 963d b639 ae3d 26a4 083d 63e3 893d
00000120: 934d 5cbd 9224 97bd 37fa 5dbd 99c1 863c
00000130: a6e0 c03c 03df aebb 7e7f 493d 8446 d13c
00000140: af26 383d 9976 dabc abcb 183d 4576 a8bd
00000150: 7ef9 a5bd 749b 4fbd 7924 2d3c 4956 a6bd
00000160: bb38 9ebd f99e 513c 7af8 303d fcd2 93bd
00000170: 4d36 b73d be80 77bd 4262 70bd 20ab 52bb
00000180: f7f8 2f3d 4a2d e8bc 1aba 623d 085b 243d
00000190: bc49 a63d ec89 a83d 8bc7 7cbd 562c 99bd
000001a0: 2031 47bd 3611 9dbd 88a4 53bc 7896 033d
000001b0: e286 5bbc 2e2b 4d3b 59c1 74bd 52f3 383d
000001c0: bef0 25bd 5eb4 713d 5cc2 10bd 3110 4cbc
000001d0: 7c04 2dbd 3a1d 9a3c 1d22 393d 143e 883d
000001e0: 92fe 223d 4c78 993d 3aa1 4fbb c30c 32bd
000001f0: 4e88 aebd 1de0 493d 5702 883d 3855 1fbd
00000200: ef00 d2bc a3f6 7e3d 4ae3 9fbd 9ee4 3c3d
00000210: 2e7e bbbc b637 193b d3f5 a1bc 55a6 90bd
00000220: c895 e2bc 6a31 8a3d 2934 833c 6a8d 85bd
00000230: 4bd8 04bd 0cb2 5dbd fabe 8ebd e3f5 373c
00000240: 436a cfbb acff b13d c848 21bd afa6 1dbd
00000250: dcb4 933d 55e3 a13d 3fd6 84bd e602 9dbd
00000260: 0a7d 9dbc c3cd b43d fca7 943d 4ada 993d
00000270: ce5a 0abd 9495 53bb 2684 9a3c 7022 5dbc
00000280: 9d66 163d e534 b1bd 6145 a63d 6ebf b33d
00000290: 2200 a83c 9336 f83c d2ab d23c 69af b33d
000002a0: 421a f73c 447f 893d c27d 5ebd 2249 8bbc
000002b0: 7d79 7ebc 1be5 8a3d 2dae e6bc 2365 39bd
000002c0: 7a56 923d defe 913d cab2 823d 2d6f be3c
000002d0: e664 b33d ee0a 5bbd 305e 543d ed56 2bbd
000002e0: c811 b43c 8697 553d 5fd2 a0bc 8c25 8e3c
000002f0: 1741 82bd 5900 943c 2e10 66bd e169 fd3b
00000300: 3356 85bd 136f eb3c 7e00 d7bc 5cf6 87bd
00000310: 7772 ac3d 1b3a 63bd c4e8 97bd e5e7 2d3d
00000320: 8304 46bb e53e b93c 64fb 89bc 68d5 1dbc
00000330: 9c79 6c3d 22ff 1a3d 0df9 073c e75b 693d
00000340: f938 513d 8aa7 b13c 37fc b03d 723a 83bc
00000350: d2d7 f13b bbae 65bd 5cb6 263d ef33 a1bc
00000360: 98cf 4f3c 8630 303d ac64 6dbd 5f27 a23d
00000370: 4ed0 db3c faec 8cbd 1851 af3d e738 09bd
00000380: 33e3 83bc 0a0b 19bd 6ee2 9cbb f58a d0bc
00000390: 105f 923d c2a8 79bb fc64 b2bb a971 68bb
000003a0: 32e7 a53c 6905 7cbd 01eb 083d 67f9 253c
000003b0: 5513 783d a777 01bd fce9 69bd 559e b63b
000003c0: 1da2 d93c 257b 9a3d 545a a13d 609d 00bd
000003d0: 716a 013d e5f0 b3bb 113e 5abd 0f9d 1dbd
000003e0: 7c4c 30bc d894 763d 8b69 7abd 625a 8d3d
000003f0: 9e2f 093d 849a 56bd ae97 10bd 57c9 b5bc
0.040685378 0.029823164 -0.037441574 -0.07897266 0.064143695 -0.04357808 -0.087664664 -0.058887556
0.006193985 -0.07360856 0.016630016 -0.067862555 -0.045053814 -0.06907176 0.05758257 -0.043437824
0.08354314 0.0699842 -0.059640855 -0.03783255 0.03590262 -0.08642646 0.037916318 0.07719601
-0.025070297 0.008283053 -0.01719158 0.030897727 -0.0361749 0.025720675 0.03208989 -0.0837771
-0.054637328 0.012910106 0.013060718 0.029272705 -0.029464727 0.08736596 0.05847572 0.053906914
0.08299466 -0.017278194 0.07511456 -0.017295536 0.05044788 0.0015365792 -0.03700548 0.09053612
-0.009551816 0.07241731 -0.042680472 0.044771865 -0.082234494 -0.07136914 0.081946075 0.080020115
0.052813835 0.0154380705 -0.013633501 -0.06668169 -0.023612278 -0.006865279 0.04856097 0.029580427
0.0146822445 -0.04968968 0.013784541 0.028747234 0.07372666 0.08507101 0.03335967 0.06732824
-0.053784918 -0.07380022 -0.0541937 0.016449736 0.02354462 -0.0053366437 0.04919385 0.02554632
0.044958767 -0.02666788 0.037303608 -0.08225683 -0.081042275 -0.05068536 0.010567778 -0.08121926
-0.07725664 0.01279425 0.043205716 -0.072179765 0.08945904 -0.060425512 -0.058687456 -0.0032145455
0.04296204 -0.028341908 0.05535326 0.040125877 0.081195325 0.082294315 -0.061713737 -0.074791595
-0.048630834 -0.07669298 -0.012917645 0.03212592 -0.013398858 0.0031306255 -0.059754703 0.045153923
-0.040512793 0.059009902 -0.035341606 -0.012455032 -0.042240605 0.018812764 0.04519855 0.066524655
0.03979356 0.07493648 -0.0031681792 -0.0434692 -0.08522092 0.049285997 0.06641071 -0.03889963
-0.02563521 0.06224693 -0.07807024 0.046116464 -0.022887316 0.0023379154 -0.019770538 -0.07062975
-0.027659312 0.06747706 0.016016083 -0.06521113 -0.032432836 -0.054124877 -0.0697002 0.011228058
-0.006329806 0.08691344 -0.03937605 -0.03848904 0.072122306 0.07904688 -0.06486177 -0.076665685
-0.019224662 0.088283084 0.07258603 0.075123385 -0.033778004 -0.00322852 0.018861841 -0.01349698
0.036718953 -0.08652667 0.08118702 0.08776747 0.020507876 0.03029946 0.025716696 0.08773691
0.030163888 0.06713727 -0.05431915 -0.017002646 -0.015531895 0.0678198 -0.028159225 -0.045262467
0.071454 0.0712869 0.063817576 0.023246372 0.08759479 -0.05347722 0.051847637 -0.041830946
0.021981135 0.052146457 -0.019631563 0.017351888 -0.06360071 0.018066572 -0.056167774 0.007733569
-0.06510582 0.028739488 -0.026245352 -0.06638786 0.0842027 -0.055475336 -0.074174434 0.04245748
-0.0030215092 0.022612998 -0.016843505 -0.0096334 0.057733163 0.03784097 0.008299124 0.05697241
0.051079724 0.021686334 0.08641856 -0.01601908 0.007380464 -0.05607484 0.040701255 -0.019678084
0.012683772 0.043015026 -0.057957336 0.07917666 0.026832726 -0.06881137 0.08560389 -0.033501532
-0.016099548 -0.037364043 -0.0047877347 -0.025456885 0.07147038 -0.0038094972 -0.005444167 -0.0035468137
0.020251844 -0.061528597 0.033427242 0.010130263 0.06056531 -0.03160825 -0.05710791 0.005573074
0.02656656 0.07543019 0.07878557 -0.031400084 0.03159565 -0.0054913634 -0.053281847 -0.03847986
-0.010760423 0.060200542 -0.06113581 0.06902005 0.033492677 -0.05239345 -0.035300903 -0.022190733

bias f4 [128]
00000000: 3a97 a63d 5789 ba3b ad4e 9bbd 9689 83bb
00000010: 19c6 6cbd 1aca 13bb 67f6 35bb 27c5 933d
00000020: 4cc2 a8bd 80e1 f03c b72f 32ba a75b aebd
00000030: 1add 3ebd dbaa 63bd 3e23 913d ba32 2abd
00000040: 711c 6abd 5269 8c3b ecf0 a23d 0144 413d
00000050: 597c cbbc 1222 233d f3c8 86bd 3612 88bd
00000060: 7b93 633d a885 9abc e21b e4bc f4ea 073d
00000070: 10fc 0f3c 89f7 6dbd 1d9a 2d3a ec21 45bd
00000080: bb01 b5bd e5fe 9f3c d682 b3bd 86cb 2bbc
00000090: 1eba e83a 1a6f bb3c fc8b 523d 8efe d9bb
000000a0: 9cad 41bd c648 d739 0b3c fabc 3143 adbc
000000b0: e868 6f3d 64f0 68bd ae9a 27bc cafa c4bc
000000c0: 9a2d acbd d47f da3c 7290 f63c 1bac 9f3d
000000d0: 77e2 8ebc 5dc1 3bbd a34b 153d f2fc 793d
000000e0: 0aed 59bd 7e72 fd3b 1aef 853c 8d2a 57bd
000000f0: ee3c 44bc e80d 5e3d 15ac 623d 760a 493b
00000100: bf03 82bd 0990 3f3d 9e1b 5b3d 9327 4dbd
00000110: ebb0 95bc 0b64 96bc dccd 873d 6f5d 803d
00000120: 6009 bf3c cc43 b4bd 8781 abbc 445c 993c
00000130: c637 183b a742 81bd 423e 663d 9ae5 823d
00000140: a7b9 86bd a2e5 223d 671a 1c3d ff4a 0cbd
00000150: 1295 07bd 5650 53bd 023f c43c a640 983b
00000160: 0d18 acbd d3d6 afbd 0e0a 7e3d d296 af3d
00000170: 0858 333d e70c 2dbd 966a 0f3d f9f0 ff3c
00000180: ac29 023d e0f0 7a3d 5fbc 85bd 1413 c53a
00000190: eee5 a73d 950b 943d f66c b4bd 30a9 e0bc
000001a0: ad2b 1abd cacb 66bd cd52 803d 1ae0 3dbb
000001b0: 48f8 46bd 852a 343c 8484 59bd 3df9 883d
000001c0: bb57 b73b 82e0 4e3d 3caf 4fbd 8d17 a2bd
000001d0: e4a8 26bd ce88 943d 6167 b93d 7da8 333d
000001e0: 6aeb 663d 08c7 5ebd 4265 cfbc aa66 9f3d
000001f0: 937a 8a3d 8743 2a3d 00a0 403d 26ae 22bd
0.08134313 0.0056926417 -0.075833656 -0.0040142043 -0.05780611 -0.0022550882 -0.0027765275 0.07215338
-0.08240184 0.029404402 -0.0006797271 -0.08513575 -0.046597578 -0.055582862 0.070868 -0.041552283
-0.05715603 0.004285016 0.079561085 0.047183994 -0.024839567 0.039827414 -0.06581297 -0.066440985
0.05556057 -0.01886256 -0.027845327 0.033183053 0.008788124 -0.058097396 0.0006622391 -0.048128054
-0.08838221 0.019530723 -0.08765189 -0.0104855355 0.0017755663 0.022880126 0.05140303 -0.0066526597
-0.047284707 0.00041062216 -0.030546209 -0.021150203 0.058449656 -0.05686988 -0.01022975 -0.024045367
-0.08407135 0.026672281 0.030098174 0.077964984 -0.017441971 -0.045838702 0.036449086 0.061032243
-0.053204574 0.007734596 0.016349364 -0.052530814 -0.011977417 0.05421248 0.05533989 0.0030676401
-0.06348371 0.046768222 0.053493135 -0.05008657 -0.018272838 -0.018358251 0.066310614 0.06267821
0.0233199 -0.08801994 -0.020935787 0.018720753 0.0023226603 -0.06311541 0.056211717 0.06391449
-0.06578379 0.039769776 0.038111117 -0.03425121 -0.03310115 -0.051590286 0.023955826 0.0046463786
-0.08403025 -0.08585896 0.062021308 0.085736886 0.043785125 -0.042248633 0.035013758 0.031242834
0.031778023 0.061264873 -0.065300696 0.0015035593 0.081981525 0.072287716 -0.08809845 -0.027424425
-0.03763931 -0.056346692 0.06265793 -0.0028972686 -0.048576623 0.010996466 -0.053104892 0.066881634
0.005595175 0.050507076 -0.050704226 -0.07914648 -0.04068841 0.07252656 0.09052921 0.043861855
0.056376852 -0.05438903 -0.025316838 0.077832535 0.067616604 0.041568305 0.047027588 -0.039716862

weight f4 [2, 128]
00000000: 0688 803d 2f94 94bb fb0e 18bd 4171 65bc
00000010: 8f5d 21bd 8645 663d 5784 04ba a567 a13c
00000020: 86c1 85bd 2320 a4bc e3fe a33d 6bca 283d
00000030: 633e 82bd 7b32 593d 4278 99ba 345d 9e3d
00000040: a162 8ebc 52c3 093d da4e e43b 323f 5c3d
00000050: ebb2 403c 7296 99bd 778e 92bd 65f6 6d3d
00000060: 2794 843d e014 86bc b29e 21bd 3a44 9bbd
00000070: c44c 8dbd fe49 873d c897 113d a78d 963c
00000080: ae16 2b3c 62ae bf3a 68ed f5bc bd62 88bd
00000090: df6d d63c b25a 61bd 6b88 8a3d fe10 a93d
000000a0: e02f 26bd 3269 88bd e9f4 c93c c79c 413d
000000b0: 7ee9 9bbd dd43 8abd 9b8f 4e3d 4813 28bd
000000c0: a48f a83d c54e a7bd 5b63 583c 3397 8e3d
000000d0: 19d0 973d 3aac 65bd 751f 10bc 65f5 3d3d
000000e0: 35e0 cf3c e05c 863d c2e8 a8bc dbc1 393d
000000f0: 375d 833d 0326 38bd ff6d 9dbd c532 003d
00000100: 62e0 0b3d d892 973d 2f0d 98bd 3b0e eb3c
00000110: c225 9dbb 8f15 b3bd 187d 8a3d f622 c2bc
00000120: 7c06 943d 9404 ab3d 559b 263d df81 4d3d
00000130: a1a0 8c3d f407 00bd d60d 713d 45e8 b0bc
00000140: 668b f2ba 91ea 873d 0475 54bc 5b40 893d
00000150: 22e1 80bc 6bb7 b3ba 3561 3fbd af07 3d3d
00000160: 3225 1f3d 4ce2 cebc c7ae 493d 9a52 ecbc
00000170: ee38 55bc d4d6 35bc f249 a6bd 0601 37bc
00000180: 8867 0fbd f6c7 973d 17ee c3bc c36e 21bd
00000190: b4b6 aa3d c3fd 20bd 95a9 1e3d 0e7d 253d
000001a0: 87c4 b4bc c735 afbd 4fa6 01bd a584 013c
000001b0: 15a1 5abd 4d10 47bc 1d03 b5bc 7e89 36bd
000001c0: ed6d 823d f7c2 5dbd 24eb 173d 09ac cc3c
000001d0: 42b6 8f3c 56a3 dcbc 2d58 e6bc c71e 89bd
000001e0: fada 4abd bd44 363d dd23 48bd 91a3 a2bd
000001f0: d56c 123d 8076 00bc b669 ae3d 01a4 83bd
00000200: 13c6 763d 4a07 4b3d befd 0d3d cf99 4dbd
00000210: 5a05 ad3d 0d08 7b3d b0f1 9e3d 3ca7 85bd
00000220: e94e adbd f7c1 84bc fbd9 693d 7c22 9fbd
00000230: 23ad e6ba 6ff9 193d 5bbc 53bd d344 2e3c
00000240: 636d 8a3d 9200 323d 180c 5cbd 45de 5abd
00000250: e40c 90bd cf47 8a3c af7d e8bc 055e 643d
00000260: d7d8 a83b d214 2ebd 7c30 9fbc 0980 943d
00000270: 1635 a53b c95a 573d 203e 8a3d 9852 df3c
00000280: fce3 b33c 5540 833d ea97 013d fe52 ad3c
00000290: a348 b13d 801c 81bd e62a a63d ecb6 b83b
000002a0: cf1e cd3a 998b 27bc 9b9b 94bc c7e8 9abc
000002b0: e127 d73c 5cc5 8f3d ba4a 5abd 2251 883c
000002c0: 94d9 563d 7ad7 a03d 3c76 86bd d4b3 833d
000002d0: 8f1d 473d a969 2a39 91dc 26bd 3281 eb3c
000002e0: db8e 79bd 472d b0bd e03e 713d d355 70bc
000002f0: 3a92 59bd 4a02 883d 148f 9a3d eed5 11bd
00000300: fe5d 003d 8764 babc f318 503d 425c d839
00000310: 1a93 273d 8076 c7bc d380 533d caa2 6ebd
00000320: 4c21 03bd b5af ab3d 4ebc c0bc fe6c 97bd
00000330: 7b91 693d b35a 3bbd e03b 8fbd 4db0 293d
00000340: 0651 1d3d b508 8bbc b374 1fbd 7058 9c3c
00000350: c9c9 953d 7b79 b3bc 260e 013c df4d cc3b
00000360: faea 60bd 5b51 9e3d dafe a8bd 27e2 153d
00000370: b121 89bd 3bf4 263c b7f7 cdbb 7f90 89bd
00000380: 6e45 233d 04f2 343d 8bfb 81bd fa64 44bd
00000390: d246 8e3d e548 143c 4b7d da3c 33c6 1e3c
000003a0: e7b7 e2bc aefe 9b3b 1ac1 9ebc ee9e 1a3d
000003b0: 9c89 d13c 458a 8ebb e44a 86bc 4da0 c4bc
000003c0: d30d 253d a7bd 88bd 9a54 fbbc 5edb 16bd
000003d0: 55a3 833d 6e67 25bd 516a 8e3d 90d7 ecbc
000003e0: 77c2 1bbd c309 b73c 1bc5 88bd 058d 0cbd
000003f0: 83e9 1b3d b808 ef3c f77d b13d 7b01 45bd
0.062759444 -0.0045342664 -0.03712366 -0.014004053 -0.039395865 0.056218646 -0.00050551206 0.019702742
-0.06531052 -0.020034855 0.080076 0.041208666 -0.063595556 0.053026658 -0.0011708813 0.07732621
-0.017381014 0.033633538 0.0069674077 0.053771205 0.011761407 -0.07499398 -0.07156079 0.05809631
0.0647357 -0.016367376 -0.039457984 -0.075813726 -0.068994075 0.0660591 0.03554514 0.018378092
0.010442419 0.0014624114 -0.03002043 -0.06659458 0.026175437 -0.055018134 0.06764301 0.08255194
-0.040573 -0.066606894 0.024652915 0.047268655 -0.076128945 -0.06751225 0.05042992 -0.041034013
0.08230522 -0.08169321 0.013207282 0.06962433 0.07412738 -0.05607245 -0.008796562 0.046376605
0.025375465 0.06560683 -0.0206188 0.04535089 0.06414264 -0.044958126 -0.07686996 0.031298418
0.034149535 0.07401055 -0.074243896 0.028693309 -0.004795761 -0.08744346 0.06762141 -0.023698311
0.07227799 0.083504826 0.04067548 0.050172683 0.06866575 -0.031257585 0.058851086 -0.02159513
-0.0018504679 0.06636537 -0.012967352 0.06701728 -0.015732352 -0.0013711279 -0.046723563 0.046149906
0.03885383 -0.025254391 0.049238946 -0.028847981 -0.013014061 -0.011098582 -0.08119573 -0.011169678
-0.035010844 0.074111864 -0.023917241 -0.03941227 0.08335629 -0.039304506 0.038735945 0.040402465
-0.022066368 -0.08555179 -0.031652745 0.00790516 -0.053376276 -0.0121498825 -0.022096211 -0.044564717
0.06368623 -0.05414101 0.037089482 0.024984377 0.017542962 -0.026933353 -0.028118217 -0.066953234
-0.04952524 0.044499148 -0.048862327 -0.07941354 0.03574832 -0.007840753 0.085162565 -0.06427766
0.060247492 0.0495675 0.034665816 -0.05019551 0.08448286 0.061286975 0.07760942 -0.06526038
-0.084623165 -0.01620577 0.057092648 -0.07770249 -0.0017599206 0.037591394 -0.0516933 0.010636526
0.06759145 0.043457575 -0.05372247 -0.05343463 -0.07033709 0.016879944 -0.028380243 0.055753727
0.0051528024 -0.042500325 -0.019432299 0.07250983 0.0050417287 0.052576814 0.06750131 0.027261063
0.021959297 0.06408755 0.031639017 0.021157738 0.086564325 -0.06304264 0.08113651 0.0056370404
0.001564944 -0.010226154 -0.018140605 -0.018909825 0.026264133 0.07020065 -0.05329392 0.01664025
0.052453592 0.07853599 -0.0656552 0.06430784 0.048612174 0.00016251825 -0.040737692 0.028748129
-0.060927253 -0.08602386 0.058897853 -0.0146689 -0.05311797 0.066410616 0.07546821 -0.03560441
0.031339638 -0.022753013 0.050805043 0.00041267468 0.04091177 -0.024348497 0.05163653 -0.058260716
-0.032014176 0.08383123 -0.02352729 -0.073938355 0.057023507 -0.045740794 -0.06993842 0.0414279
0.038407348 -0.016971925 -0.038929652 0.019085139 0.07313878 -0.021908512 0.007876908 0.006234869
-0.05491159 0.07730361 -0.08251734 0.03659263 -0.06695879 0.010190065 -0.0062856334 -0.067170136
0.039861135 0.044176117 -0.06346806 -0.04794786 0.06947102 0.009050583 0.026671072 0.009690809
-0.027675582 0.004760585 -0.019379187 0.037749223 0.025578313 -0.004349979 -0.016393133 -0.024002219
0.040296387 -0.06676798 -0.03067999 -0.0368303 0.064276375 -0.04038184 0.06953872 -0.028911382
-0.038027253 0.022343522 -0.0667822 -0.034314174 0.03806449 0.029178962 0.08666604 -0.048097115

bias f4 [2]
00000000: 76ec 45bd 81d6 25bd
-0.04832121 -0.04048777
