model_saved/epoch_14.pth (torch, 139407 bytes, 8 tensors)

weight f4 [128, 5]
0	0xbde910a7	-0.11380129
1	0xbe33b0c9	-0.17547907
2	0x3e15183e	0.14560029
3	0xbecc9584	-0.3995782
4	0x3e7e1226	0.2481161
5	0xbdf968e1	-0.12178207
6	0xbebc7853	-0.3681055
7	0x3dce6ea5	0.100796975
8	0xbdf2b550	-0.11850989
9	0xbe9d28cc	-0.30695188
10	0x3edcf8e8	0.4315865
11	0xbebb88c8	-0.36627793
12	0xbed88133	-0.4228607
13	0x3eb8fb83	0.36129388
14	0x3ed80815	0.42193666
15	0x3e846438	0.2585771
16	0x3e6abff5	0.22924788
17	0xbe4b2be4	-0.19840962
18	0xbedd7a2a	-0.43257266
19	0x3e8d88d3	0.2764345
20	0x3d84f48a	0.064919546
21	0xbdce5b8d	-0.10076056
22	0xbec43986	-0.38325137
23	0xbe083747	-0.13302337
24	0x3e61a0b2	0.22033957
25	0xbe78ce12	-0.2429736
26	0xbebf201d	-0.37329188
27	0x3ebab21f	0.3646402
28	0xbdb77731	-0.08958281
29	0x3ec0f32a	0.3768552
30	0x3e9579e3	0.29194555
31	0xbe932829	-0.28741577
32	0x3e8b87a6	0.2725193
33	0x3d511b69	0.05105153
34	0x3eb943f7	0.36184666
35	0xbebefba6	-0.37301368
36	0x3e94f6d9	0.2909458
37	0xbee4c741	-0.4468327
38	0xbe127b22	-0.14304784
39	0xbdccf7c2	-0.100081936
40	0xbebe4579	-0.37162378
41	0xbeb2732e	-0.348535
42	0x3e8ea766	0.2786209
43	0x3e86a361	0.26296523
44	0x3d90259e	0.07038425
45	0xbedd1804	-0.43182385
46	0xbec98920	-0.3936243
47	0x3ebb4eb7	0.36583492
48	0x3e792d02	0.24333575
49	0xbebfee9c	-0.37486732
50	0x3e6dfb04	0.23240286
51	0x3db3bf1e	0.08776687
52	0xbeaeb647	-0.34123442
53	0x3e8c2c61	0.27377608
54	0x3e59e0ba	0.21277133
55	0x3e5323a2	0.20619062
56	0xbe8c7394	-0.2743193
57	0x3c18b07b	0.00931942
58	0x3ec65e1c	0.38743675
59	0x3ed3f837	0.4140031
60	0x3ec737f5	0.3890988
61	0x3ea95e2b	0.33079657
62	0xbdbdc3b9	-0.09265847
63	0x3df81b9c	0.12114641
64	0x3e06d356	0.13166556
65	0x3eddec7f	0.43344495
66	0x3e84a17e	0.2590446
67	0x3e53cdf0	0.20684028
68	0x3e5fa1e8	0.21839106
69	0x3e3a0cce	0.18168947
70	0xbe59d6fd	-0.21273418
71	0x3e81c411	0.253449
72	0xbeaeb016	-0.34118718
73	0x3e8b73e5	0.27236858
74	0xbd92c177	-0.07165807
75	0xbe98d93b	-0.29853234
76	0x3d21f6f3	0.03954215
77	0xbdb259f7	-0.08708566
78	0xbdd2b4ad	-0.102883674
79	0xbea4e91a	-0.32209092
80	0xbe61831d	-0.22022672
81	0xbed8a1d6	-0.4231097
82	0xbd4eb969	-0.05046979
83	0x3e85a17a	0.2609976
84	0x3ec0ae2d	0.37632886
85	0x3d9ceeb7	0.07662719
86	0xbc0823be	-0.008309303
87	0x3e65d66d	0.22445078
88	0x3e9af451	0.30264524
89	0xbea1e3b7	-0.31619045
90	0xbcdee671	-0.027209492
91	0xbecf160e	-0.40446514
92	0xbe036cdb	-0.12834494
93	0xbc541a70	-0.012945756
94	0xbeba950f	-0.36441848
95	0xbe335ea3	-0.1751657
96	0xbeab1f58	-0.3342235
97	0xbe82e353	-0.2556406
98	0xbe8da0cb	-0.27661738
99	0xbebf0aee	-0.37313026
100	0xbeb7afab	-0.35876212
101	0x3e3c5c0d	0.1839449
102	0xbc06450f	-0.008195176
103	0xbe99ea7d	-0.30061713
104	0xbbefb8e3	-0.0073157414
105	0xbde7c52f	-0.11316907
106	0x3ec145c1	0.3774853
107	0x3df2efbb	0.11862131
108	0x3ea99a29	0.33125427
109	0xbe237795	-0.15963586
110	0x3e887417	0.2665107
111	0x3e264199	0.16235961
112	0xbe04954a	-0.12947574
113	0xbe594ea9	-0.21221413
114	0xbe0659dc	-0.13120216
115	0xbe3200fa	-0.17383185
116	0x3ea6c738	0.32573867
117	0x3d2ccf43	0.042189848
118	0xbddfbb8d	-0.10924444
119	0x3e7e6eb7	0.24846922
120	0x3d986960	0.07441974
121	0xbe31901a	-0.17340127
122	0x3e9b38a2	0.30316645
123	0xbe45a394	-0.19300681
124	0xbeb21976	-0.3478505
125	0xbec9874b	-0.39361033
126	0x3e38a991	0.18033434
127	0xbe8a8f64	-0.27062523
128	0xbede3ce2	-0.43405825
129	0x3ebb890a	0.3662799
130	0xbe37ee05	-0.17961891
131	0xbe7dd90f	-0.24789833
132	0xbe2d64c2	-0.16932967
133	0xbe61c446	-0.22047529
134	0xbddf3981	-0.1089964
135	0xbe6cfb3f	-0.23142718
136	0x3eb70477	0.35745594
137	0x3d492888	0.04911092
138	0xbe6a843e	-0.22902009
139	0x3bdaefd7	0.006681423
140	0x3d203290	0.03911072
141	0xbeafb54d	-0.3431801
142	0x3c3e9cd1	0.011634068
143	0x3e491b43	0.19639306
144	0x3e90de32	0.28294522
145	0x3e57f021	0.21087696
146	0xbda22af1	-0.07918347
147	0x3c3df5c8	0.011594243
148	0xbdaaa6cb	-0.083325945
149	0x3eba6459	0.36404684
150	0x3eafb44c	0.34317243
151	0x3d560b55	0.0522569
152	0xbd7b8e97	-0.06141528
153	0xbe5de49b	-0.21669237
154	0x3eb19976	0.34687394
155	0x3eb501b8	0.35352874
156	0x39a07e7c	0.00030611816
157	0xbc9f70d9	-0.01946299
158	0x3e9940cc	0.2993225
159	0x3ea35ecb	0.3190826
160	0xbe19b60e	-0.15010855
161	0x3e81f841	0.25384715
162	0xbd990e1e	-0.07473396
163	0x3ed4fe9d	0.41600505
164	0xbe696796	-0.22793421
165	0xbe42d10e	-0.1902506
166	0xbec072da	-0.37587625
167	0xbe2f559d	-0.17122503
168	0xbed9ab94	-0.42513716
169	0x3e883838	0.26605392
170	0x3e88489c	0.26617897
171	0xbedf8ed4	-0.43663657
172	0x3e288d11	0.16460063
173	0xbe13ffa5	-0.1445299
174	0xbbe954b2	-0.007120692
175	0x3db21d1d	0.08696959
176	0x3e7744d0	0.24147344
177	0x3eb1b8bb	0.3471125
178	0x3ba2cd5e	0.0049683293
179	0xbe374ad4	-0.17899638
180	0xbe15ac37	-0.14616476
181	0x3de32e99	0.11092872
182	0x3eb40b3b	0.35164818
183	0xbe63d84a	-0.22250476
184	0xbe5e83f6	-0.21730027
185	0x3e9411fa	0.28919965
186	0x3e6b20ba	0.22961703
187	0x3da4f12e	0.08053814
188	0xbeb491fe	-0.35267633
189	0xbe2c4bbe	-0.16825768
190	0x3e95372e	0.2914366
191	0x3ed42b42	0.41439253
192	0xbe63825c	-0.22217697
193	0xbec0adee	-0.37632698
194	0x3eb20f82	0.34777457
195	0x3ebf2632	0.37333828
196	0xbeda0091	-0.42578557
197	0x3eb46566	0.3523361
198	0xbecc6297	-0.39918968
199	0x3e23ae7c	0.1598453
200	0x3e630b2b	0.22172229
201	0xbe4bca7b	-0.19901459
202	0x3eaec532	0.34134823
203	0x3ea3be31	0.31981042
204	0x3e823005	0.2542726
205	0xbea4ecfd	-0.32212058
206	0x3e843926	0.2582485
207	0xbec99db2	-0.39378124
208	0xbebe00a6	-0.3710987
209	0xbeb240a2	-0.34814936
210	0xbe903b16	-0.2817008
211	0x3cd13aec	0.025540791
212	0xbd98ebef	-0.07466876
213	0xbe876785	-0.26446167
214	0x3e551c31	0.20811535
215	0xbe99a83e	-0.3001117
216	0x3e85e178	0.26148582
217	0x3ea12876	0.31476182
218	0xbe3b3768	-0.18282855
219	0xbea4eb11	-0.3221059
220	0xbeb8e5a4	-0.36112702
221	0x3ed4202f	0.41430804
222	0x3eca9a10	0.39570665
223	0x3e8d9710	0.27654314
224	0xbeb32571	-0.34989503
225	0xbe9a951f	-0.30191895
226	0x3e406403	0.18788151
227	0xbe469660	-0.19393301
228	0xbdd1bb55	-0.10240809
229	0xbe9ea5a6	-0.30985755
230	0x3e896e46	0.26841944
231	0x3eacc851	0.3374658
232	0x3c816e47	0.015799655
233	0xbd9f3459	-0.077736564
234	0x3e03c964	0.12869793
235	0x3ea69176	0.32532853
236	0x3d9e24eb	0.07721885
237	0x3ea7e7e3	0.32794103
238	0xbe10b3a0	-0.14131021
239	0xbecc9489	-0.39957073
240	0x3ebb260a	0.3655246
241	0x3ec52703	0.38506326
242	0xbe8f8819	-0.28033522
243	0xbda3b576	-0.07993595
244	0x3edd662d	0.43242016
245	0xbe8afbf3	-0.27145347
246	0xbe672861	-0.22573997
247	0x3e5af254	0.21381503
248	0x3d91eab8	0.07124847
249	0xbe86b249	-0.26307896
250	0x3edd62f7	0.43239567
251	0xbeb681e3	-0.3564597
252	0xbe47f1ce	-0.19525835
253	0x3ddcb8ec	0.107774585
254	0xbd0bf4da	-0.034169056
255	0xbe821f45	-0.25414482

bias f4 [128]
0	0xbe5b58a7	-0.21420537
1	0xbeb5c510	-0.3550191
2	0xbe8b7920	-0.2724085
3	0x3e29c94e	0.16580698
4	0x3ea9dbd4	0.33175528
5	0xbe842af5	-0.25814024
6	0x3e503760	0.20333624
7	0x3d05bae1	0.032648925
8	0xbe8af91d	-0.27143183
9	0xbd7d89c9	-0.06189898
10	0xbe5f7d22	-0.21825078
11	0x3e2d875e	0.1694617
12	0xbec2ba27	-0.38032648
13	0x3ecfd0a1	0.4058886
14	0xbed570c2	-0.4168759
15	0x3e3f6944	0.186925
16	0xbe8e4a4f	-0.27791068
17	0x3e74b336	0.23896489
18	0xbd5e9757	-0.054343548
19	0x3ead0aab	0.33797202
20	0x3c794433	0.015214014
21	0x3e23f029	0.16009583
22	0x3e71162d	0.23543616
23	0x3e881f54	0.265864
24	0xbedf06ea	-0.43559963
25	0xbe914208	-0.2837069
26	0x3e7f8c48	0.24955857
27	0xbcf98453	-0.030458605
28	0x3e61e113	0.22058515
29	0x3ec4cb10	0.38436174
30	0x3eb005af	0.34379336
31	0x3ea4586a	0.32098705
32	0x3e80d8e5	0.25165477
33	0xbecfff3d	-0.4062442
34	0xbe16a932	-0.1471298
35	0x3da1fec9	0.079099245
36	0x3e59c010	0.21264672
37	0xbd102da6	-0.035199784
38	0x3e5b3f00	0.21410751
39	0xbe974973	-0.29548225
40	0x3e87913b	0.2647799
41	0xbec1a94a	-0.3782447
42	0xbe774d5d	-0.24150605
43	0x3ebdeeef	0.37096354
44	0xbec4f267	-0.38466188
45	0x3e39422c	0.18091649
46	0x3e95f93d	0.29291716
47	0x3e83b9d9	0.25727728
48	0x3e82b5da	0.25529367
49	0xbea65c70	-0.324924
50	0x3eb9ea13	0.36311397
51	0xbed4edf1	-0.41587785
52	0xbd599274	-0.053118184
53	0x3e6aa319	0.2291378
54	0xbeaf463b	-0.3423327
55	0xbdbf16c5	-0.09330515
56	0xbebf95ec	-0.3741907
57	0x3ea51201	0.32240298
58	0xbecb4ad9	-0.39705542
59	0xbddba399	-0.10724563
60	0xbee116f4	-0.43962824
61	0x3deef14c	0.116671175
62	0xbd172986	-0.036904834
63	0x3e91765b	0.2841061
64	0x3e0e1b0b	0.13877504
65	0x3e18ce0d	0.14922352
66	0x3e31fcd2	0.173816
67	0xbd6c8e7a	-0.057753064
68	0x3e267dbe	0.16258904
69	0x3e886ac2	0.2664395
70	0xbed5cdbb	-0.41758522
71	0xbeb3f231	-0.35145715
72	0xbeb345ce	-0.35014194
73	0x3e9e0c90	0.3086896
74	0x3e3134c5	0.17305286
75	0x3ee0ad6b	0.43882307
76	0xbe49a15c	-0.1969046
77	0xbe71abe1	-0.23600723
78	0x3ed12aa0	0.40852833
79	0xbe0b4642	-0.1360102
80	0xbeb2774a	-0.34856635
81	0x3ebc7be9	0.36813286
82	0xbeb32782	-0.3499108
83	0x3c95f969	0.018307405
84	0x3d1ce1d1	0.038301293
85	0xbe9782a9	-0.29591873
86	0xbd433c89	-0.047665153
87	0x3eae8ba7	0.3409092
88	0xbe63018e	-0.22168562
89	0x3ddf48d2	0.10902561
90	0x3edc30e0	0.4300604
91	0xbdcae015	-0.099060215
92	0x3e0a4197	0.13501583
93	0x3ea68849	0.32525852
94	0xbe9340ca	-0.28760368
95	0x3e34cba1	0.17655803
96	0xbecc29fe	-0.39875787
97	0xbeb59f51	-0.3547311
98	0x3e0622cd	0.13099213
99	0x3dd5f65f	0.10447382
100	0xbe96296e	-0.29328483
101	0x3e5a315a	0.21307889
102	0xbe9ae33c	-0.3025149
103	0x3edb9f8b	0.4289516
104	0x3dd094ed	0.10184655
105	0xbdfd9616	-0.12382142
106	0xbee2bd5c	-0.44285095
107	0x3e118ec3	0.14214616
108	0xbe3e3ad9	-0.18577136
109	0x3d5a5886	0.05330708
110	0xbeaea148	-0.34107423
111	0xbe7fddaa	-0.24986902
112	0x3dc0c94a	0.09413393
113	0x3e39c928	0.18143141
114	0xbe98ad92	-0.29819924
115	0xbeb26432	-0.34842068
116	0x3ec65087	0.38733312
117	0x3e4a7125	0.19769724
118	0xbe31c8f6	-0.17361817
119	0xbdecf48d	-0.11570082
120	0xbe0bbf76	-0.13647255
121	0xbee0de34	-0.43919528
122	0xbeb8a497	-0.36063072
123	0x3e48d164	0.19611126
124	0xbdb9d937	-0.090746336
125	0xbeb3462d	-0.35014477
126	0xbcdf0ba5	-0.027227232
127	0x3ea3a43c	0.31961238

weight f4 [128, 128]
0	0x3cb49490	0.022043496
1	0x3d6d37b6	0.05791446
2	0xbd16e53e	-0.036839716
3	0x3cda6e89	0.026664035
4	0x3aee9214	0.0018201494
5	0x3d8c50a7	0.06851321
6	0xbd9887a2	-0.07447745
7	0x3daf99e3	0.085742734
8	0xbb6c95fe	-0.0036100144
9	0xbd323d91	-0.043515746
10	0x3d8f3325	0.06992177
11	0xbd19bef2	-0.037535615
12	0x3d9ae20e	0.07562648
13	0x3d0f7033	0.03501911
14	0x3d870880	0.06593418
15	0xbc33e333	-0.0109794615
16	0x3bac5e8e	0.0052602952
17	0xbd6a7a2b	-0.057245415
18	0xbd2623e6	-0.04056158
19	0xbd44d87c	-0.048058018
20	0x3c35fbbd	0.011107382
21	0x3d86b751	0.065779336
22	0xbd73bfc1	-0.059509043
23	0x3d1710a2	0.036881097
24	0xbd37c055	-0.044861156
25	0xbda42383	-0.08014586
26	0x3db1fab4	0.08690396
27	0xbcee860b	-0.029116651
28	0x3d072890	0.032997668
29	0xbd2da90d	-0.042397548
30	0x3d14764f	0.03624564
31	0xbd92fa81	-0.07176686
32	0x3d86df47	0.065855555
33	0xbd09c353	-0.03363354
34	0xbbd6e1d0	-0.0065576807
35	0xbd9e60e6	-0.07733326
36	0x3c7313b6	0.014836242
37	0x3d8e141f	0.069374315
38	0xbc06b111	-0.008220927
39	0xbd18a3e7	-0.037265684
40	0x3d7404ba	0.05957482
41	0x3c81e308	0.015855327
42	0x3c307475	0.010769953
43	0xbd8a84d5	-0.06763617
44	0xbc58e474	-0.013238061
45	0xbd3dc73a	-0.046332575
46	0x3da55ba7	0.08074122
47	0x3b15d9ec	0.0022865487
48	0xbd5a8805	-0.053352375
49	0x3d0ec4de	0.034855716
50	0xbacacd60	-0.0015472583
51	0xbd5c767a	-0.053823926
52	0xbd637069	-0.055527125
53	0x3ccce63c	0.025012128
54	0xbda1bc73	-0.07897272
55	0xbd890a75	-0.06691448
56	0x3bdbb57b	0.0067049838
57	0x3d97b072	0.07406701
58	0xbd64efbd	-0.055892695
59	0xbcc33ea3	-0.023833578
60	0x3db36a8c	0.087605566
61	0x3d24e9f5	0.04026218
62	0xbd69be85	-0.05706646
63	0x3ca0ad55	0.019613901
64	0xbd1124bd	-0.035435427
65	0x3ccf1f67	0.025283528
66	0x3dabd968	0.08391076
67	0x3d832b10	0.06404698
68	0xbd42b4c8	-0.047535688
69	0xbd31bd21	-0.043393258
70	0xbda933dd	-0.08261845
71	0x3cc7dc2b	0.024396976
72	0x3c4aeea6	0.012386
73	0x3c2c1ba4	0.010504637
74	0x3c27c264	0.010239217
75	0xbba64991	-0.005074688
76	0x3da3bf84	0.07995513
77	0xbd60fb40	-0.05492711
78	0x3a2e26da	0.00066433626
79	0x3d819176	0.063265726
80	0xbadd75b3	-0.0016896039
81	0x3d821266	0.063511655
82	0x3c0c8209	0.008575925
83	0x3c9ba835	0.019001106
84	0x3cc7b0f2	0.024376366
85	0x3d99562c	0.07487139
86	0xbdb4ac89	-0.08821971
87	0xbb15fdc6	-0.0022886856
88	0x3d989cf1	0.07451809
89	0xbd6884b6	-0.056767188
90	0xbd13205a	-0.035919525
91	0x3d6274ae	0.055287056
92	0x3d792849	0.060829435
93	0xbced9f38	-0.029006585
94	0xbc96fea8	-0.018431976
95	0xbda03405	-0.07822422
96	0x3d05c90c	0.032662436
97	0x3c4f67f1	0.012659059
98	0x3d13397f	0.035943504
99	0xbbf22925	-0.0073901587
100	0xbd49adad	-0.049237896
101	0xbda7e606	-0.0819817
102	0xbb9b47dd	-0.0047387914
103	0xbc2bb111	-0.010479228
104	0xbd99e75b	-0.07514831
105	0xbda29c0e	-0.07939921
106	0x3d9aa884	0.07551673
107	0xbd500a4c	-0.05079107
108	0x3d2f3067	0.04277077
109	0xbb62cbed	-0.0034606413
110	0xbcbede51	-0.023299368
111	0xbccf5999	-0.025311278
112	0xbdae6590	-0.08515465
113	0x3c91e0d3	0.0178074
114	0x3d815c8d	0.06316481
115	0x3ce4281a	0.027851153
116	0x3db08c69	0.08620531
117	0xbc1ada82	-0.00945151
118	0xbc9a1a26	-0.018811297
119	0x3d3a20a0	0.04544127
120	0x3d86ec63	0.06588056
121	0x3da186a3	0.07887008
122	0x3d51f0cf	0.051255044
123	0xbd4bfb3b	-0.04980014
124	0x3da95b3f	0.08269357
125	0x3caaac70	0.020834178
126	0xbc96252c	-0.018328272
127	0x3d2d8a37	0.04236814
128	0x3d8e5ba3	0.06951072
129	0x3d281ec3	0.04104496
130	0xbcc2c08d	-0.023773456
131	0xbd19c28c	-0.03753905
132	0xbd4e83f4	-0.05041881
133	0x3daffecf	0.08593523
134	0xbc4a8b24	-0.012362275
135	0x3d69d0e7	0.05708399
136	0xbcd4eae5	-0.025990913
137	0xbd4a3845	-0.04937007
138	0xbc850b0d	-0.016240621
139	0x3d1716a9	0.036886845
140	0xbd227265	-0.039659876
141	0xbd8f8438	-0.070076406
142	0xbd18a5f5	-0.037267644
143	0xbd8e2540	-0.069406986
144	0xbd13ca71	-0.036081735
145	0x3d90b555	0.07065836
146	0x3d38c3dd	0.045108665
147	0x3cc887da	0.024478842
148	0x3d0415b4	0.03224726
149	0x3ce67c1e	0.028135356
150	0xbd4a16b9	-0.049338076
151	0x3d3d41e0	0.0462054
152	0xbda01ec9	-0.07818372
153	0xbd3630bb	-0.044480067
154	0xbd368415	-0.044559557
155	0x3d3cf410	0.046131194
156	0xbd137ddf	-0.036008712
157	0xbd73d4dc	-0.05952917
158	0xbd182eaf	-0.037153896
159	0x3d704fb9	0.05866978
160	0x3cf6d044	0.030128606
161	0x3daa9bcb	0.083304964
162	0x3d4a67ab	0.04941527
163	0x3b4793c2	0.003045306
164	0xbd1d9e3f	-0.038480993
165	0x3b2be8cf	0.0026231294
166	0x3d9dd3c8	0.0770641
167	0xbda465ba	-0.08027215
168	0xbd9ce362	-0.07660557
169	0xbd925994	-0.07145992
170	0x3d3027ba	0.043006636
171	0x3d915b39	0.070974775
172	0x3cf7f780	0.030269384
173	0xbd3471f5	-0.04405399
174	0x3d12fc5a	0.035885192
175	0xbd6ac1ba	-0.05731366
176	0x3d94be62	0.07262875
177	0xbcc69138	-0.024239168
178	0x3db369cb	0.08760413
179	0x3da7c761	0.081923254
180	0x3db2f644	0.08738378
181	0x3ce97580	0.028498411
182	0x3a7d2b95	0.00096576783
183	0x3ce71747	0.028209342
184	0x3da389a9	0.07985241
185	0xbc7fd45a	-0.015614593
186	0xbc6b1915	-0.014349242
187	0x3bdcde14	0.006740341
188	0xbd0595d7	-0.0326136
189	0xba41a965	-0.00073876075
190	0xbd57be81	-0.052671913
191	0x3d721441	0.059101347
192	0x3d4c8dbc	0.049939856
193	0xbb9aa257	-0.0047190594
194	0x3db1d970	0.08684051
195	0xbda44fc1	-0.08023024
196	0x3da02eb9	0.07821412
197	0x3d6c9af0	0.057764947
198	0xbc3511f1	-0.011051641
199	0x3d877543	0.06614163
200	0xbda4bbb1	-0.08043612
201	0xbd981b0f	-0.07427036
202	0xbc85ead1	-0.01634732
203	0xbbd63be5	-0.0065379017
204	0xbd593840	-0.05303216
205	0xbd90a9e2	-0.070636526
206	0xbdac0a4f	-0.08400404
207	0x3da48501	0.08033181
208	0xbbbb5173	-0.0057164966
209	0xbd923bfb	-0.071403466
210	0x3ce645ca	0.02810945
211	0x3db6f86a	0.089341
212	0x3c3f8b2d	0.011690897
213	0x3aefe165	0.0018301426
214	0xbd7773ce	-0.060413174
215	0xbd66099f	-0.05616152
216	0x3be0e9f0	0.006863825
217	0x3d83cbc5	0.0643535
218	0x3d0ee490	0.034885943
219	0xbd2ef764	-0.0427164
220	0xbd4f481d	-0.050605882
221	0xbd3194d5	-0.043354828
222	0x3c8b7a10	0.017025977
223	0xbcd931f9	-0.026513087
224	0x3d75ed61	0.060040835
225	0xbd312dcf	-0.043256577
226	0xbdab5f8f	-0.08367836
227	0xbd1c8c45	-0.03821971
228	0x3cb38f55	0.021918932
229	0x3b73a406	0.0037176623
230	0x3d1b8583	0.037969124
231	0xbc86b679	-0.016444432
232	0xbc57a400	-0.013161659
233	0xbd48d6e6	-0.049033068
234	0x3daedf1f	0.08538651
235	0x3d622943	0.05521513
236	0x3c5e5f9f	0.0135726025
237	0xbd12658d	-0.035741378
238	0xbc0071cf	-0.007839634
239	0xbc943672	-0.018092368
240	0x3db50a69	0.08839876
241	0xbd52b804	-0.051445022
242	0xbdb3273e	-0.08747719
243	0x3c82dc3e	0.01597416
244	0x3c84642f	0.016161053
245	0xbc92e64f	-0.017932085
246	0xbd8ebab0	-0.069692016
247	0xbcbcf57c	-0.023066275
248	0xbd634606	-0.0554867
249	0xbcf11db5	-0.02943311
250	0x3cd7133f	0.026254294
251	0x3d6e95db	0.058248382
252	0xbda1e05f	-0.079041235
253	0xbaadc89a	-0.0013258636
254	0xbc9e7829	-0.019344406
255	0xbaf9ca3b	-0.0019057462

bias f4 [128]
0	0x3c63d774	0.0139063485
1	0xbbcbcd5e	-0.00621955
2	0x3d010f8b	0.031508964
3	0x3ca88c2f	0.020574657
4	0xbd0b5ad1	-0.034022156
5	0x3cb14dca	0.021643538
6	0x3d9288d1	0.07155002
7	0xbd62662f	-0.05527323
8	0xbc238020	-0.009979278
9	0xbd877b22	-0.066152826
10	0xbd16d383	-0.036822807
11	0xbc8633a5	-0.016382048
12	0xbb36bca6	-0.002788344
13	0xbda67a9a	-0.08128853
14	0x3d2d24c9	0.04227141
15	0x3c5872dd	0.013210979
16	0x3cbdca65	0.023167798
17	0x3d077cbc	0.03307794
18	0x3ca2de27	0.019881321
19	0x3d40d03a	0.04707358
20	0xbd39bc87	-0.04534581
21	0xbcbb1b2a	-0.022840101
22	0xbb8177f3	-0.0039510666
23	0xbced3f25	-0.028960774
24	0x3d481564	0.048848525
25	0xbd907cc2	-0.07055046
26	0xbd918735	-0.07105867
27	0xbd492a5b	-0.04911266
28	0x3bb730fc	0.005590556
29	0x3d7b340f	0.061328944
30	0xbd91f072	-0.071259394
31	0xbd3ec34f	-0.04657298
32	0x3d23f6cf	0.040030297
33	0x3a081233	0.00051907
34	0x3d90ced1	0.07070697
35	0x3c214024	0.0098419525
36	0x3d99cfba	0.07510324
37	0xbd04e450	-0.0324443
38	0xbc59dba8	-0.013296999
39	0xbd2816d7	-0.041037407
40	0x3d98da1c	0.07463476
41	0xbd3fef04	-0.046858802
42	0x3d5d2ce1	0.053997878
43	0xbb9c0b7a	-0.0047621103
44	0xbd2706c6	-0.040777944
45	0xbd014ce2	-0.03156746
46	0x3ce704cc	0.02820053
47	0xbcd6cf74	-0.026221968
48	0xbd191e29	-0.03738228
49	0x3d36c48f	0.044621047
50	0xbc25fd3b	-0.010131176
51	0x3d8691d7	0.065707855
52	0xbd99e868	-0.07515031
53	0x3cec46b1	0.028842302
54	0xba36c0e3	-0.00069714914
55	0x3d48ddf0	0.04903978
56	0xbbb90a53	-0.0056469827
57	0xbda89382	-0.0823126
58	0x3d8ae63d	0.06782196
59	0x3d015911	0.03157908
60	0x3c64e40f	0.013970389
61	0xb9ea9694	-0.00044744147
62	0x3d8cc17f	0.06872844
63	0x3d94f2b5	0.07272855
64	0xbd91dbaf	-0.071219794
65	0x3daedf60	0.08538699
66	0x3d98c7ac	0.074599594
67	0xbc018fc7	-0.007907814
68	0xbc09bf2d	-0.008407396
69	0x3da38310	0.079839826
70	0xbd05823a	-0.032594897
71	0xbdab9315	-0.08377663
72	0xbcad851b	-0.021181634
73	0x3d0e96cf	0.03481179
74	0xbcd1be45	-0.025603423
75	0xbd9a8953	-0.07545724
76	0xbb9da991	-0.0048114737
77	0x3bf03e8c	0.007331675
78	0xbd5ae441	-0.053440336
79	0x3d4efd98	0.050534815
80	0xbd8a99d2	-0.0676762
81	0x3cfd047c	0.030885927
82	0x3ceb7d80	0.028746367
83	0x3cd557a5	0.026042769
84	0x3cc7148b	0.024301788
85	0xbdac3474	-0.08408442
86	0x3daf7f93	0.08569255
87	0xbd5d3293	-0.05400331
88	0xbcc4a9b4	-0.024006702
89	0xbbe9a442	-0.0071301768
90	0xbcf92701	-0.030414106
91	0x3c43a766	0.011941766
92	0x3ca8a573	0.020586705
93	0x3d5cc2a8	0.053896576
94	0xbd07d54f	-0.03316241
95	0xbd4306c8	-0.04761389
96	0x3d3f0ae3	0.04664124
97	0xbcdb6796	-0.026782792
98	0x3b8c09ac	0.004273614
99	0xbd602a33	-0.054727744
100	0x3d78ebf2	0.06077189
101	0x3d63483f	0.05548882
102	0x3d55fe5d	0.052244533
103	0x3d512d41	0.051068548
104	0xbcce0f23	-0.025153702
105	0xbd850dab	-0.064967476
106	0x3d4f0188	0.05053857
107	0x3d9a4bfa	0.07534023
108	0x3cd9db69	0.02659388
109	0x3d250b88	0.0402942
110	0x3d8051ba	0.06265588
111	0x3c980185	0.018555412
112	0xbd68d8de	-0.056847446
113	0x3b2e1716	0.0026564053
114	0x3d733b97	0.059383
115	0x3d5781e7	0.05261412
116	0x3dabbf61	0.08386112
117	0xbc97ba00	-0.018521309
118	0x3d5ee8c6	0.05442121
119	0xbda362a2	-0.07977797
120	0x3c700722	0.014650138
121	0xbd2076a1	-0.039175633
122	0x3be6c17e	0.007042109
123	0x3da349f2	0.07973088
124	0xbc0df5b0	-0.0086645335
125	0x3d62fa0c	0.055414245
126	0x3d60e420	0.054905057
127	0xbbb1d7e7	-0.005427349

weight f4 [128, 128]
0	0x3d26799d	0.040643323
1	0x3cfa1d70	0.030531615
2	0xbd195c56	-0.037441574
3	0xbda2291b	-0.079179965
4	0x3d83b571	0.064310916
5	0xbd31fa36	-0.04345151
6	0xbdb38988	-0.087664664
7	0xbd713414	-0.058887556
8	0x3bcaf6ea	0.006193985
9	0xbd969c35	-0.07354013
10	0x3c882493	0.016619002
11	0xbd8afb86	-0.067862555
12	0xbd3cf761	-0.046134356
13	0xbd8dfe5e	-0.06933282
14	0x3d6be278	0.057589024
15	0xbd32086f	-0.043465074
16	0x3dabb821	0.08384729
17	0x3d8f53e0	0.0699842
18	0xbd746abc	-0.059672102
19	0xbd1b1945	-0.037865896
20	0x3d0f97e3	0.03505696
21	0xbdb0913a	-0.0862145
22	0x3d1b4e24	0.037916318
23	0x3d9e18f1	0.07719601
24	0xbccf55b8	-0.025309429
25	0x3c085c4a	0.008322785
26	0xbc898248	-0.016785756
27	0x3cfbf585	0.030756721
28	0xbd143aea	-0.036188997
29	0x3cc7c1de	0.024384435
30	0x3d016e54	0.031599358
31	0xbdaaaec1	-0.08334113
32	0xbd6289c3	-0.05530716
33	0x3c5384e9	0.012910106
34	0x3c55fc9f	0.013060718
35	0x3cf27695	0.02959756
36	0xbcf45cb4	-0.02982936
37	0x3db2174c	0.0869585
38	0x3d74a99a	0.059732057
39	0x3d5ccd7f	0.053906914
40	0x3dacb72f	0.08433377
41	0xbc8d8b00	-0.017278194
42	0x3d99d5aa	0.07511456
43	0xbc905f35	-0.017623523
44	0x3d4d0757	0.050055828
45	0x3ac9670b	0.0015365792
46	0xbd17930f	-0.03700548
47	0x3db8b39c	0.09018633
48	0xbc182df0	-0.009288296
49	0x3d93b399	0.0721199
50	0xbd2ed1b8	-0.042680472
51	0x3d32f900	0.043694496
52	0xbda99a1e	-0.08281349
53	0xbd923016	-0.07138078
54	0x3da79db0	0.081843734
55	0x3da4517e	0.08023356
56	0x3d57aefd	0.052657116
57	0x3c89eae1	0.016835632
58	0xbc646c77	-0.013941876
59	0xbd898032	-0.067139044
60	0xbcce51ff	-0.025185583
61	0xbbe0f622	-0.006865279
62	0x3d443434	0.047901347
63	0x3cfba626	0.030718874
64	0x3c708dcc	0.0146822445
65	0xbd4d23a9	-0.050082836
66	0x3c5a03de	0.013306586
67	0x3cd88e9d	0.02643519
68	0x3d96e1ce	0.073672876
69	0x3dae39b6	0.08507101
70	0x3d0780c8	0.0330818
71	0x3d89e363	0.06732824
72	0xbd5d70c4	-0.05406262
73	0xbd975358	-0.073889434
74	0xbd5f37a7	-0.054496434
75	0x3c86c199	0.016449736
76	0x3cc0e0a6	0.02354462
77	0xbbbda66e	-0.005787662
78	0x3d45dcbc	0.04830621
79	0x3cce3ac0	0.025174499
80	0x3d38af99	0.045089338
81	0xbcda7699	-0.02666788
82	0x3d170e99	0.036879156
83	0xbda87645	-0.08225683
84	0xbda75abe	-0.081716046
85	0xbd460acf	-0.04835015
86	0x3c2ba695	0.010476728
87	0xbda6ceca	-0.08144911
88	0xbd9de07a	-0.07708831
89	0x3c4bd56f	0.012441023
90	0x3d2d1377	0.04225489
91	0xbd9489be	-0.07252835
92	0x3db6e53e	0.08930443
93	0xbd7840f9	-0.060608838
94	0xbd762538	-0.06009409
95	0xbb73a2a9	-0.003717581
96	0x3d2e1939	0.042504523
97	0xbcecc5c4	-0.028902896
98	0x3d6155a7	0.055013325
99	0x3d245b08	0.040125877
100	0x3da55f12	0.08074774
101	0x3da8780b	0.082260214
102	0xbd8249db	-0.06361743
103	0xbd9a6f34	-0.075407416
104	0xbd473120	-0.048630834
105	0xbd9d9382	-0.076941505
106	0xbc5b0d4c	-0.013369869
107	0x3d01af4a	0.03166131
108	0xbc623078	-0.013805501
109	0x3b39a51d	0.0028327175
110	0xbd77f456	-0.06053575
111	0x3d3438cb	0.043999474
112	0xbd25f0be	-0.040512793
113	0x3d70b961	0.05877054
114	0xbd1af769	-0.037833605
115	0xbc4f97ea	-0.0126704965
116	0xbd306779	-0.04306743
117	0x3c997e7e	0.018737074
118	0x3d367f87	0.044555213
119	0x3d8a7ce2	0.06762101
120	0x3d235076	0.039871655
121	0x3d986bfb	0.07442471
122	0xbb8bca47	-0.0042660567
123	0xbd330428	-0.043705136
124	0xbdaf06d1	-0.08546222
125	0x3d49e01d	0.049285997
126	0x3d8840a7	0.066529565
127	0xbd1d077a	-0.03833721
128	0xbcd22def	-0.025656668
129	0x3d80b525	0.062845506
130	0xbd9fe34a	-0.07807024
131	0x3d3bbd59	0.045834873
132	0xbcbf3538	-0.023340806
133	0x3b19a70b	0.0023445513
134	0xbca1f5d3	-0.019770538
135	0xbd90a655	-0.07062975
136	0xbce295c8	-0.027659312
137	0x3d8bda12	0.06828703
138	0x3c831ce8	0.016004995
139	0xbd858d6a	-0.06521113
140	0xbd059474	-0.03261228
141	0xbd5893d5	-0.05287536
142	0xbd8ec261	-0.069706686
143	0x3c418013	0.01181032
144	0xbbd37631	-0.0064532985
145	0x3db1ffac	0.08691344
146	0xbd217b5d	-0.03942429
147	0xbd1da0e3	-0.03848351
148	0x3d92966c	0.07157597
149	0x3da17c4e	0.07885037
150	0xbd84d63f	-0.06486177
151	0xbd9d02e6	-0.076665685
152	0xbc9e9258	-0.019356892
153	0x3db4e167	0.088320546
154	0x3d95fdd7	0.07323807
155	0x3d999266	0.074986264
156	0xbd0a695e	-0.033791892
157	0xbbab86da	-0.0052345814
158	0x3c9c6ea7	0.019095732
159	0xbc5115ff	-0.012761592
160	0x3d160b93	0.03663213
161	0xbdb134e5	-0.08652667
162	0x3da64561	0.08118702
163	0x3db395d7	0.08768814
164	0x3ca83796	0.020534318
165	0x3cf8194d	0.030285502
166	0x3cdbfe12	0.026854549
167	0x3db3af69	0.08773691
168	0x3d0362ec	0.03207676
169	0x3d897f44	0.06713727
170	0xbd5e7dc2	-0.05431915
171	0xbc8c8724	-0.017154284
172	0xbc7a1866	-0.015264606
173	0x3d8ae51b	0.0678198
174	0xbce6ae2d	-0.028159225
175	0xbd39571a	-0.045249082
176	0x3d92cfe4	0.07168558
177	0x3d91b3b2	0.07114352
178	0x3d82afef	0.06381213
179	0x3cbf000c	0.023315452
180	0x3db35a1a	0.0875742
181	0xbd5a29fd	-0.0532627
182	0x3d54bbea	0.05193702
183	0xbd2a7add	-0.041621078
184	0x3cb637e7	0.022243453
185	0x3d5609bc	0.052255377
186	0xbc9fb9cb	-0.019497773
187	0x3c8d88ae	0.017277088
188	0xbd82fa09	-0.06395347
189	0x3c940059	0.018066572
190	0xbd6670ed	-0.05626004
191	0x3c0cfe95	0.008605619
192	0xbd855633	-0.06510582
193	0x3ceb296d	0.028706277
194	0xbcda422e	-0.026642885
195	0xbd8917dc	-0.06694004
196	0x3dac91f4	0.08426276
197	0xbd633a1b	-0.055475336
198	0xbd980a00	-0.07423782
199	0x3d2de7e5	0.04245748
200	0xbb5cb3d1	-0.0033676515
201	0x3cb9fb7d	0.022702927
202	0xbc901d12	-0.017591987
203	0xbc1dd568	-0.0096334
204	0x3d6c799c	0.057733163
205	0x3d1b55bc	0.03792356
206	0x3c026cf9	0.007960551
207	0x3d697ee2	0.05700577
208	0x3d512f0a	0.05107025
209	0x3cb1a78a	0.021686334
210	0x3db0d02e	0.08633457
211	0xbc833a72	-0.01601908
212	0x3bec1a8c	0.007205313
213	0xbd6421e4	-0.055696383
214	0x3d290ae8	0.041270167
215	0xbca27695	-0.019831935
216	0x3c54bf8a	0.01298512
217	0x3d306e0d	0.043073703
218	0xbd703e20	-0.058652997
219	0x3da28489	0.07935435
220	0x3cda184e	0.026622918
221	0xbd8cee0b	-0.068813406
222	0x3dae6a65	0.08516387
223	0xbd0b2d68	-0.03397885
224	0xbc84335d	-0.016137773
225	0xbd197c03	-0.037471782
226	0xbba3af98	-0.0049952976
227	0xbcd08af5	-0.025456885
228	0x3d9213e1	0.07132698
229	0xbb6ab395	-0.0035812606
230	0xbbb0843a	-0.0053868564
231	0xbb713dfb	-0.0036810625
232	0x3ca5e732	0.020251844
233	0xbd7be91d	-0.06150161
234	0x3d07f2ea	0.033190645
235	0x3c215b72	0.009848462
236	0x3d781243	0.06056429
237	0xbd01c8af	-0.031685527
238	0xbd6b37f2	-0.0574264
239	0x3b9d8d18	0.0048080795
240	0x3cd9a21d	0.02656656
241	0x3d9af56d	0.075663425
242	0x3d9fde9f	0.078061335
243	0xbd014aca	-0.031565465
244	0x3cfe8017	0.031066937
245	0xbb97e8f6	-0.0046359254
246	0xbd5b818d	-0.053590346
247	0xbd198cc9	-0.03748778
248	0xbc322af4	-0.010874499
249	0x3d73ad41	0.0594914
250	0xbd7b69be	-0.06138014
251	0x3d8cd450	0.06876433
252	0x3d09b5eb	0.033620756
253	0xbd569a84	-0.05239345
254	0xbd0fa7fe	-0.03507232
255	0xbca99017	-0.02069859

bias f4 [128]
0	0x3da5057a	0.08057685
1	0x3badb9e3	0.0053017004
2	0xbd9b4ead	-0.075833656
3	0xbb82a0e1	-0.0039864634
4	0xbd6c75fa	-0.0577297
5	0xbb13ca1a	-0.0022550882
6	0xbb45daa4	-0.0030190134
7	0x3d94843b	0.072517835
8	0xbda8c24c	-0.08240184
9	0x3cf1e2ef	0.029527156
10	0xba306d90	-0.0006730193
11	0xbdaeb54a	-0.08530672
12	0xbd3e807e	-0.04650926
13	0xbd63aadb	-0.055582862
14	0x3d9026cd	0.07038651
15	0xbd2a32ba	-0.041552283
16	0xbd6a01b2	-0.057130523
17	0x3b7a290b	0.0038171436
18	0x3da3bcf0	0.07995021
19	0x3d437c18	0.047725767
20	0xbcc81fea	-0.02442928
21	0x3d22e87b	0.039772492
22	0xbd86c8f3	-0.06581297
23	0xbd89063a	-0.06690641
24	0x3d631885	0.055443306
25	0xbca17fd2	-0.01971427
26	0xbce41be2	-0.027845327
27	0x3d065490	0.03279549
28	0x3c17dc87	0.009268886
29	0xbd6fd9a5	-0.05855717
30	0x3955f100	0.00020403042
31	0xbd472ce0	-0.04862678
32	0xbdb501bb	-0.08838221
33	0x3c9ffee5	0.019530723
34	0xbdb382d6	-0.08765189
35	0xbc2bcb86	-0.0104855355
36	0x3aaf312b	0.0013366094
37	0x3cbba1c4	0.022904284
38	0x3d4fa24d	0.05069189
39	0xbbdd9329	-0.0067619276
40	0xbd41ad9c	-0.047284707
41	0x3a1ed494	0.0006058898
42	0xbcf83afb	-0.030301562
43	0xbca91210	-0.020638496
44	0x3d71b06c	0.05900614
45	0xbd68f064	-0.05686988
46	0xbc22e5e5	-0.009942506
47	0xbcc4faca	-0.024045367
48	0xbdacfbfc	-0.084465
49	0x3cdd0cd4	0.026983656
50	0x3cf81775	0.030284623
51	0x3d9e01c4	0.077151805
52	0xbc8e3da1	-0.017363371
53	0xbd3bc15d	-0.045838702
54	0x3d15572b	0.036460083
55	0x3d7a6247	0.06112888
56	0xbd59309b	-0.05302487
57	0x3c03c09d	0.008041528
58	0x3c830479	0.015993344
59	0xbd55aeb2	-0.052168556
60	0xbc443cee	-0.011977417
61	0x3d5ecff0	0.054397523
62	0x3d6206e8	0.055182368
63	0x3b5e5b7d	0.0033929043
64	0xbd8203bf	-0.06348371
65	0x3d401444	0.046894327
66	0x3d5e529f	0.054278012
67	0xbd4d1e09	-0.050077472
68	0xbc994d03	-0.01871348
69	0xbc96640b	-0.018358251
70	0x3d86dfe3	0.06585672
71	0x3d81960e	0.06327449
72	0x3cbedd2f	0.023298828
73	0xbdb443cc	-0.08801994
74	0xbcab2d87	-0.020895733
75	0x3ca07c63	0.019590562
76	0x39e41609	0.00043503966
77	0xbd8133a8	-0.06308681
78	0x3d677611	0.05650908
79	0x3d8088a2	0.06276061
80	0xbd86b9a7	-0.06578379
81	0x3d2318f6	0.039818726
82	0x3d1c1a67	0.038111117
83	0xbd0d7626	-0.034536503
84	0xbd062c9d	-0.03275739
85	0xbd53cf04	-0.051711097
86	0x3cc43f02	0.023955826
87	0x3b9b5af8	0.004741069
88	0xbdac180d	-0.08403025
89	0xbdafd6d3	-0.08585896
90	0x3d7f5649	0.062338147
91	0x3daef908	0.08543593
92	0x3d33846b	0.043827455
93	0xbd2d0ce7	-0.042248633
94	0x3d0ff34c	0.035144135
95	0x3d00d6c4	0.031454816
96	0x3d00f8f9	0.03148744
97	0x3d778336	0.060427867
98	0xbd85bc5f	-0.065300696
99	0x3b0135f2	0.0019715992
100	0x3da6ec0a	0.0815049
101	0x3d940b95	0.072287716
102	0xbdb46cf6	-0.08809845
103	0xbce212c5	-0.02759684
104	0xbd1bcdbf	-0.03803801
105	0xbd67d707	-0.05660155
106	0x3d7eb624	0.06218542
107	0xbb5a19e3	-0.003327959
108	0xbd46a1ea	-0.048494257
109	0x3c39195d	0.011297551
110	0xbd598484	-0.053104892
111	0x3d88f93d	0.066881634
112	0x3bb18750	0.005417742
113	0x3d50cd7f	0.050977226
114	0xbd5344aa	-0.051579155
115	0xbda2f287	-0.07956415
116	0xbd26a8e4	-0.04068841
117	0x3d9584f9	0.07300753
118	0x3db8af8d	0.09017859
119	0x3d32f392	0.043689318
120	0x3d68cf08	0.056838065
121	0xbd60bf46	-0.054869913
122	0xbccaf5ed	-0.02477547
123	0x3da02f90	0.07821572
124	0x3d8987a0	0.067153215
125	0x3d28b786	0.041190647
126	0x3d3eb5a3	0.04655994
127	0xbd20ae43	-0.03922869

weight f4 [2, 128]
0	0x3d80c86a	0.06288226
1	0xbb8e2e81	-0.00433904
2	0xbd180efb	-0.03712366
3	0xbc6536f2	-0.013990151
4	0xbd1f9497	-0.038960066
5	0x3d664586	0.056218646
6	0xba0f8f3a	-0.00054763595
7	0x3ca1619e	0.019699868
8	0xbd85c186	-0.06531052
9	0xbca7f4b1	-0.02050242
10	0x3da4035f	0.080084555
11	0x3d2c4220	0.04205525
12	0xbd8182df	-0.0632379
13	0x3d59327b	0.053026658
14	0xba8679d1	-0.0010259693
15	0x3d9e5d34	0.07732621
16	0xbc8bc440	-0.017061353
17	0x3d0b1877	0.03395888
18	0x3be2fba3	0.00692697
19	0x3d5ddccd	0.05416565
20	0x3c415261	0.011799426
21	0xbd998f46	-0.0749803
22	0xbd928e77	-0.07156079
23	0x3d6e61d1	0.058198754
24	0x3d85721b	0.065159045
25	0xbc81fd6c	-0.015867911
26	0xbd219eb2	-0.039457984
27	0xbd9c2f5e	-0.07626222
28	0xbd8dfa21	-0.06932474
29	0x3d8792c2	0.06619789
30	0x3d12d9ff	0.03585243
31	0x3c9c92b3	0.01911292
32	0x3c2b16ae	0.010442419
33	0x3abfae62	0.0014624114
34	0xbcf5ed68	-0.03002043
35	0xbd8862bd	-0.06659458
36	0x3cd88582	0.026430849
37	0xbd616efc	-0.055037484
38	0x3d8aaafc	0.06770894
39	0x3da8fc96	0.08251302
40	0xbd262fe0	-0.040573
41	0xbd880657	-0.06641834
42	0x3ccb6722	0.024829451
43	0x3d444029	0.04791275
44	0xbd9ecc82	-0.077538505
45	0xbd8a43dd	-0.06751225
46	0x3d4fb629	0.05071083
47	0xbd281348	-0.041034013
48	0x3da9b666	0.08286743
49	0xbda8b4c1	-0.08237601
50	0x3c582373	0.0131920455
51	0x3d8d46f4	0.06898299
52	0x3d979548	0.0740152
53	0xbd65ac3a	-0.05607245
54	0xbc104d77	-0.008807532
55	0x3d3e5229	0.046465073
56	0x3cd53007	0.026023878
57	0x3d86e595	0.06586758
58	0xbca8d0ea	-0.02060743
59	0x3d3a3422	0.045459874
60	0x3d835d37	0.06414264
61	0xbd3bcaef	-0.04584783
62	0xbd9c854e	-0.07642613
63	0x3d019476	0.031635724
64	0x3d0be062	0.034149535
65	0x3d97ea3f	0.07417726
66	0xbd9a2cb5	-0.075280584
67	0x3ceb5455	0.028726736
68	0xbb9cba9b	-0.0047829873
69	0xbdb3158f	-0.08744346
70	0x3d8b0d0b	0.06789597
71	0xbcc3b4d3	-0.023889935
72	0x3d93ece4	0.07222918
73	0x3dab0494	0.083504826
74	0x3d26bc42	0.04070688
75	0x3d4c8bab	0.049937885
76	0x3d88bf57	0.0667712
77	0xbcfffd0e	-0.031248596
78	0x3d71ae07	0.059003856
79	0xbcb2b55f	-0.021815
80	0xbaf28b66	-0.0018504679
81	0x3d86ee9c	0.0658848
82	0xbc547504	-0.012967352
83	0x3d89b17c	0.067233056
84	0xbc845a83	-0.01615644
85	0xba3c7ed8	-0.0007190532
86	0xbd3f6135	-0.046723563
87	0x3d3b3bf6	0.04571148
88	0x3d1f2532	0.03885383
89	0xbccee24c	-0.025254391
90	0x3d492286	0.04910519
91	0xbceb3f23	-0.02871663
92	0xbc56c595	-0.013108631
93	0xbc35d6d4	-0.011098582
94	0xbda5fb05	-0.08104519
95	0xbc3c1f32	-0.011482047
96	0xbd0e76bc	-0.034781203
97	0x3d974723	0.07386615
98	0xbcc3ee17	-0.023917241
99	0xbd201611	-0.039083544
100	0x3daadabd	0.08342502
101	0xbd20fdc3	-0.039304506
102	0x3d1ea995	0.038735945
103	0x3d2430d1	0.040085617
104	0xbcb20e72	-0.021735404
105	0xbdad8530	-0.08472669
106	0xbcfcc00f	-0.0308533
107	0x3c0712dd	0.008244243
108	0xbd597367	-0.053088572
109	0xbc4a39ba	-0.012342865
110	0xbcb5031d	-0.022096211
111	0xbd36897e	-0.044564717
112	0x3d823e4e	0.0635954
113	0xbd5d6273	-0.054048967
114	0x3d1787ad	0.036994625
115	0x3cdf7861	0.02727908
116	0x3c8fb642	0.017542962
117	0xbcdca7de	-0.026935514
118	0xbce680cb	-0.028137585
119	0xbd888a73	-0.06667032
120	0xbd4aed32	-0.049542613
121	0x3d33442b	0.043766182
122	0xbd4605dc	-0.04834543
123	0xbda2ff29	-0.07958824
124	0x3d12165b	0.03566585
125	0xbbfb5d93	-0.007671067
126	0x3dae9bbd	0.085257985
127	0xbd8388e9	-0.06422598
128	0x3d7589d2	0.05994589
129	0x3d4b2489	0.04959539
130	0x3d0dfdbe	0.034665816
131	0xbd4db874	-0.050224736
132	0x3dae75e4	0.085185796
133	0x3d7b080d	0.061286975
134	0x3da0af9f	0.07845997
135	0xbd86562f	-0.06559407
136	0xbdad4ee9	-0.084623165
137	0xbc7cb450	-0.015423849
138	0x3d69d1a8	0.05708471
139	0xbd9d7617	-0.076885395
140	0xbadb6764	-0.0016739187
141	0x3d19f96f	0.037591394
142	0xbd516bb0	-0.05112809
143	0x3c2e44d3	0.010636526
144	0x3d8ba148	0.06817871
145	0x3d2f608b	0.04281668
146	0xbd5e292e	-0.05423849
147	0xbd5c746d	-0.05382197
148	0xbd8ef1eb	-0.06979736
149	0x3c8d17bc	0.017223231
150	0xbce87daf	-0.028380243
151	0x3d649ca9	0.055813465
152	0x3baaaec7	0.0052088234
153	0xbd294402	-0.041324623
154	0xbc9f307c	-0.019432299
155	0x3d92e5e0	0.071727514
156	0x3b9d0b25	0.0047925883
157	0x3d56bae7	0.052424338
158	0x3d89b88a	0.06724651
159	0x3ce34996	0.02774505
160	0x3cb3e3fc	0.021959297
161	0x3d834055	0.06408755
162	0x3d0197ea	0.031639017
163	0x3cad52fe	0.021157738
164	0x3db1e8fb	0.086870156
165	0xbd8125fc	-0.06306073
166	0x3da7b9b6	0.081897184
167	0x3bb759bc	0.005595414
168	0x3acd1ecf	0.001564944
169	0xbc288a94	-0.010286946
170	0xbc948a84	-0.018132456
171	0xbc9a6b36	-0.01884995
172	0x3cd3fdbb	0.025877824
173	0x3d8fc55c	0.07020065
174	0xbd5a1fa0	-0.053252816
175	0x3c885122	0.01664025
176	0x3d580337	0.05273744
177	0x3da05c49	0.07830102
178	0xbd86d747	-0.0658403
179	0x3d81c29b	0.06335946
180	0x3d47ee48	0.048811227
181	0x392a69a9	0.00016251825
182	0xbd26e822	-0.040748723
183	0x3ceefa51	0.029172095
184	0xbd789f16	-0.06069859
185	0xbdb07bb3	-0.08617344
186	0x3d708e2e	0.058729343
187	0xbc724b89	-0.014788517
188	0xbd59923a	-0.05311797
189	0x3d8917fb	0.06694027
190	0x3d9ad787	0.0756064
191	0xbd131e8b	-0.0359178
192	0x3d005dfe	0.031339638
193	0xbcbe2517	-0.023211045
194	0x3d53670a	0.051611938
195	0x39d7c1f9	0.00041152516
196	0x3d2620ca	0.040558614
197	0xbcc77680	-0.024348497
198	0x3d52a159	0.051423404
199	0xbd71198a	-0.058862247
200	0xbd034095	-0.032044012
201	0x3dabafb5	0.08383123
202	0xbcc0f3e6	-0.0235538
203	0xbd989591	-0.074504025
204	0x3d60af6a	0.054854788
205	0xbd3b709f	-0.0457617
206	0xbd902ce6	-0.07039814
207	0x3d270baf	0.040782627
208	0x3d1d5106	0.038407348
209	0xbc8de7eb	-0.017322501
210	0xbd1f74b3	-0.038929652
211	0x3c9e803c	0.019348256
212	0x3d96ac05	0.07357029
213	0xbcb15ad5	-0.021649757
214	0x3c010e26	0.007876908
215	0x3bcc5120	0.006235257
216	0xbd60eafa	-0.05491159
217	0x3d9e515b	0.07730361
218	0xbda8fdef	-0.08251559
219	0x3d1584e6	0.036503695
220	0xbd89257b	-0.06696602
221	0x3c26f43b	0.010190065
222	0xbbd30ec8	-0.006440971
223	0xbd89f352	-0.06735863
224	0x3d22d92b	0.03975789
225	0x3d3052f8	0.043047875
226	0xbd81fb8b	-0.06346806
227	0xbd443387	-0.047900703
228	0x3d8e0cd2	0.06936039
229	0x3c1448e5	0.009050583
230	0x3cda7d4b	0.026671072
231	0x3c16a62b	0.009194891
232	0xbce31982	-0.027722124
233	0x3bc7a52c	0.006092688
234	0xbca0a0f1	-0.019607993
235	0x3d190571	0.037358705
236	0x3cd79c4e	0.02631965
237	0xbb9592c9	-0.0045646173
238	0xbc864ae4	-0.016393133
239	0xbcc4a04d	-0.024002219
240	0x3d24274f	0.04007655
241	0xbd88f4f8	-0.06687349
242	0xbcf530b8	-0.029930457
243	0xbd10004b	-0.03515653
244	0x3d83a355	0.064276375
245	0xbd26ab1e	-0.040690534
246	0x3d8e56a8	0.06950122
247	0xbcecc694	-0.028903283
248	0xbd1d826c	-0.038454458
249	0x3cc32dbf	0.023825524
250	0xbd88723c	-0.066624135
251	0xbd0e6a23	-0.03476919
252	0x3d1b394b	0.037896436
253	0x3cf05736	0.02933846
254	0x3db14814	0.08656326
255	0xbd460ad9	-0.04835019

bias f4 [2]
0	0xbd462b6c	-0.048381254
1	0xbd277f73	-0.04089303
