model_saved/epoch_5.pth (torch, 139919 bytes, 8 tensors)

weight f4 [128, 6]
00000000: bc36 d53d 68c3 2e3e 2d59 2a3e 4edd 9c3e
00000010: 87da 16bc 1852 9c3e 1f5b 8d3e dfdc a43d
00000020: 3526 443c f221 5c3e 0605 473d c1b7 adbe
00000030: 99aa 3cbe c152 90be 66fe b0be 042b 2fbe
00000040: 2196 aa3d 0c1b 6e3e 3cc1 643e c8b6 573c
00000050: 2fbf 74bd 3ebb 54be 1822 16be d2b0 8abd
00000060: 7da2 a73d c6dd 68be ed11 2a3e efc1 91be
00000070: 139b c0bc c025 85be 7347 b7be 95fe 51be
00000080: 5c38 f83c 6c2f 9fbe db69 9abe fbc6 8abe
00000090: 3ac5 e8bd 8c0e b63d 1c88 903d ae95 033e
000000a0: efa8 a8be f403 b43e a92f 9ebc 77b9 ac3e
000000b0: 6b26 1e3e d7fc 833e b1ce 7f3e ed3b c9be
000000c0: bef2 97be 391e 84be a9e9 3e3e e93b d03e
000000d0: f5d1 9d3d ca67 893e afd8 993c 0088 04be
000000e0: 544b 853e e54f 6a3e 228a 5b3d 5f60 9d3e
000000f0: 7789 48be 8e7b 8abe 1bbf 87be 50ec 60be
00000100: 1cc2 b2bd a9a1 0b3d 35f4 063e bc87 243e
00000110: 8a90 cbbd 81d7 e7bd fa5b abbe b574 9d3c
00000120: b17e 3ebe 73ab ab3e 6c0e 963e 144b 833e
00000130: c278 bf3e d8dc cf3e aa93 ae3e 0beb 82bd
00000140: f445 21bd 9237 59be b077 3c3e a82d a5be
00000150: d748 f8bc 1167 28be fcf1 c83e 2022 aa3e
00000160: 1202 31be e1f7 cb3e 2e48 12be e808 0d3e
00000170: 0260 48bc 6c5c b83b ab87 cc3e c1a0 6a3e
00000180: 8395 5fbe 5093 753e 9f17 49be b42f a23d
00000190: c87b bb3e ef9d bdbe ce20 c03e a11e b6be
000001a0: a8e1 6b3e 8496 a53d 4919 b53e 0556 4dbe
000001b0: 6125 a83d 2560 6fbe a775 d53d 1a14 043e
000001c0: 3efc 82bd b153 a63e 9cd7 403e 036c 1ebe
000001d0: 9ea3 75be 6315 653e 26ed 1ebe b494 b33e
000001e0: ef90 f13d ea3c b3bd 3388 c2be 8e07 b0be
000001f0: 88ab 5e3e 73b0 09be 48d2 4e3d 83de 963d
00000200: cea8 15be 2067 8c3d 586f 92bd b2b2 45be
00000210: ad89 243e 5b7f 853c 0d8a 04be 5e16 02bd
00000220: 04f8 bbbe a141 5bbe f8e3 b83e 8820 ddbd
00000230: 4026 41be 37d2 643e a50e c7be 6a4e e9bd
00000240: 50f5 8ebe 6872 bd3e c6ed 8fbe a69f e93c
00000250: 38b1 aa3e f810 82bc ce27 aa3e 449d b8be
00000260: 2f12 a53e d2b8 c63e 467a 90be d933 b73e
00000270: 0cee 96be 2319 5bbe e9fa 2c3e 9acb 98be
00000280: c5eb 87be ba85 8e3e ae63 10be b229 833e
00000290: dbc7 58bb 9cba adbe e85f 8b3e 7399 d3bd
000002a0: 5d24 a0be 2573 dcbc aaa0 933e 0702 e03d
000002b0: 303a 9b3e 9ec8 a43e 555e b03d 36bd ddbc
000002c0: 8b76 a93b 61e7 b23e a3ac ca3e 1bfc 1b3e
000002d0: 085d a6be 2e4c c73e af68 c73e dc74 b5bd
000002e0: a2f0 0d3e 0554 ce3e 5a38 c83d 3bb3 75be
000002f0: 5fd5 a83e 9370 7fbe 62fa ca3e c75e 60be
00000300: 7c92 963d 31ff cd3e eb9e 1d3e 6415 a5be
00000310: 1c43 acbe b8b5 b0be d9e0 dabd 2dab 8fbe
00000320: ed90 573d 8049 adbd 5b58 223e 163e 9c3d
00000330: 5626 fbbc 7693 993e 0873 a43e e76d af3e
00000340: 63d3 a53e d5f2 4cbe 6d38 0b3e aea3 cabd
00000350: 26cb 6e3e f1f0 a9be a1a0 b3bd 58f9 213e
00000360: d807 91bd 9066 283e 1bb6 d53d 2dc6 01be
00000370: 55b9 bbbd 22a7 c0be 02dc d03e 2c09 40be
00000380: ba41 7c3e 73b1 393e 79dc 963d d008 d3be
00000390: 8213 b0bd 8b46 bf3e 5add 9c3e 2b2a 893e
000003a0: 8bcc 823e 8e9f e83d 41fb c6be af7d 0abe
000003b0: 3fde 0abe 2d94 7a3e b9bd 003e 04b2 a4be
000003c0: 7ce1 91be b7fd 623e 3579 b6be 1239 693e
000003d0: 18e0 cabd 8d5a 213e a3ea ac3c 0738 bd3c
000003e0: e225 31be 3dce 3e3e 316a a03d bba0 503e
000003f0: 28b7 89bd 4c0f 103e 7276 583d 3e91 28be
0.104108304 0.17066729 0.1663558 0.30637592 -0.009207374 0.30531383 0.27608582 0.0804994
0.011972 0.21497324 0.048588775 -0.33929256 -0.18424453 -0.28188136 -0.3456909 -0.17106253
0.08329416 0.23252505 0.22339338 0.013166137 -0.05975264 -0.20774552 -0.14661443 -0.06772007
0.08185289 -0.2274085 0.166084 -0.28468272 -0.023511445 -0.26005363 -0.357967 -0.20507272
0.030300312 -0.31090868 -0.30158886 -0.27104935 -0.11365743 0.08889493 0.07057211 0.12850067
-0.32941386 0.35159266 -0.019309836 0.33735248 0.15444343 0.2577884 0.2498119 -0.39303532
-0.29677385 -0.25804308 0.18643822 0.40670708 0.07706062 0.26836997 0.01878008 -0.12942505
0.26034033 0.2288204 0.05359853 0.30737588 -0.19583689 -0.2704739 -0.2651299 -0.21965146
-0.0872843 0.034089718 0.13179095 0.16067404 -0.09939678 -0.11320401 -0.3346861 0.01922069
-0.18603016 0.33529243 0.29307878 0.25643218 0.37396818 0.40598178 0.34097034 -0.06392487
-0.039373353 -0.21212605 0.18405032 -0.32261395 -0.03030817 -0.16445567 0.3924712 0.3322916
-0.17285946 0.39837554 -0.14285347 0.13772929 -0.012229921 0.005626252 0.39947256 0.22912885
-0.21834378 0.23981977 -0.19637917 0.07919255 0.36617875 -0.37034556 0.37525028 -0.35570243
0.230353 0.08085349 0.35370854 -0.20052345 0.082102545 -0.2337652 0.10422831 0.12898293
-0.06395768 0.32485726 0.18832248 -0.1547089 -0.23988196 0.2237144 -0.15520152 0.3507439
0.11795222 -0.08751853 -0.37994537 -0.34380764 0.21745121 -0.13446216 0.05049351 0.073666595
-0.14615175 0.06855607 -0.071501434 -0.19306448 0.16068144 0.01629608 -0.12943287 -0.031759612
-0.36712658 -0.21411754 0.36111426 -0.107972205 -0.18862247 0.22345816 -0.3887836 -0.113919094
-0.27921534 0.37001348 -0.28111094 0.02851851 0.33338332 -0.015877232 0.33233494 -0.36057484
0.32240435 0.38812882 -0.28218287 0.35781744 -0.2947849 -0.21396308 0.1689259 -0.29842836
-0.26547065 0.278364 -0.14100525 0.25617748 -0.0033078108 -0.33931434 0.27221608 -0.103320025
-0.31277743 -0.026910374 0.28833514 0.10937887 0.3031783 0.3218431 0.086117424 -0.027067762
0.005171602 0.34942153 0.39584836 0.1523289 -0.32492852 0.38925308 0.38947055 -0.0886018
0.13861325 0.40298477 0.09776373 -0.23994152 0.3297529 -0.24945287 0.39644152 -0.21911155
0.073521584 0.40233758 0.15392654 -0.32242882 -0.3364495 -0.3451364 -0.106874175 -0.28060284
0.052628446 -0.08461285 0.15854017 0.076290295 -0.030657928 0.29995316 0.32119012 0.34263536
0.32387838 -0.20014508 0.13595743 -0.09894501 0.23319682 -0.33191636 -0.08770872 0.15817773
-0.07081574 0.16445374 0.104351245 -0.12673254 -0.09166209 -0.37627512 0.40792853 -0.18753499
0.24634448 0.18134098 0.073662706 -0.4121766 -0.08597471 0.37358508 0.30637628 0.26789984
0.2554668 0.11358558 -0.38863567 -0.13524507 -0.13561343 0.24470587 0.12572373 -0.32167065
-0.28492343 0.22167097 -0.3563935 0.22775677 -0.09906024 0.15757199 0.021107977 0.023098005
-0.17299607 0.18633361 0.078327544 0.20373814 -0.067243874 0.14068335 0.052847333 -0.16461655

bias f4 [128]
00000000: fd60 98be ad16 67bd 4781 c43e 97fc 333e
00000010: 1bdc d43d 1094 0a3e 2b9f 21be 11b1 56be
00000020: 9234 bebe 902f 67be 29f0 4abe 6a9f 67be
00000030: 73dc b8be 81b7 123d a7aa 8f3e 214e 82be
00000040: b981 39be 4924 a33e e411 a7be effd 00be
00000050: 94a6 8dbe 9510 68be cd88 2abd 67e2 26bd
00000060: 1017 0abe 66cb 5bbe bc91 d0bd a34b 993e
00000070: b3b5 a0bc 3f40 893d 43e0 463e 4711 be3e
00000080: ea9e f3bc a3bf 37be 6181 f83d e6ec ae3e
00000090: 1ec6 57bd 38c3 473d 93d1 fe3c abc2 7fbe
000000a0: 3543 7bbe ddcb b03c 625c 41bd 8494 afbd
000000b0: 25a1 b13c 5617 84bd 06f1 3fbc a540 9d3e
000000c0: afda 2ebe 8298 efbd 8a8c 87be e9cd 40be
000000d0: 739b 183e 5d50 cd3e 8ab2 603d 64f0 133e
000000e0: 6677 923d 7f34 ccbe 77ee 7b3e ffb2 44bd
000000f0: 4e24 9dbe 11c4 64be db34 aabe abb3 b93e
00000100: 22ed acbd e2d7 103e 33cb 8abc e2c1 ba3e
00000110: dd72 b4be 34c2 543e 3cd2 6b39 582f b4be
00000120: 3474 febd c3e5 b9be f3c4 78bb e6bb 1b3e
00000130: 29a9 abbe bbac 963c b094 0cbd 60ad 883e
00000140: 6105 6fbe 6806 c83e b418 9fbd f363 6fbe
00000150: 3fa0 343e 1264 8e3e a9d7 27be a6f1 cbbe
00000160: df6c 543e 9ff7 f93d e81e 953e 707d b43e
00000170: 5f0a 2ebd 7562 513e d804 3f3e aa43 24be
00000180: ebda a1bd b3bd 303d 2b69 58bd 63b9 88be
00000190: f8c6 af3e 5290 b4bb 5859 99be 98cb 4bbe
000001a0: abcc 0b3e 344e f03d 383a b33e bb02 803e
000001b0: 93f5 b23e a237 85be e089 9e3d 509c ae3e
000001c0: 17ca 773e 2505 1abe 0d3e 92be ec17 0dbd
000001d0: 363a e13d d2ec 33be 865d 703e cf5d df3d
000001e0: 8195 c0be c01f a6be 9cc4 bfbd 298e cc3e
000001f0: 5d02 bfbe 4474 07bd d44a 073e 78fc c1bc
-0.29761496 -0.05641811 0.3837988 0.17576824 0.10393544 0.13533044 -0.15783374 -0.20965983
-0.37149483 -0.22576737 -0.19818176 -0.22619405 -0.3610569 0.035819534 0.28059885 -0.25450233
-0.18115892 0.3186362 -0.32630837 -0.12596868 -0.27666152 -0.22662576 -0.04163437 -0.040743258
-0.1348536 -0.21464309 -0.101840466 0.2994052 -0.019617891 0.06701707 0.19421487 0.37122557
-0.029738862 -0.17944197 0.12134052 0.34165114 -0.052679174 0.04877016 0.031105792 -0.24976604
-0.24537356 0.021581585 -0.047207244 -0.08573249 0.021683285 -0.064497635 -0.011715179 0.30713382
-0.17075609 -0.116990104 -0.2647441 -0.18828548 0.14903049 0.40100375 0.054857768 0.1444717
0.0715168 -0.398838 0.24602686 -0.048022266 -0.3069176 -0.22340418 -0.3324345 0.36269888
-0.08443667 0.14144853 -0.016942596 0.36476046 -0.35243884 0.20777208 0.00022489665 -0.3519237
-0.12424508 -0.36308107 -0.0037959188 0.15208396 -0.33527496 0.018392911 -0.034321487 0.26694775
-0.23341896 0.39067388 -0.077683836 -0.23377971 0.17639254 0.27810723 -0.16390862 -0.398328
0.20744656 0.12205433 0.29125142 0.3525195 -0.04249036 0.20447715 0.18654191 -0.16041437
-0.079030834 0.04314966 -0.05283467 -0.2670394 0.3433149 -0.0055103684 -0.29950976 -0.19901884
0.13652293 0.11733666 0.35005355 0.25002083 0.34952983 -0.26019007 0.07741141 0.34103632
0.24198185 -0.15041025 -0.28562966 -0.03444664 0.10997431 -0.17570809 0.23473176 0.109065644
-0.37614062 -0.32446098 -0.09363672 0.3995221 -0.3730649 -0.033069864 0.13212138 -0.023679957

weight f4 [128, 128]
00000000: fd07 18bd 6e6b 883d 17a1 523c a48a 67bc
00000010: 5e32 4a3c 34a9 8cbd 67eb f6bc be22 0d3c
00000020: 6f87 273d c7fa c83b abe5 4cbc da34 89bd
00000030: 9a8a a2bd 3408 0cbc 816d 4f3d aeaf 88bd
00000040: 934c 60bd b2bb 133d 0ef8 8fbd f706 aa3d
00000050: b0a5 2a3d d875 c63c 25ea 8bbd fdb7 213d
00000060: 1947 b8bc 1480 f5ba 3ede 6ebc c316 783d
00000070: 8eb7 183d 9633 6fbc 8d29 083d bfe5 81bd
00000080: 3c5b 4d3d 072d 1dbb 1c8f 833d c5cc 8ebc
00000090: dc28 94bc 3c10 7d3d 7d92 a93d c990 cbbc
000000a0: 5528 cdba c053 833d a1f5 32bb 63b8 073d
000000b0: 0c4b b7bd 56f5 8bbd 3708 913b b235 e03a
000000c0: b0f0 2fbd e94a 66bd e022 60bd 9d16 9bbc
000000d0: 29fc 4a3d 1729 72bc 5bf2 0f3c 3127 2a3d
000000e0: 18e9 6e3d e2d0 18bd 2c28 2939 5a47 7bbd
000000f0: 8460 443d 8bf9 cd3c 5875 7f3c d681 adbd
00000100: dd72 613d 191b 77bd 19fe 9b3d a904 4c3c
00000110: 1ed4 503d f343 76bd 4f0f 18bd 4377 463d
00000120: c8fc 98bd 1a06 8b3d 8f51 543c ef37 3c3d
00000130: 7169 1dbc 6ac5 afbd 69bb 7fbd 1120 40bd
00000140: de2c a6bd 2763 92bd cb27 803d 9e88 e83d
00000150: 10ed 063c 6afe e83c 6750 9abd 55eb 813c
00000160: 88db eabc 5729 8a3d e9e3 94bd 716f d83c
00000170: fd6d ac3c b9ff 993d 7c2f 203d 22c9 933c
00000180: 3d36 adbd 5de6 c13b 0b93 023d a609 963c
00000190: 48a5 b9bb 52d4 9abd 97e2 93bd c0f7 143d
000001a0: b0ae 3bbd 2211 6dbd 8fdd b5bd b107 d73c
000001b0: 9c84 46bd 9727 983d 8d7b 083d e4f8 e13c
000001c0: 8a03 31bd a0ae fe3b 1fc3 b3bd be0c 36bd
000001d0: 51b1 9d3c c9c0 87bd 7203 a53d a4cc b5bc
000001e0: 5f56 8a3c 3a13 393b 9bef 253c 4f73 45bd
000001f0: b770 e13b 50f6 a7bc 2942 a8bd 876e 1abd
00000200: 78fd 3ebd 52f4 dabc 592a 18bd 031e 563c
00000210: 9957 6dbd 0e83 ac3d 7a67 b7bb 3a6a a4bd
00000220: 8142 823d cea4 96bd d151 aebc 3629 0ebb
00000230: 75f9 71bd 0d91 58bd 8056 93bc 76a4 81bd
00000240: c12f 82bc 8af3 acbd 8768 2abd c2e1 933c
00000250: 4631 883d 51e7 a3bc 8f6f 513c 6f21 9d3d
00000260: ef75 e7bc 6479 89bd 8b33 023d efc7 42bd
00000270: ae56 6ebd d8b4 1abd 4578 873d b04b b23d
00000280: afaf 5dbd 7040 eb3c 28cf 763b 3651 98bd
00000290: e9ff 3f3d 74b3 afbd 2fe1 3ebd 7851 663d
000002a0: f938 163d 248c a03c a6b7 08bd 57b9 9abd
000002b0: 37c7 d83c e200 423d a0ef 4bbd 4e6f 69bd
000002c0: c7d2 ac3c 1b43 6cbd f3f0 8a3d 3cc6 823c
000002d0: 6cac 74bd b872 963d b99d cb3c 9cbd 37bd
000002e0: 0c6f 35bd 873f ad3d 052f cf3b b62b 963d
000002f0: ee78 d03c 06f5 883d 67da 6f3d bf2a 973d
00000300: 6d01 90bd e1f8 91bb 1963 06bd 76bb 60bd
00000310: c4bf 84bd 7dc1 a53d 1152 7dbd 7456 79ba
00000320: 709e a93d ea21 87bd 66ae 483d 47a2 383d
00000330: b4f3 f93c ac36 303c f0bd 65bd c47f 8b3d
00000340: 109d 9cbd 4648 edbc 0f90 88bd bb15 223c
00000350: 92a5 c0bb bfd8 0d3d ecb6 1cbc 817c b33a
00000360: 7268 a53d 63c5 0e3d bdf2 993d 56b6 34bd
00000370: c060 2d3d 67e7 01bd 216d a63d e926 89bd
00000380: 850f 963b 006c 74bd 4d4e abbd 37b4 d8bc
00000390: a1c7 a3bd 9b83 01bd d4ef 6abd e89b 05bd
000003a0: f9fd aabd ae0d 873d 92b7 053d 6631 e6bc
000003b0: 115b d03c b814 633d 6cf7 a33c 0abe 493d
000003c0: 0c11 3b3c 2e8c 4b3d 7a1d 623c fe50 38bd
000003d0: 4ec2 1b3d cb41 9a3c 1cd3 143c b4a1 d7ba
000003e0: 2334 623d e1f5 4bbd 5be4 843d 27a4 363c
000003f0: ae09 ce3c 5069 b03d 30fb 31bd fe96 043d
-0.037116993 0.066611156 0.01285579 -0.014132176 0.01234111 -0.068682104 -0.030141545 0.00861424
0.040900644 0.0061334106 -0.012505929 -0.06699534 -0.079365924 -0.008546878 0.05064154 -0.06674133
-0.054760527 0.036067672 -0.070297346 0.0830211 0.04166192 0.024226114 -0.06831769 0.039482106
-0.02249484 -0.0018730187 -0.014579354 0.060568582 0.037284426 -0.014599701 0.03324275 -0.06342649
0.050135836 -0.0023983137 0.0642378 -0.017431626 -0.01808589 0.06178306 0.082798935 -0.024849312
-0.0015652279 0.064124584 -0.002730705 0.03313483 -0.08949861 -0.068339035 0.004426028 0.0017105846
-0.042954147 -0.056223784 -0.05472076 -0.018931681 0.049556885 -0.014780304 0.008785809 0.041541282
0.058327764 -0.03730858 0.00016132061 -0.061347343 0.047943607 0.025143405 0.015591942 -0.0847203
0.055041183 -0.060328577 0.07616825 0.012452283 0.05098354 -0.060123395 -0.037123974 0.04845358
-0.07470089 0.06788273 0.012958898 0.04595178 -0.009607659 -0.085825756 -0.062434588 -0.04690558
-0.081140265 -0.07147818 0.0625759 0.11354183 0.008235231 0.028441627 -0.07534867 0.015859285
-0.028669134 0.06746166 -0.07270033 0.026420327 0.02104854 0.07519478 0.039107785 0.018040244
-0.08457611 0.005917354 0.031878512 0.018315148 -0.005665455 -0.07560028 -0.07220953 0.036369085
-0.04582089 -0.057877667 -0.088801496 0.026248785 -0.04846631 0.07429426 0.033320952 0.0275845
-0.043216266 0.0077722818 -0.08777451 -0.044445746 0.01924959 -0.06628568 0.08057298 -0.022192307
0.016886888 0.002824022 0.010127927 -0.04820567 0.0068798917 -0.020503193 -0.08215744 -0.037703063
-0.046628445 -0.02672783 -0.03714976 0.013068679 -0.057944868 0.08423434 -0.005597052 -0.080280736
0.06360341 -0.07355653 -0.021279247 -0.0021692044 -0.05907579 -0.052872706 -0.017985582 -0.063301966
-0.015891911 -0.08444889 -0.04160359 0.018051986 0.06650023 -0.020007761 0.012782945 0.076723926
-0.028254477 -0.067126065 0.031787436 -0.047553953 -0.058188133 -0.037770122 0.066147365 0.087058425
-0.054122623 0.02871725 0.0037660096 -0.07437365 0.046874914 -0.0857915 -0.04660147 0.05623004
0.036675427 0.019598074 -0.033378266 -0.07554882 0.02646218 0.047364123 -0.04978907 -0.056990914
0.0210966 -0.057681184 0.06784239 0.015963666 -0.059734747 0.073460996 0.024855481 -0.04485856
-0.044295356 0.084593825 0.006322744 0.07332556 0.025448289 0.066873595 0.058557894 0.073812
-0.07031522 -0.0044547175 -0.03280935 -0.054866277 -0.06481889 0.080935456 -0.061845843 -0.0009511479
0.08282173 -0.065982655 0.048994444 0.045076635 0.030511715 0.010755222 -0.05608934 0.06811479
-0.07647145 -0.028965127 -0.06668102 0.009892876 -0.0058791125 0.034630533 -0.009565096 0.0013693721
0.08076562 0.03485621 0.07517002 -0.0441192 0.042328596 -0.031714823 0.081262834 -0.06696875
0.004579487 -0.05967331 -0.08364544 -0.02645312 -0.079970606 -0.03161965 -0.057357624 -0.032619387
-0.08349223 0.06594406 0.03264577 -0.028099727 0.025434049 0.05543968 0.02001544 0.0492535
0.0114176385 0.049694233 0.013800973 -0.044999115 0.0380271 0.0188302 0.0090835355 -0.001645139
0.055225503 -0.049795035 0.06488868 0.011147535 0.0251511 0.08613837 -0.04345244 0.03237056

bias f4 [128]
00000000: 60a0 a93d 1294 4c3d 7047 aebd c106 30bd
00000010: 9904 903c 0316 d33c b830 2fbc 455a 2ebd
00000020: 6a35 a73c dc70 7a3d 5ddb 37bd 645a 5dbd
00000030: 90c7 033d 87fe 3f3d d88b a23d 8d7d b03d
00000040: 501b 823d c6ad 8a3d 748e a7bd 3248 953d
00000050: 67f5 a73d fbc9 89bd 02c4 123d 303c 833d
00000060: 5b25 723d e1b5 9d3b 1956 943d 9839 ff3c
00000070: 2ccc 8ebd f751 6c3d 58c1 7cbd 7f4b 28bd
00000080: 5634 f03b c3ce 8fbc b02f b8bb 2f8f 4c3d
00000090: d6ac af3d 91d7 b8b7 11e5 1ebd d96f 1bbd
000000a0: 1ed7 953c 0c5f 653d 2e06 e23c 6c4a 2d3c
000000b0: db5c 9cbb 68fb 5cbd 85de 72bd 458c 6b3c
000000c0: 07ee 2fbc 0de5 cfbc 2abc 87bd ada6 973d
000000d0: fbaa 893d 9e2d 4fbd b2d7 45bd 22d3 2fbd
000000e0: c775 253d 880b 55bd 08df 57bd d139 dbbc
000000f0: 0bbd 153d 60f9 a8bd c6a2 77bc e34c 033c
00000100: 421a a6bd 827e 9dbd 4567 42bd 5d56 ae3d
00000110: f84d 4f3d 6c11 613d 0be4 503d 5089 1fbc
00000120: 0e92 123d 7f53 67bd 248c 783a 03d4 a53d
00000130: 287b 8dbd 77fb 3f3d a42b 54ba 4bfe 82bd
00000140: f236 943d 10e9 963d 69ff 433c 4849 6abd
00000150: 0c3e 15bd 55ae 90bd 3687 203d 5179 67bd
00000160: 480b b8bc 2963 ccbc 2265 0a3d 91f6 68bd
00000170: dda8 67bd c14b f7bc 9501 bf3d 7f97 f6bc
00000180: 6fe3 da3c 6d78 5c3d 1171 363d bbd9 4d3d
00000190: 18bf 8b3c 26f2 583d 01af a4bd 77c5 01bd
000001a0: af0b 073d 9046 cb3c 896d 00bd 4718 c23d
000001b0: 90a8 183d b232 9b3d e21d 79bd af89 9cbd
000001c0: 48c9 9abc cc6b 0a3d 5c35 1dbd bff5 84bd
000001d0: 71d8 90bd b001 18bd 34ec a5bd f911 3d3d
000001e0: 5417 383c 6a6d 72bd 1c80 633d 2601 e3bc
000001f0: 4231 92bd 2e08 6cbd e476 dd3c fc8a 493d
0.08282542 0.0499459 -0.08509719 -0.04297519 0.017580317 0.025767332 -0.010692768 -0.042566556
0.020411212 0.061142787 -0.044886936 -0.05404128 0.03217274 0.046873596 0.07936829 0.08617697
0.06352866 0.06771426 -0.08181468 0.07289161 0.08201104 -0.06727978 0.03583146 0.06407964
0.059117656 0.0048129414 0.07242984 0.031155393 -0.069725364 0.057695355 -0.061707824 -0.041087624
0.0073304577 -0.017554646 -0.005620919 0.049941238 0.08577888 -2.203489e-05 -0.038792673 -0.037948463
0.018291052 0.055998847 0.027590837 0.010576826 -0.0047718114 -0.053950697 -0.059294242 0.014376705
-0.0107379025 -0.025377775 -0.06627686 0.07404838 0.06722065 -0.050580613 -0.048301406 -0.04292596
0.040395524 -0.05201295 -0.052702934 -0.026760967 0.03655724 -0.082506895 -0.015114492 0.008013937
-0.08110477 -0.07690145 -0.047461767 0.08512566 0.050611466 0.054948255 0.05099873 -0.009737328
0.03578382 -0.056476112 0.0009481332 0.08097079 -0.06908256 0.046870675 -0.0008093661 -0.06396159
0.072370425 0.07368672 0.01196275 -0.057198793 -0.036436126 -0.07064501 0.039191447 -0.05651218
-0.022466317 -0.024949627 0.033787854 -0.05687577 -0.056557525 -0.03018749 0.093264736 -0.030101536
0.026719777 0.053825784 0.044541422 0.050256472 0.017058894 0.052965306 -0.08041192 -0.031682458
0.032970127 0.02481392 -0.03135446 0.09477287 0.03727013 0.07578029 -0.060819514 -0.076434486
-0.018894807 0.03379421 -0.038380966 -0.06492185 -0.07072533 -0.037110984 -0.08101693 0.04615972
0.011236031 -0.059186377 0.055542096 -0.027710509 -0.071383014 -0.05762499 0.02703423 0.04920481

weight f4 [128, 128]
00000000: 467b c7bc d528 87bd c58d dc3b 9772 a7bd
00000010: 994b ac3c 85c3 8c3d cfc6 a23d 2647 103d
00000020: dbe5 693d 6199 1f3d 1429 8d3d 8d52 60bd
00000030: 79c2 753b f31b 90bd ed7e a4bc 4d3d efbc
00000040: 382c 7ebd 015c 3fbc 9ce6 73bd cd2f 2e3d
00000050: bcac e3bc 2fa2 88bb 7c7f 0abd 807e 21bd
00000060: ad2f 61bc 7ded b23d d1cc 073d 686e 7b3d
00000070: b352 a2bc 3e4c 01bc c78a 593d 4a42 b43d
00000080: 2541 aebd 12a2 3b3d 3d13 b23d 8c96 ecbc
00000090: 3b77 253d cbb1 903d 0804 afbd 5e95 7e3d
000000a0: 99ad 133c b680 7dbd 2c80 423d c39c 5ebd
000000b0: 3c77 acbd 5a49 61bd 2e1b 003d d5b3 2bbc
000000c0: 8ee5 afbd 5cc2 7e3c 9a4b 3ebd f193 a73d
000000d0: 7cf2 9a3d fa83 11bd f0ca c23a 41b7 863d
000000e0: 4e82 89bd d94d 1cbd 792a 1b3c 967c b23d
000000f0: 25aa 183c 2ddf ac3d 9b07 8b3d e158 8c3d
00000100: b0fe c23c 50f1 cc3c bd1c 843b c68c 2ebc
00000110: 89ab acbd 2115 49bd 6216 333d 1353 a63c
00000120: d0e5 453c 5e41 9f3c d049 b23d 0a2f a1bd
00000130: 0f72 9b3d 43ad 1e3d e78d 103d be15 e8bc
00000140: 5b0d ffbc dd4f efbc 64d8 85bd 94ab 4dbd
00000150: 618d 413d 3f8f c33b 26c0 9d3c 3290 8d3b
00000160: e370 523d 332c 6fbc a0b8 a0bd e50d 6abd
00000170: 5e25 76bd fd45 73bd 566d dbbc daf2 983d
00000180: 5d78 72bd fa6e 5c3d 4b53 29bd d6a9 89bd
00000190: 3a0a 773d f52e 023c dd59 e0bb 9e2c a0bd
000001a0: 19ac 013c 58f0 a4bd 33e4 6dbd 94cf 09bd
000001b0: feb2 3cbd 6633 3dbb 2f0b 3dbc a528 9abd
000001c0: a4e3 3c3d b25e 40bd dfe8 fe3c 5f5f 37bd
000001d0: 5c74 7fbd 57e9 60bd 97f1 b03c d08a 5fbc
000001e0: c56c cd3b 28f7 003d 1b0e 40bc 23e2 4b3d
000001f0: 9275 3fbd 7088 613d 4104 bbbc c622 81bd
00000200: d169 bc3d d03f 94bc 11e4 4abd ad98 793d
00000210: dfcf 033d 0f5d 90bc 0de7 d4bb 6b42 02bd
00000220: 528b 9fbd fe40 adbd 7ac5 1abd 273f c7bb
00000230: 94e5 f63c 0890 40bd e401 9bbd bfb5 49ba
00000240: 324d 9dbc 3589 d2bc c609 54bd 6aa5 c0bb
00000250: 28c3 9cbc ce3a 233d 4042 133d 3ce2 913d
00000260: 1d50 8b3d 9769 83bd 14f1 523d 629c 20bd
00000270: 486d 9dbd e4c8 383d 37d5 6dbc 5d52 9a3d
00000280: 0fc9 b13d f773 b5bb 8743 58bc f318 5d3c
00000290: 729a e63c a384 8b3d f81e ca3c bfa1 bf3c
000002a0: 3e22 6d3d 1f51 a9bc 48d7 6a3b 7cd2 71bc
000002b0: 1859 57bd b389 1b3d e7e1 aebd 691e 4fbd
000002c0: 327c a33d d0bf 70bd 98ef d3bc 2445 9a3d
000002d0: babb acbd eacd 4abd 911e f6bb edff ae3d
000002e0: ab98 3f3d e789 b0bd 5681 b33c 9853 6f3c
000002f0: db72 32bc eed4 42bd 0898 f2bc 92a5 f03a
00000300: a58f 943c a17b 953d 1394 2abb 351d 863d
00000310: 36a4 0abd a588 b73c da5b bcbc cff3 963c
00000320: 8910 9dbd ce2e 363c e43d d53c 7050 66bc
00000330: 1130 1b3d e147 6ebd 60ab 8fbb 1100 09bd
00000340: e2cd a3bd feb6 16bc 4c69 71bd 4f58 2f3d
00000350: b822 3e3d aed5 873d 0afb 71bd c943 ecbc
00000360: 7533 053d ae26 62bd 2168 43bd 230b 843d
00000370: 8872 1fbd 823d 223b 90e6 973d 0aac 44bd
00000380: 1730 7abb 02fd 5bbb b4dc 8b3d c72c 993d
00000390: 3347 c9bc 274a 243c 0265 a5bd cd00 553c
000003a0: fbae 583d 7aef 943d fe58 27bd fe87 98bd
000003b0: 934a a6bc 7859 efbb 8abd 2d3d 0d9b 903d
000003c0: 7c60 36bd a7d2 803d 05a4 6ebd 5733 913d
000003d0: 11e0 973d 70f4 b7bd edb1 92bd e01a 9dbd
000003e0: ec7a babc 0b45 20bd 8949 5ebd 6f2b 2dbd
000003f0: 0fbf e1bc 8b8d c3bc 1c30 603d e4e8 0a3d
-0.024350774 -0.06599585 0.0067307674 -0.08176153 0.021032142 0.0687323 0.07948076 0.035224102
0.057103973 0.038964633 0.06892601 -0.054766227 0.0037499948 -0.07036581 -0.020080054 -0.029204035
-0.06205389 -0.01167965 -0.059546098 0.042526055 -0.027792327 -0.0041697244 -0.033812985 -0.03942728
-0.013744277 0.087367035 0.033154313 0.06138459 -0.019814825 -0.007891713 0.053110864 0.08801706
-0.08508519 0.04580886 0.08695076 -0.02888038 0.04039691 0.07065161 -0.08545691 0.062154166
0.009013557 -0.061890326 0.047485515 -0.05434872 -0.0842118 -0.055001594 0.03127592 -0.010479887
-0.08588706 0.015549269 -0.046458818 0.081825145 0.075657815 -0.035526253 0.0014861505 0.06577922
-0.06714307 -0.03816018 0.0094705755 0.08715169 0.009317909 0.08441005 0.0678856 0.0685289
0.023803085 0.02501741 0.004031746 -0.01065368 -0.08431155 -0.049092416 0.043722518 0.020303285
0.012078717 0.01944035 0.08705485 -0.078703 0.07590114 0.038739454 0.03529158 -0.02833068
-0.031134298 -0.029212886 -0.06535414 -0.050212458 0.04725397 0.005968004 0.019256663 0.004320168
0.05137719 -0.01459794 -0.078477144 -0.057142157 -0.06009423 -0.059392918 -0.026785534 0.07468195
-0.05919682 0.053816773 -0.0413392 -0.06721847 0.060312487 0.007945766 -0.00684665 -0.0782101
0.007914566 -0.080536544 -0.058078956 -0.033645228 -0.046069138 -0.0028869747 -0.011538311 -0.075272836
0.046115533 -0.04696531 0.031116901 -0.044768687 -0.06236683 -0.05491003 0.021599574 -0.013643935
0.00626907 0.031485707 -0.011722113 0.049776208 -0.046742983 0.055061758 -0.022829177 -0.06305461
0.091998704 -0.018096834 -0.049533907 0.06093662 0.032180663 -0.017622499 -0.00649727 -0.031801622
-0.07790245 -0.08459662 -0.037785985 -0.0060805264 0.030138768 -0.04701236 -0.0756872 -0.0007694624
-0.019201849 -0.025700191 -0.051767133 -0.005879094 -0.019136027 0.039851002 0.035951853 0.07123229
0.0680239 -0.06416624 0.05149944 -0.03921164 -0.07686859 0.04511346 -0.014516166 0.07535241
0.08680927 -0.0055375057 -0.0131996935 0.013494718 0.028149817 0.06812408 0.02467297 0.023392556
0.057893984 -0.020668564 0.0035833884 -0.014759656 -0.0525752 0.037973117 -0.08539181 -0.05056611
0.07982673 -0.058776677 -0.025871083 0.07532719 -0.084342435 -0.04951278 -0.007510968 0.08544908
0.046776455 -0.08620053 0.021912258 0.014607333 -0.0108916415 -0.047566347 -0.02961351 0.0018359891
0.018134901 0.07298971 -0.00260282 0.065485395 -0.03384801 0.022404024 -0.022993017 0.018426804
-0.076691695 0.011119558 0.026030488 -0.014057264 0.037887637 -0.058174018 -0.004384443 -0.03344733
-0.079982534 -0.009198902 -0.05893831 0.042808827 0.04641983 0.06632553 -0.0590773 -0.028840916
0.032519776 -0.05521267 -0.047706727 0.06447437 -0.038927585 0.00247559 0.07417023 -0.04801563
-0.0038175636 -0.0033567552 0.06829205 0.07479244 -0.024570083 0.010027445 -0.08075906 0.013000679
0.05290125 0.07272239 -0.040856354 -0.074478135 -0.020299232 -0.0073043667 0.042417087 0.070608236
-0.04452561 0.06290179 -0.05826189 0.070898704 0.07415784 -0.0898217 -0.07162843 -0.076711416
-0.022763692 -0.039128345 -0.054269347 -0.04227775 -0.027556924 -0.023871204 0.05473338 0.033913508

bias f4 [128]
00000000: c71c 85bc b930 b1bd 0842 00bd a7ee 983d
00000010: cd44 5ebd 000d c4bc 6b4d 54bd ddbe ba3d
00000020: e94a 733d 2e2d a9bc ebc8 cdbc e8f4 4abd
00000030: 3cef 76bd d0d4 7ebc 174e acbd e9a8 8f3d
00000040: 133c e33c d899 00bc 76f7 563d a7b1 98bd
00000050: 7f52 a2bd 2559 6bbd df0e 9a3b 0e56 893d
00000060: ffa5 8cbd ba1d a1bd a580 9fbd c4c2 9bbd
00000070: e311 9b3d c2a5 a1bd 14df aebd f39c 8dbd
00000080: 47b5 193d 8ca9 723c fdbc 54bd 9a7e 61bc
00000090: 1921 613c 1d53 b2bd 8c65 02bd d6cc 26bd
000000a0: 62e5 28bb 07d2 b23d dbe1 adbd 3693 4a39
000000b0: ac35 66bd 0f9b 8cbd 8171 d43c a542 4e3c
000000c0: 92de a63d d079 d43c f248 22bd 305e 613d
000000d0: fe93 acbd bb89 0b3d 1a9a b2bd 46fe 913c
000000e0: 9f26 2d3c 952d b53d 2984 153d b211 a23d
000000f0: 2241 b13d 3be9 39bd 250b 9f3d 393f 94bc
00000100: 21c8 b1bb 1b49 82bd 29e5 003d f013 293d
00000110: 3db4 aebd a3ee afbb 1db0 25bd 5cfa a4bd
00000120: b95d 6c3d 4153 b3bc 6ac7 2c3d f72e 873d
00000130: a793 cebc 2461 b43d 3865 373c 4713 17bd
00000140: 3fed b73b ae31 14bd 542b 0bbd 5396 a03d
00000150: 028a 51bc 1e36 abbd bffa 44bc e0b6 a23c
00000160: c505 e5bc 22b8 35bd 2ff6 b63c c61a fd3c
00000170: a4d3 39bb eebd 24bc 178f 26bc c2b5 c0bc
00000180: c5d7 ca3c 9c70 87bd 4ae3 a93d a5b0 7bbc
00000190: 77c7 95bd c393 aa3c 2bd6 ebbc c569 263c
000001a0: f565 51bd eb07 82bd d727 aebd 91fd 88bc
000001b0: 5e27 adbd e276 8abd ff0d 9fbd e8d4 84bc
000001c0: d6a8 a9bd 46f4 833c 5abe 96bd cc81 af3d
000001d0: fcbe 8b3b 8b36 13bc c894 6abd 3a11 bfbc
000001e0: 0de0 a43d 8239 90bd b33c 343d 3e7a 09bc
000001f0: 6284 393d d730 89bd 936e b0bc 72bb 223d
-0.016249074 -0.08651871 -0.031312972 0.07467394 -0.054264832 -0.02393198 -0.051831644 0.091184355
0.05939761 -0.020651426 -0.02512022 -0.049549967 -0.060286745 -0.015553668 -0.08413332 0.07014639
0.027738607 -0.007849179 0.05248209 -0.074557595 -0.07925891 -0.05745806 0.00470148 0.06705867
-0.06867599 -0.07866998 -0.07788209 -0.07605508 0.07571771 -0.07892944 -0.085386425 -0.06914701
0.037526395 0.014810931 -0.051938046 -0.013763094 0.013740801 -0.08707259 -0.031835124 -0.04072269
-0.0025771488 0.08731466 -0.08490344 0.00019319062 -0.05620353 -0.068655126 0.02593303 0.0125891315
0.08147921 0.025936991 -0.039620347 0.055021465 -0.08426665 0.034066897 -0.08720799 0.017821442
0.01056829 0.08846585 0.03650299 0.07913531 0.08655001 -0.04538844 0.077657975 -0.018096553
-0.0054254686 -0.063616 0.031468544 0.04127878 -0.085304715 -0.005369024 -0.040451158 -0.08055565
0.05770657 -0.021890284 0.042182364 0.06600755 -0.02521689 0.088075906 0.011193566 -0.03688362
0.0056129987 -0.03618019 -0.033976868 0.07841172 -0.012789251 -0.083599314 -0.012022673 0.019862592
-0.027956853 -0.044365056 0.022334186 0.030896556 -0.0028354907 -0.010055048 -0.010165951 -0.023524169
0.02476109 -0.066132754 0.08295305 -0.01536194 -0.073134355 0.020822411 -0.028788647 0.010157053
-0.051122624 -0.063491665 -0.085036926 -0.016722472 -0.08454774 -0.06760956 -0.077663414 -0.016214803
-0.08284156 0.01610769 -0.073605254 0.08569679 0.0042647105 -0.008985172 -0.057270795 -0.023323644
0.08050547 -0.07042219 0.0440032 -0.008390961 0.045292266 -0.066987686 -0.0215371 0.039729543

weight f4 [2, 128]
00000000: 6f33 883c 0413 7f3d a5c9 8ebd 3d39 59bb
00000010: a9f7 9fbd 69df 4abd ac68 16bd 59ae 19bd
00000020: ec05 873c 74d2 903c 1107 9bbd 8bba 063b
00000030: edd2 9bbd db63 c2bc 2659 5abd e0c6 09bc
00000040: 7118 86bd fad7 f73c bb36 893d 9b3d a5bb
00000050: 35f6 8b3c 4a2a 95bc f2b0 34bd 8624 a73d
00000060: 0a3f 8d3d 3951 4f3c f080 913d 47c7 d5bc
00000070: 0b7f 0cbd 2e12 b23d 09bf a1bd 629c 1ebd
00000080: d8b3 b43a 32e6 a9bc 0f89 83bd 5666 993d
00000090: f630 563c 9ac7 ad3d 6def 69bd fff5 77bd
000000a0: e992 263c 9e4d 2dbd 8c0b b5bc 90af 4ebb
000000b0: b2bd 023d eee3 95bd 1a52 863d 258c e83c
000000c0: b7d1 4b3d 192f ae3d f532 4ebd dad2 9d3c
000000d0: 6252 febc 46fa e73b a8f5 3cbd 5060 a03c
000000e0: 2ec2 44bd f7b7 e93b 0b43 573d dab1 9e3d
000000f0: c270 99bd 09b5 8fbb 3dbf 053c 90e6 d33c
00000100: 5224 a0bd b024 183a d46b 933d 8fb0 8e3d
00000110: 8033 053d 0b49 0d3b 36db d2bb 5cd2 a33d
00000120: f506 b23d a649 4dbd 8672 3dbd 45bd 38ba
00000130: 45d1 4ebd 5733 2a3d 129c c93c ba65 2a39
00000140: abca 343d 87a0 26bc 9ba2 0cbd 8a1a 29bd
00000150: bf5b 043d 28ce 8e3d bcab acbd 7209 273d
00000160: fd02 1fbc aeeb 93bc 76d2 91bd 323a a23d
00000170: 8a73 01bb 3465 913c 3de8 1c3d 5b7a 9a3d
00000180: 8406 9e3d a233 ed3c c57e a5bd c224 adbc
00000190: e3d4 903d 0f77 8bbd 5028 323c 5e9d b23d
000001a0: 8ff6 a93d 62fc 13bd 08b2 933d 1137 b63d
000001b0: f39e af3c cd88 473c 44d5 2abd d9a6 a6bd
000001c0: aceb 793d 5259 f63c c659 803c 6414 94bc
000001d0: 8c5e 63bd 74cb 583c b845 bb3c 9100 bc3c
000001e0: 18bf ad3d a443 2cbc 312c 90bd a302 86bd
000001f0: 6082 97bd f5cc 24bd e243 1cbb 4837 1bbd
00000200: 7147 653d ef4c 27bd fc1e 283d c15c a6bb
00000210: 22fe 40bd a1e5 963c 4658 5abd 92bc 013d
00000220: 3ee2 95bd da32 7f3d 4272 0ebd e836 543d
00000230: 47ef 7fbb 4096 ed3d 4572 863d 5bb7 74bd
00000240: d800 7ebd 2254 133c c9c9 15bd 9409 1cbd
00000250: 45f5 53bd 5b85 8cbd 078d 2dbc e981 94bd
00000260: 515f 3c3d 5ac7 69bd c7ce 82bd 0c75 ad3d
00000270: e09e 1f37 578e f23c f236 0c3d 70fd e7bb
00000280: f092 0a3d d76e 133c 58ed 373d 2d85 9a3d
00000290: ed66 4fbd 2410 1dbd 75ba 48bd f3f4 613d
000002a0: e2e4 90bd 471a c13c ba82 a0bd 0f65 5dbd
000002b0: 593f 81bc a00b cb3c ed18 bcbc 73ac d3bc
000002c0: 48b2 323c 5883 8abd 9419 7e3d c2c4 9cbd
000002d0: 2f90 dcbc 257c 13bd ebed 4f3d 53e5 54bc
000002e0: a43e b33d 2856 b03d bd09 3b3d cfce 3bbd
000002f0: f0ec 0a3c d2f0 243b 9998 8e3c 107e 85bc
00000300: 69cc 9f3b 4d76 9fbc ea04 b03d 7b51 58bc
00000310: 6642 a43d fcc8 37bc 6f30 56bd e32b ce3b
00000320: 9b75 eabc 46d0 b93b 5ed2 49bd 2b1e 8ebd
00000330: 5396 c6bc f296 8a3c 0637 9f3d a015 903d
00000340: 8124 b03c 51f9 86bd dd13 9abd baca 233c
00000350: 7bf5 a0bd 0f6b 623d 5815 94bc 2138 1ebd
00000360: 784c 343c 8330 bd3c ed7e 76bc 1692 80bc
00000370: 2c5f cbbc 064c 2dbc 87f1 e5ba 8c3a 82bd
00000380: 9675 71bd 639c 5cbd d953 87bd 56e5 443c
00000390: fc96 e53c 98c3 a0bd 36ff 2bbd 8dbf 76bd
000003a0: 0179 403d 8e29 6ebd 84f9 8abc e8d3 173c
000003b0: 5ed1 643d 81aa 9cbd ba11 b0bc 83fd 553d
000003c0: 8e1c 2e3c c596 993c 5db7 263d a99e 963c
000003d0: 1b39 b53d 52dd cf3c 1d89 94bd ba8a 7cbd
000003e0: 542e 233d d579 223c c911 b13c e8b6 983c
000003f0: 14b1 8cbd efe7 32bb 10c4 8d3b 25cc 6fbd
0.016626088 0.062273994 -0.069720544 -0.003314569 -0.07810909 -0.049529467 -0.036720917 -0.037519787
0.016482316 0.017678477 -0.07569707 0.0020557966 -0.0760859 -0.023729255 -0.053307675 -0.008409232
-0.065476306 0.030254353 0.06699892 -0.0050427443 0.017085174 -0.018208642 -0.04411406 0.08161263
0.06896789 0.012653642 0.07104671 -0.026096 -0.034300845 0.08694874 -0.07897765 -0.038723357
0.0013786508 -0.020739648 -0.06422626 0.07490222 0.013073197 0.084853366 -0.0571131 -0.060537335
0.010166862 -0.04231035 -0.022100233 -0.003153775 0.03191919 -0.07318865 0.065586284 0.028387139
0.049760547 0.08505077 -0.050341565 0.01926558 -0.031045143 0.0070793955 -0.046132714 0.019577175
-0.048036747 0.007132526 0.05255417 0.07748766 -0.0749221 -0.0043855947 0.008163271 0.025866777
-0.078194275 0.00058038067 0.07198301 0.0696727 0.032519817 0.002155843 -0.0064348234 0.07999107
0.08692733 -0.050119065 -0.046251796 -0.00070472463 -0.050492544 0.041552868 0.024610553 0.0001625036
0.04413859 -0.010170109 -0.03433476 -0.041285075 0.03231406 0.06972915 -0.08431193 0.040780492
-0.009705302 -0.018056717 -0.0712022 0.07921256 -0.0019752705 0.017748453 0.038307417 0.07542869
0.077160865 0.028955285 -0.0808082 -0.021135692 0.07071855 -0.06809818 0.010873869 0.08721422
0.082989804 -0.036129363 0.07211691 0.08897222 0.021438098 0.012178612 -0.041707292 -0.081372924
0.06101577 0.030071888 0.015667807 -0.01807613 -0.05551009 0.013232101 0.022860393 0.022949489
0.08483714 -0.010514174 -0.07039679 -0.06543472 -0.07397914 -0.040234525 -0.0023844172 -0.037894517
0.055976335 -0.040844854 0.041045174 -0.005076975 -0.04711736 0.018420042 -0.05330684 0.031673975
-0.07318543 0.062304355 -0.034776933 0.051810175 -0.0039052533 0.116009235 0.06564764 -0.059745174
-0.062012523 0.008992227 -0.03656939 -0.038095072 -0.05174758 -0.06861373 -0.010592706 -0.07251341
0.04598934 -0.057074882 -0.06387096 0.084695905 9.5141295e-06 0.029608889 0.034232087 -0.0070797727
0.033831537 0.008998594 0.044904083 0.075449325 -0.050635267 -0.03834547 -0.049005944 0.055165242
-0.07074906 0.0235721 -0.07837434 -0.054051455 -0.015777277 0.024785817 -0.022961104 -0.025839066
0.010906763 -0.06763333 0.062036112 -0.07654716 -0.02692422 -0.036007065 0.050764006 -0.012994128
0.08752182 0.08610183 0.045663584 -0.045851525 0.008479342 0.0025167954 0.017406749 -0.016295463
0.0048766625 -0.01946559 0.08594687 -0.01320302 0.08020477 -0.011217352 -0.052292284 0.006291853
-0.028620532 0.00567058 -0.049272887 -0.06939348 -0.024241602 0.01691768 0.07774167 0.07035375
0.021501781 -0.06590522 -0.0752332 0.009997064 -0.07859322 0.05527788 -0.018076584 -0.038627747
0.01100456 0.023094421 -0.01504491 -0.01569466 -0.024825655 -0.010577207 -0.0017543294 -0.06358823
-0.05895003 -0.05386008 -0.066077895 0.012017569 0.028026097 -0.078498065 -0.041991435 -0.06024127
0.0469904 -0.0581451 -0.016964681 0.009266831 0.05586373 -0.076497085 -0.021492828 0.05224372
0.010626925 0.01874865 0.040702213 0.018386202 0.08848783 0.025374088 -0.07252715 -0.061655737
0.039839104 0.009916742 0.021614926 0.018641904 -0.068697125 -0.0027298888 0.004326351 -0.058544297

bias f4 [2]
00000000: dfc0 9bbc 0294 703c
-0.019012867 0.014683725
