model_saved/epoch_3.pth (torch, 139919 bytes, 8 tensors)

weight f4 [128, 6]
000000 b8 03 d5 3d f6 c0 2e 3e e2 65 2a 3e e7 e5 9d 3e
       0.104011 0.17065796 0.16640428 0.30839464
000010 f6 63 15 bc 58 3e 9c 3e 7f a6 8c 3e 6e bb a2 3d
       -0.009118071 0.30516315 0.27470776 0.079459056
000020 4e ee 3a 3c ca b6 5b 3e 86 3f 48 3d 03 46 af be
       0.011409355 0.21456447 0.048888706 -0.34233102
000030 7c ef 3e be ba e4 90 be d8 58 b1 be 84 02 2d be
       -0.18646044 -0.28299505 -0.34638095 -0.16895491
000040 b6 ef a9 3d f3 d8 6c 3e 0f 5c 64 3e c5 f1 4f 3c
       0.08297674 0.23129635 0.22300743 0.01269192
000050 2a b9 76 bd f8 5b 52 be 61 58 1e be 53 2f 8b bd
       -0.06023518 -0.20542896 -0.15463401 -0.06796136
000060 db 8f a0 3d 78 ad 6d be af 53 25 3e 16 e1 97 be
       0.07839938 -0.23210704 0.16145204 -0.29663914
000070 03 57 91 bd c4 31 89 be 73 47 b7 be 95 fe 51 be
       -0.07096674 -0.2679578 -0.357967 -0.20507272
000080 5c 38 f8 3c 6c 2f 9f be db 69 9a be fb c6 8a be
       0.030300312 -0.31090868 -0.30158886 -0.27104935
000090 28 a2 e8 bd 51 59 b6 3d 6f 65 90 3d 82 e2 03 3e
       -0.11359054 0.089037545 0.07050597 0.12879375
0000a0 1a 70 a9 be 10 11 b4 3e b0 f0 9e bc 4d a7 ac 3e
       -0.3309334 0.35169268 -0.019401878 0.3372139
0000b0 56 dd 1d 3e a5 29 84 3e ba 36 80 3e 7d 62 c9 be
       0.15416464 0.25813022 0.25041753 -0.39332953
0000c0 8f 0d 98 be 35 4a 84 be af d5 3e 3e c3 be cf 3e
       -0.29697844 -0.25837865 0.18636201 0.40575227
0000d0 81 f6 9d 3d 90 49 89 3e 44 ed 98 3c a3 f6 03 be
       0.077130325 0.26813936 0.018667825 -0.12887053
0000e0 b9 48 85 3e 31 3e 69 3e 85 ea 5a 3d d5 a0 9d 3e
       0.26032045 0.2277763 0.05344631 0.30786768
0000f0 77 89 48 be 8e 7b 8a be 1b bf 87 be 50 ec 60 be
       -0.19583689 -0.2704739 -0.2651299 -0.21965146
000100 1c c2 b2 bd a9 a1 0b 3d 72 35 07 3e 33 8e 24 3e
       -0.0872843 0.034089718 0.13203982 0.1606987
000110 0b 2f cb bd 86 e0 ed bd 10 56 aa be 87 7c 9e 3c
       -0.09921082 -0.1161509 -0.33268785 0.019346489
000120 11 a1 3e be 1e b1 ab 3e dc 0e 96 3e 83 16 83 3e
       -0.1861613 0.33533567 0.29308212 0.25603113
000130 8d 4a bf 3e a7 dc cf 3e 85 ad ae 3e 88 c9 82 bd
       0.37361565 0.40598032 0.3411676 -0.06386095
000140 46 0b 1f bd 0e d0 54 be bf 7d 3c 3e 5f 44 a5 be
       -0.03882911 -0.20782492 0.18407343 -0.32278726
000150 fc 78 f7 bc 38 62 28 be 7c fa c8 3e 8c 33 aa 3e
       -0.030209057 -0.16443717 0.39253604 0.33242452
000160 8a 15 31 be 32 02 cc 3e 23 26 12 be e8 23 0d 3e
       -0.17293373 0.39845425 -0.1427236 0.13783228
000170 57 12 44 bc 6a ee b1 3b b1 6d cc 3e 14 d1 6a 3e
       -0.011967263 0.0054300325 0.39927438 0.2293132
000180 45 40 60 be af 0a 75 3e 38 54 49 be 63 e2 a3 3d
       -0.21899517 0.23929857 -0.19661033 0.08002164
000190 a3 8d bb 3e 6d 6b bd be 14 13 c0 3e 1a 38 b6 be
       0.36631498 -0.36996022 0.37514555 -0.35589677
0001a0 33 18 6c 3e 36 44 a7 3d 98 f9 b4 3e ac 54 4d be
       0.23056106 0.08167307 0.35346675 -0.20051831
0001b0 60 d9 a7 3d 4f 80 6f be 7b 63 d5 3d c2 ae 03 3e
       0.08195758 -0.2338879 0.10419365 0.12859634
0001c0 61 25 83 bd d9 4f a6 3e f0 de 40 3e 1e 9b 1e be
       -0.06403614 0.32482794 0.18835044 -0.1548886
0001d0 d2 c1 75 be 19 41 65 3e f8 29 1f be 0e 88 b3 3e
       -0.23999718 0.22388114 -0.15543354 0.3506474
0001e0 34 21 ea 3d 91 ef b9 bd 47 bc c3 be c4 9e ab be
       0.11432114 -0.09078897 -0.38229582 -0.33519566
0001f0 1b ed 5c 3e 56 13 0b be a2 bd 44 3d f2 05 92 3d
       0.21574824 -0.13581595 0.04803241 0.0713004
000200 60 89 17 be 2b 40 89 3d 6e 77 94 bd 37 c0 4a be
       -0.14798498 0.06701692 -0.07249342 -0.19799887
000210 9c 62 24 3e 32 f7 7d 3c 69 1e 05 be 56 8e 1c bd
       0.16053241 0.0155008305 -0.12999882 -0.03822168
000220 af 52 be be 05 0a 5c be 2d ce b8 3e 1b c5 dd bd
       -0.37172458 -0.21488197 0.360948 -0.108286105
000230 7c cf 41 be bd f2 64 3e df db c7 be 3a 8e e9 bd
       -0.18926805 0.22358222 -0.39034936 -0.11404081
000240 ad ee 8e be 1d 84 bd 3e d3 cf 8f be 53 0c f2 3c
       -0.2791647 0.37014857 -0.28088245 0.029546892
000250 6a bc aa 3e 78 72 81 bc 52 3c aa 3e eb b2 b8 be
       0.33346874 -0.015801653 0.33249146 -0.36074004
000260 86 02 a5 3e 4f d3 c5 3e 20 b2 90 be f1 08 b7 3e
       0.32228488 0.38637778 -0.282609 0.3574901
000270 ce ad 96 be 6a c0 5a be 5a 3c 2d 3e 84 1b 99 be
       -0.29429477 -0.21362463 0.16917554 -0.29903805
000280 d3 92 89 be d3 a9 8e 3e 99 b4 0f be ed 70 83 3e
       -0.2686983 0.2786394 -0.14033736 0.25672093
000290 03 b0 2a bb 88 2d ad be 86 05 8b 3e dc 06 d3 bd
       -0.0026044853 -0.338238 0.27152652 -0.10304043
0002a0 c2 22 a0 be 2d b6 dc bc 9c 9c 93 3e be f4 df 3d
       -0.31276518 -0.026942337 0.2883042 0.10935353
0002b0 a9 41 9b 3e f4 cb a4 3e 80 92 b0 3d 70 1a dd bc
       0.30323532 0.32186854 0.08621693 -0.026990145
0002c0 b5 19 a9 3b 48 c8 b2 3e fe b5 ca 3e 57 fe 1b 3e
       0.005160535 0.34918427 0.39591974 0.15233742
0002d0 25 61 a6 be f3 41 c7 3e 28 71 c7 3e ae e5 b2 bd
       -0.3249599 0.38917503 0.3895352 -0.08735214
0002e0 1b 0b 0e 3e 02 58 ce 3e 7c b2 c8 3d 32 88 75 be
       0.13871424 0.4030152 0.09799668 -0.23977736
0002f0 7e de a8 3e f8 7e 80 be 41 fb ca 3e 7f 49 60 be
       0.32982248 -0.2509687 0.39644817 -0.21903037
000300 69 c3 95 3d 60 f9 cd 3e 82 80 1d 3e 6f 4d a5 be
       0.07312662 0.4022932 0.15381053 -0.3228564
000310 9c 73 ac be fc d3 b0 be 21 be da bd dd 97 8f be
       -0.33681953 -0.3453673 -0.106807955 -0.2804555
000320 fa 6d 58 3d 56 10 a8 bd 92 82 22 3e f6 e8 9b 3d
       0.052839257 -0.08206241 0.15870121 0.07612793
000330 c6 cc fc bc 1a 83 99 3e 5b 64 a4 3e 74 76 af 3e
       -0.030859362 0.29982835 0.32107815 0.3427006
000340 54 de a5 3e b7 2d 4d be de 34 0b 3e 39 b6 ca bd
       0.32396185 -0.2003697 0.13594386 -0.098980375
000350 7e c5 6e 3e a6 17 a9 be 41 21 b3 bd a4 df 21 3e
       0.23317525 -0.33025855 -0.08746577 0.15807968
000360 79 ff 90 bd 6a 6b 28 3e 5c e8 d4 3d 3c 7b 00 be
       -0.070799775 0.16447225 0.103958815 -0.1254701
000370 30 13 ba bd e8 2d c1 be 65 ed d0 3e 2a de 3f be
       -0.09085691 -0.37730336 0.40806118 -0.18737093
000380 8a 27 7d 3e 4d 62 39 3e 76 2f 96 3d 8f ae d2 be
       0.24722114 0.18103905 0.07333271 -0.41148803
000390 77 0a b0 bd d5 90 bf 3e d3 ed 9c 3e 9f da 88 3e
       -0.08595746 0.37415186 0.30650195 0.26729295
0003a0 c2 e6 82 3e 7c 34 e9 3d b4 7f c6 be 19 8d 09 be
       0.2556668 0.11386964 -0.38769305 -0.1343273
0003b0 32 d0 08 be 90 da 7b 3e 51 68 02 3e 78 23 a4 be
       -0.1336067 0.24595094 0.12735106 -0.3205831
0003c0 52 f9 92 be 19 54 62 3e 08 8e b6 be 5f fb 67 3e
       -0.2870584 0.22102393 -0.35655236 0.22654484
0003d0 49 64 d8 bd 20 12 21 3e eb a2 ac 3c ef 2f bd 3c
       -0.10566003 0.1572957 0.02107378 0.023094146
0003e0 c7 4e 31 be 7f da 3e 3e a3 85 a0 3d 68 65 50 3e
       -0.17315207 0.18638037 0.07837989 0.20351183
0003f0 2a d2 89 bd 29 05 10 3e 4f 58 58 3d 8b 1c 28 be
       -0.06729539 0.14064468 0.052818593 -0.16417138

bias f4 [128]
000000 55 62 98 be 4f c9 6b bd b0 d2 c3 3e a5 87 33 3e
       -0.2976252 -0.05756503 0.3824668 0.17532213
000010 12 2f cb 3d 10 94 0a 3e 46 7a 21 be fe d0 56 be
       0.09921087 0.13533044 -0.157693 -0.20978162
000020 86 5e be be a5 b7 66 be 29 f0 4a be 8f 8e 67 be
       -0.3718149 -0.22530992 -0.19818176 -0.22612976
000030 07 d9 b8 be be 05 13 3d f7 ae 8f 3e dc 3f 82 be
       -0.3610308 0.035894148 0.28063175 -0.25439346
000040 9b 0f 3a be 34 0c a3 3e 03 23 a7 be b3 25 01 be
       -0.18170016 0.31845248 -0.326439 -0.12612037
000050 8f 4a 8f be 14 8c 6a be 62 b6 2d bd b5 0d 28 bd
       -0.2798657 -0.22904998 -0.042410262 -0.041028697
000060 01 f5 09 be 59 f5 5b be 09 d3 cf bd 92 93 99 3e
       -0.13472368 -0.21480311 -0.10147674 0.299954
000070 8e ec a0 bc ec 69 89 3d 82 cd 46 3e 54 28 be 3e
       -0.019644048 0.06709656 0.19414333 0.37140143
000080 d5 4b f4 bc 36 9e 37 be b6 3a f8 3d b6 e8 ae 3e
       -0.029821316 -0.17931446 0.12120573 0.3416192
000090 41 bf 57 bd 49 a1 48 3d a5 1e 01 3d d1 d1 7e be
       -0.05267263 0.04898194 0.031523366 -0.24884726
0000a0 0c 07 7c be cd d1 b0 3c 80 82 41 bd 6e 2f af bd
       -0.24612063 0.021584416 -0.047243595 -0.08553968
0000b0 19 43 b1 3c 56 17 84 bd a0 2f 3f bc 9f 6f 9d 3e
       0.02163844 -0.064497635 -0.0116690695 0.30749223
0000c0 c2 e5 2e be 21 2d f0 bd c6 8d 87 be b5 d6 41 be
       -0.17079833 -0.11727358 -0.26475352 -0.1892956
0000d0 2a 6d 18 3e 35 4a cd 3e ce 5a 62 3d 14 d8 14 3e
       0.14885393 0.40095678 0.05526238 0.14535552
0000e0 61 f8 93 3d dd 3c cc be 96 a3 7b 3e f9 cd 44 bd
       0.07225109 -0.39890185 0.24574122 -0.048047993
0000f0 46 68 9d be ed 49 64 be 50 12 aa be eb e4 b9 3e
       -0.30743617 -0.22293825 -0.33217096 0.36307463
000100 0e 06 ad bd 75 01 11 3e 9f 53 88 bc ec a9 ba 3e
       -0.084484205 0.14160712 -0.016641436 0.36457765
000110 2d 8b b4 be 61 82 54 3e b1 38 93 39 ff 01 b4 be
       -0.35262433 0.2075286 0.00028080263 -0.35157773
000120 9a 8f 03 be d8 dc b9 be 3e 5d 7b bb e6 bb 1b 3e
       -0.12847748 -0.36301303 -0.0038355137 0.15208396
000130 16 eb ab be bb ac 96 3c 5c a0 06 bd de aa 88 3e
       -0.33577794 0.018392911 -0.032867774 0.2669286
000140 0f 6e 6f be 37 38 c8 3e cd 25 9f bd e9 cc 74 be
       -0.23381828 0.3910539 -0.07770882 -0.23906292
000150 f6 9d 34 3e e9 43 8e 3e aa 0e 28 be 7a eb cb be
       0.17638382 0.27786186 -0.16411844 -0.39828092
000160 06 4d 54 3e 25 bc f9 3d 96 0e 95 3e 85 1f b5 3e
       0.20732507 0.12194089 0.2911269 0.3537561
000170 88 e9 31 bd 68 18 51 3e 77 7b 3e 3e d7 80 27 be
       -0.043435603 0.20419466 0.18601786 -0.16357742
000180 d0 d2 a0 bd b3 bd 30 3d 6e bc 57 bd a4 b7 88 be
       -0.07852709 0.04314966 -0.052669935 -0.26702607
000190 d1 83 af 3e ea f2 b0 bb 58 59 99 be da 80 4b be
       0.34280255 -0.0054000514 -0.29950976 -0.19873372
0001a0 ec de 0b 3e 72 3e f2 3d 74 ea b3 3e d8 02 7f 3e
       0.13659257 0.11828317 0.3513981 0.24903429
0001b0 1e 8a b2 3e c6 12 85 be ed f6 9e 3d 50 9c ae 3e
       0.34871 -0.25990885 0.07761941 0.34103632
0001c0 fd 0f 78 3e 2f 7d 1a be 33 68 92 be 0d f0 0d bd
       0.24224849 -0.15086816 -0.28595123 -0.03465276
0001d0 54 00 e1 3d 96 ea 33 be 2b 6b 70 3e cf 5d df 3d
       0.10986391 -0.17569956 0.23478381 0.109065644
0001e0 c7 81 c0 be 99 be a6 be 69 c0 bf bd 9a 56 cc 3e
       -0.37599012 -0.3256729 -0.09362871 0.39909822
0001f0 66 1b bf be d6 85 09 bd eb 2d 07 3e 98 f2 c2 bc
       -0.3732559 -0.0335749 0.1320111 -0.023797318

weight f4 [128, 128]
000000 2a 7d 17 bd 24 45 87 3d 17 a1 52 3c 95 04 84 bc
       -0.0369846 0.066049844 0.01285579 -0.016115466
000010 52 27 47 3c 34 a9 8c bd 83 a3 ef bc 0f a6 09 3c
       0.012155371 -0.068682104 -0.029252773 0.008401408
000020 9f 12 28 3d 30 7a d0 3b ab e5 4c bc c9 82 8c bd
       0.041033383 0.006362222 -0.012505929 -0.06860883
000030 a2 3f a2 bd d2 05 2b bc 4f e3 50 3d 08 a7 89 bd
       -0.07922293 -0.010438399 0.05099803 -0.06721312
000040 71 85 63 bd e7 c3 0f 3d 78 05 8f bd 66 ca aa 3d
       -0.05554718 0.035098936 -0.06983465 0.08339386
000050 09 bf eb 3c af a6 a2 3c e5 5d 97 bd 12 32 21 3d
       0.028777616 0.019854872 -0.07390956 0.03935439
000060 5c db c4 bc e8 0f d6 ba d6 13 77 bc 51 10 79 3d
       -0.02403038 -0.0016331645 -0.015080413 0.060806576
000070 ea 78 18 3d 8d c4 71 bc 96 54 09 3d 13 df 81 bd
       0.037224688 -0.014756334 0.033527933 -0.06341376
000080 f0 31 4c 3d 07 2d 1d bb 33 73 83 3d 6a d7 90 bc
       0.04985231 -0.0023983137 0.06418457 -0.017680842
000090 da 46 93 bc 1d e9 7a 3d cc b3 a9 3d 0d 36 c8 bc
       -0.01797812 0.06125747 0.08286247 -0.024439836
0000a0 db 55 87 ba 3b 9a 83 3d d3 be 2a bb b3 8c 05 3d
       -0.001032527 0.064259015 -0.0026053682 0.032604884
0000b0 51 47 b7 bd 56 f5 8b bd b3 c0 aa 3b 60 8a d4 3a
       -0.089491494 -0.068339035 0.00521096 0.0016215555
0000c0 f7 8b 31 bd 51 65 67 bd e0 22 60 bd 07 31 a0 bc
       -0.04334637 -0.056493107 -0.05472076 -0.019554628
0000d0 65 bc 43 3d 91 e5 9a bc 89 d0 0f 3c 6d bf 27 3d
       0.04778709 -0.018908294 0.008777746 0.040954042
0000e0 87 7c 63 3d e2 d0 18 bd 21 9f 0e b6 1a a4 7c bd
       0.05553868 -0.03730858 -2.1252274e-06 -0.061679937
0000f0 b5 6c 08 3d 4e eb a2 3c 9d c4 84 3c 98 c8 ae bd
       0.033306796 0.019887593 0.016207034 -0.08534354
000100 07 f9 55 3d 6e 66 77 bd bf 2f 9c 3d 82 97 3b 3c
       0.052239444 -0.06040042 0.07626294 0.0114496965
000110 74 46 51 3d e5 fb 75 bd 83 3b 1b bd 55 d9 37 3d
       0.05109258 -0.06005468 -0.03789855 0.044885
000120 b1 17 a2 bd e2 f1 8b 3d a6 12 4d 3c ef 37 3c 3d
       -0.07914675 0.06833245 0.012516653 0.04595178
000130 71 69 1d bc 6a c5 af bd 7b 3a 82 bd 82 04 43 bd
       -0.009607659 -0.085825756 -0.063588105 -0.04761172
000140 29 8d a6 bd 03 48 92 bd b1 bc 7e 3d ce f8 ad 3d
       -0.08132393 -0.071426414 0.06219167 0.08494721
000150 9a da f7 3b 4e 92 d6 3c 01 77 9b bd be d9 82 3c
       0.007563901 0.02619281 -0.075910576 0.015972968
000160 89 61 ef bc fd 5d 89 3d 2a 49 96 bd 2c f8 d3 3c
       -0.029221313 0.0670738 -0.07338174 0.025875174
000170 31 c5 b0 3c 99 39 9b 3d 25 e9 21 3d f4 99 7b 3c
       0.021578403 0.07579345 0.039528985 0.0153565295
000180 f4 a8 ad bd 5d e6 c1 3b 3b 0d d9 3c 3f 25 93 3c
       -0.08479491 0.005917354 0.026495567 0.017962096
000190 a7 2f c8 bb 5e 6d 9a bd 97 e2 93 bd 70 3d 15 3d
       -0.006109196 -0.075403914 -0.07220953 0.036435544
0001a0 61 4a 3b bd 52 c3 7e bd 9b c4 b5 bd b8 f2 d4 3c
       -0.04572523 -0.06219799 -0.0887539 0.025994644
0001b0 3c 88 4e bd ad 7f 8d 3d 1f 27 f1 3c e4 f8 e1 3c
       -0.050422892 0.06909118 0.0294376 0.0275845
0001c0 47 18 37 bd 41 53 ef 3b f1 0f b2 bd ae 69 3a bd
       -0.044700887 0.007303626 -0.08694447 -0.04551094
0001d0 8f f0 9c 3c b5 d4 88 bd de 58 a4 3d a4 cc b5 bc
       0.019157676 -0.06681196 0.080247626 -0.022192307
0001e0 42 4a 87 3c 69 a8 f6 3a 2b 6f 28 3c 04 19 45 bd
       0.016514901 0.0018818501 0.010280411 -0.04811956
0001f0 46 17 e3 3b bc 3a a9 bc b7 7f a7 bd ee 90 1d bd
       0.0069302646 -0.02065789 -0.081786565 -0.038468294
000200 78 fd 3e bd 52 f4 da bc 59 2a 18 bd 03 1e 56 3c
       -0.046628445 -0.02672783 -0.03714976 0.013068679
000210 99 57 6d bd 0e 83 ac 3d 7a 67 b7 bb 3a 6a a4 bd
       -0.057944868 0.08423434 -0.005597052 -0.080280736
000220 81 42 82 3d ce a4 96 bd d1 51 ae bc 36 29 0e bb
       0.06360341 -0.07355653 -0.021279247 -0.0021692044
000230 75 f9 71 bd 0d 91 58 bd 80 56 93 bc 76 a4 81 bd
       -0.05907579 -0.052872706 -0.017985582 -0.063301966
000240 c1 2f 82 bc 8a f3 ac bd 87 68 2a bd c2 e1 93 3c
       -0.015891911 -0.08444889 -0.04160359 0.018051986
000250 46 31 88 3d 51 e7 a3 bc 8f 6f 51 3c 6f 21 9d 3d
       0.06650023 -0.020007761 0.012782945 0.076723926
000260 ef 75 e7 bc 64 79 89 bd 8b 33 02 3d ef c7 42 bd
       -0.028254477 -0.067126065 0.031787436 -0.047553953
000270 ae 56 6e bd d8 b4 1a bd 45 78 87 3d b0 4b b2 3d
       -0.058188133 -0.037770122 0.066147365 0.087058425
000280 af af 5d bd 70 40 eb 3c 28 cf 76 3b 36 51 98 bd
       -0.054122623 0.02871725 0.0037660096 -0.07437365
000290 e9 ff 3f 3d 74 b3 af bd 2f e1 3e bd 78 51 66 3d
       0.046874914 -0.0857915 -0.04660147 0.05623004
0002a0 f9 38 16 3d 24 8c a0 3c a6 b7 08 bd 57 b9 9a bd
       0.036675427 0.019598074 -0.033378266 -0.07554882
0002b0 37 c7 d8 3c e2 00 42 3d a0 ef 4b bd 4e 6f 69 bd
       0.02646218 0.047364123 -0.04978907 -0.056990914
0002c0 c7 d2 ac 3c 1b 43 6c bd f3 f0 8a 3d 3c c6 82 3c
       0.0210966 -0.057681184 0.06784239 0.015963666
0002d0 6c ac 74 bd b8 72 96 3d b9 9d cb 3c 9c bd 37 bd
       -0.059734747 0.073460996 0.024855481 -0.04485856
0002e0 0c 6f 35 bd 87 3f ad 3d 05 2f cf 3b b6 2b 96 3d
       -0.044295356 0.084593825 0.006322744 0.07332556
0002f0 ee 78 d0 3c 06 f5 88 3d 67 da 6f 3d bf 2a 97 3d
       0.025448289 0.066873595 0.058557894 0.073812
000300 6d 01 90 bd e1 f8 91 bb 19 63 06 bd 76 bb 60 bd
       -0.07031522 -0.0044547175 -0.03280935 -0.054866277
000310 c4 bf 84 bd 7d c1 a5 3d 11 52 7d bd 74 56 79 ba
       -0.06481889 0.080935456 -0.061845843 -0.0009511479
000320 70 9e a9 3d ea 21 87 bd 66 ae 48 3d 47 a2 38 3d
       0.08282173 -0.065982655 0.048994444 0.045076635
000330 b4 f3 f9 3c ac 36 30 3c f0 bd 65 bd c4 7f 8b 3d
       0.030511715 0.010755222 -0.05608934 0.06811479
000340 10 9d 9c bd 46 48 ed bc 0f 90 88 bd bb 15 22 3c
       -0.07647145 -0.028965127 -0.06668102 0.009892876
000350 92 a5 c0 bb bf d8 0d 3d ec b6 1c bc 81 7c b3 3a
       -0.0058791125 0.034630533 -0.009565096 0.0013693721
000360 72 68 a5 3d 63 c5 0e 3d bd f2 99 3d 56 b6 34 bd
       0.08076562 0.03485621 0.07517002 -0.0441192
000370 c0 60 2d 3d 67 e7 01 bd 21 6d a6 3d e9 26 89 bd
       0.042328596 -0.031714823 0.081262834 -0.06696875
000380 85 0f 96 3b 00 6c 74 bd 4d 4e ab bd 37 b4 d8 bc
       0.004579487 -0.05967331 -0.08364544 -0.02645312
000390 a1 c7 a3 bd 9b 83 01 bd d4 ef 6a bd e8 9b 05 bd
       -0.079970606 -0.03161965 -0.057357624 -0.032619387
0003a0 f9 fd aa bd ae 0d 87 3d 92 b7 05 3d 66 31 e6 bc
       -0.08349223 0.06594406 0.03264577 -0.028099727
0003b0 11 5b d0 3c b8 14 63 3d 6c f7 a3 3c 0a be 49 3d
       0.025434049 0.05543968 0.02001544 0.0492535
0003c0 0c 11 3b 3c 2e 8c 4b 3d 7a 1d 62 3c fe 50 38 bd
       0.0114176385 0.049694233 0.013800973 -0.044999115
0003d0 4e c2 1b 3d cb 41 9a 3c 1c d3 14 3c b4 a1 d7 ba
       0.0380271 0.0188302 0.0090835355 -0.001645139
0003e0 23 34 62 3d e1 f5 4b bd 5b e4 84 3d 27 a4 36 3c
       0.055225503 -0.049795035 0.06488868 0.011147535
0003f0 ae 09 ce 3c 50 69 b0 3d 30 fb 31 bd fe 96 04 3d
       0.0251511 0.08613837 -0.04345244 0.03237056

bias f4 [128]
000000 33 7c a9 3d 12 94 4c 3d 63 3e ae bd c1 06 30 bd
       0.08275642 0.0499459 -0.08507993 -0.04297519
000010 83 7f 96 3c 61 92 d3 3c ba 9e 30 bc 6c 8e 2e bd
       0.01837135 0.025826635 -0.010780031 -0.042616293
000020 6a 35 a7 3c 42 5a 7a 3d 35 b4 38 bd 49 87 5d bd
       0.020411212 0.061121233 -0.045093734 -0.054084096
000030 26 a1 03 3d 51 dc 3f 3d 20 8e a2 3d 4d ed b0 3d
       0.032136105 0.04684097 0.079372644 0.086390115
000040 25 45 82 3d 25 b2 8b 3d 18 6d a7 bd 27 63 95 3d
       0.063608445 0.06821088 -0.08175105 0.072943024
000050 9e 06 a8 3d dc 1b 8a bd a3 2c 14 3d 86 f1 82 3d
       0.08204387 -0.06743595 0.03617538 0.06393723
000060 f3 dc 71 3d 00 13 9d 3b 0a 1f 93 3d 59 4e fa 3c
       0.059048604 0.0047935247 0.071836546 0.030554937
000070 2c cc 8e bd 93 61 6c 3d 4a bb 7c bd 7f 4b 28 bd
       -0.069725364 0.05771024 -0.06170205 -0.041087624
000080 c7 69 e3 3b c3 ce 8f bc 7c 08 bb bb 4d b1 4c 3d
       0.0069401 -0.017554646 -0.0057077985 0.049973775
000090 d6 ac af 3d c0 f0 13 b7 f4 d3 1e bd b4 ca 1c bd
       0.08577888 -8.817937e-06 -0.038776353 -0.03827925
0000a0 ed 7b 96 3c c6 4c 65 3d 86 32 e3 3c d9 1e 33 3c
       0.01836964 0.05598142 0.027734052 0.010932648
0000b0 8f 19 a2 bb a4 f2 5c bd d1 d2 72 bd 77 8a 71 3c
       -0.0049468945 -0.053942338 -0.05928308 0.014742485
0000c0 81 54 31 bc dd 6c cf bc ba 92 87 bd 16 56 98 3d
       -0.01082337 -0.025320465 -0.06619783 0.074382946
0000d0 2b c4 88 3d be c8 4e bd 21 61 46 bd b3 47 2f bd
       0.06678041 -0.05048441 -0.048432473 -0.042792987
0000e0 80 b1 25 3d 97 73 56 bd a0 1c 58 bd 8f 80 db bc
       0.04045248 -0.05235633 -0.052761674 -0.0267947
0000f0 0b bd 15 3d 77 ff a7 bd 46 fa 79 bc 3f b5 07 3c
       0.03655724 -0.08203023 -0.015257424 0.0082829585
000100 85 1b a6 bd 0b 78 9d bd 47 de 43 bd 4f 60 ae 3d
       -0.08110718 -0.07688912 -0.047819402 0.08514463
000110 e8 8b 4f 3d 17 80 61 3d 37 80 50 3d 7c 20 1e bc
       0.050670534 0.055053797 0.050903525 -0.0096513
000120 1a cc 11 3d 52 55 67 bd 58 75 9e 3a 64 d7 a5 3d
       0.035595037 -0.056477852 0.0012089415 0.08097723
000130 84 5a 8d bd a5 8d 3f 3d 0c 43 65 ba f6 dd 82 bd
       -0.0690203 0.046765942 -0.00087456475 -0.06389992
000140 4f 65 94 3d 10 e9 96 3d 4f 81 42 3c ba 50 6a bd
       0.072458856 0.07368672 0.01187165 -0.057205893
000150 7b c1 15 bd 8c af 90 bd 1e 77 20 3d be 70 68 bd
       -0.03656147 -0.07064733 0.0391761 -0.056748144
000160 18 f1 b7 bc 91 a4 ce bc ca 75 0a 3d 3e d6 68 bd
       -0.02245383 -0.025224956 0.03380374 -0.056844942
000170 4b 14 68 bd c1 4b f7 bc e5 aa c1 3d f4 f0 f6 bc
       -0.056659978 -0.03018749 0.09456424 -0.030144192
000180 5c 02 db 3c a5 34 5c 3d 11 71 36 3d f0 e1 4d 3d
       0.026734523 0.053761143 0.044541422 0.0502643
000190 cf 75 8c 3c 9e 1d 59 3d a5 ab a4 bd ba 28 02 bd
       0.01714602 0.05300676 -0.08040551 -0.03177712
0001a0 da 18 09 3d 3a 3f cb 3c 89 6d 00 bd 5d 97 c1 3d
       0.033470966 0.024810422 -0.03135446 0.094526984
0001b0 27 49 18 3d c7 3d 9b 3d 8b 17 79 bd 52 a3 9c bd
       0.03717914 0.075801425 -0.060813468 -0.076483384
0001c0 b2 b3 9d bc 84 60 0a 3d ea 6d 1b bd 09 c5 84 bd
       -0.019250724 0.03378345 -0.03794662 -0.06482894
0001d0 e6 f9 90 bd cb e1 1b bd c0 0f a3 bd b9 68 3d 3d
       -0.07078914 -0.03805713 -0.079619884 0.04624245
0001e0 76 18 37 3c 69 5d 72 bd 28 6c 64 3d e4 d8 e0 bc
       0.011175266 -0.059171114 0.05576721 -0.027447172
0001f0 9e 2d 92 bd c7 33 6c bd bd 9d dd 3c c4 4e 49 3d
       -0.07137607 -0.057666566 0.027052755 0.049147382

weight f4 [128, 128]
000000 46 7b c7 bc d5 28 87 bd c5 8d dc 3b 97 72 a7 bd
       -0.024350774 -0.06599585 0.0067307674 -0.08176153
000010 99 4b ac 3c 85 c3 8c 3d cf c6 a2 3d 26 47 10 3d
       0.021032142 0.0687323 0.07948076 0.035224102
000020 db e5 69 3d 61 99 1f 3d 14 29 8d 3d 8d 52 60 bd
       0.057103973 0.038964633 0.06892601 -0.054766227
000030 79 c2 75 3b f3 1b 90 bd ed 7e a4 bc 4d 3d ef bc
       0.0037499948 -0.07036581 -0.020080054 -0.029204035
000040 38 2c 7e bd 01 5c 3f bc 9c e6 73 bd cd 2f 2e 3d
       -0.06205389 -0.01167965 -0.059546098 0.042526055
000050 bc ac e3 bc 2f a2 88 bb 7c 7f 0a bd 80 7e 21 bd
       -0.027792327 -0.0041697244 -0.033812985 -0.03942728
000060 ad 2f 61 bc 7d ed b2 3d d1 cc 07 3d 68 6e 7b 3d
       -0.013744277 0.087367035 0.033154313 0.06138459
000070 b3 52 a2 bc 3e 4c 01 bc c7 8a 59 3d 4a 42 b4 3d
       -0.019814825 -0.007891713 0.053110864 0.08801706
000080 25 41 ae bd 12 a2 3b 3d 3d 13 b2 3d 8c 96 ec bc
       -0.08508519 0.04580886 0.08695076 -0.02888038
000090 3b 77 25 3d cb b1 90 3d 08 04 af bd 5e 95 7e 3d
       0.04039691 0.07065161 -0.08545691 0.062154166
0000a0 99 ad 13 3c b6 80 7d bd 2c 80 42 3d c3 9c 5e bd
       0.009013557 -0.061890326 0.047485515 -0.05434872
0000b0 3c 77 ac bd 5a 49 61 bd 2e 1b 00 3d d5 b3 2b bc
       -0.0842118 -0.055001594 0.03127592 -0.010479887
0000c0 8e e5 af bd 5c c2 7e 3c 9a 4b 3e bd f1 93 a7 3d
       -0.08588706 0.015549269 -0.046458818 0.081825145
0000d0 7c f2 9a 3d fa 83 11 bd f0 ca c2 3a 41 b7 86 3d
       0.075657815 -0.035526253 0.0014861505 0.06577922
0000e0 4e 82 89 bd d9 4d 1c bd 79 2a 1b 3c 96 7c b2 3d
       -0.06714307 -0.03816018 0.0094705755 0.08715169
0000f0 25 aa 18 3c 2d df ac 3d 9b 07 8b 3d e1 58 8c 3d
       0.009317909 0.08441005 0.0678856 0.0685289
000100 b0 fe c2 3c 50 f1 cc 3c bd 1c 84 3b c6 8c 2e bc
       0.023803085 0.02501741 0.004031746 -0.01065368
000110 89 ab ac bd 21 15 49 bd 62 16 33 3d 13 53 a6 3c
       -0.08431155 -0.049092416 0.043722518 0.020303285
000120 d0 e5 45 3c 5e 41 9f 3c d0 49 b2 3d 0a 2f a1 bd
       0.012078717 0.01944035 0.08705485 -0.078703
000130 0f 72 9b 3d 43 ad 1e 3d e7 8d 10 3d be 15 e8 bc
       0.07590114 0.038739454 0.03529158 -0.02833068
000140 5b 0d ff bc dd 4f ef bc 64 d8 85 bd 94 ab 4d bd
       -0.031134298 -0.029212886 -0.06535414 -0.050212458
000150 61 8d 41 3d 3f 8f c3 3b 26 c0 9d 3c 32 90 8d 3b
       0.04725397 0.005968004 0.019256663 0.004320168
000160 e3 70 52 3d 33 2c 6f bc a0 b8 a0 bd e5 0d 6a bd
       0.05137719 -0.01459794 -0.078477144 -0.057142157
000170 5e 25 76 bd fd 45 73 bd 56 6d db bc da f2 98 3d
       -0.06009423 -0.059392918 -0.026785534 0.07468195
000180 5d 78 72 bd fa 6e 5c 3d 4b 53 29 bd d6 a9 89 bd
       -0.05919682 0.053816773 -0.0413392 -0.06721847
000190 3a 0a 77 3d f5 2e 02 3c dd 59 e0 bb 9e 2c a0 bd
       0.060312487 0.007945766 -0.00684665 -0.0782101
0001a0 19 ac 01 3c 58 f0 a4 bd 33 e4 6d bd 94 cf 09 bd
       0.007914566 -0.080536544 -0.058078956 -0.033645228
0001b0 fe b2 3c bd 66 33 3d bb 2f 0b 3d bc a5 28 9a bd
       -0.046069138 -0.0028869747 -0.011538311 -0.075272836
0001c0 a4 e3 3c 3d b2 5e 40 bd df e8 fe 3c 5f 5f 37 bd
       0.046115533 -0.04696531 0.031116901 -0.044768687
0001d0 5c 74 7f bd 57 e9 60 bd 97 f1 b0 3c d0 8a 5f bc
       -0.06236683 -0.05491003 0.021599574 -0.013643935
0001e0 c5 6c cd 3b 28 f7 00 3d 1b 0e 40 bc 23 e2 4b 3d
       0.00626907 0.031485707 -0.011722113 0.049776208
0001f0 92 75 3f bd 70 88 61 3d 41 04 bb bc c6 22 81 bd
       -0.046742983 0.055061758 -0.022829177 -0.06305461
000200 18 79 bb 3d d0 3f 94 bc f7 6b 49 bd ad 98 79 3d
       0.09153956 -0.018096834 -0.04917523 0.06093662
000210 dc eb 03 3d 59 8c 8f bc d0 29 da bb bd d6 04 bd
       0.032207355 -0.017522978 -0.0066578165 -0.032431353
000220 52 8b 9f bd dd 78 ac bd ee 06 1c bd 3a 2a d6 bb
       -0.07790245 -0.0842149 -0.038092546 -0.0065357955
000230 df fc f3 3c 82 d2 41 bd 63 14 9b bd af f1 a3 ba
       0.029783664 -0.047319897 -0.07572248 -0.001250794
000240 05 81 99 bc 83 be d5 bc de d0 4f bd 4d 17 cc bb
       -0.01873828 -0.02609182 -0.0507363 -0.0062283636
000250 45 a5 a1 bc cc 04 22 3d 3b f8 12 3d c2 41 8f 3d
       -0.019732127 0.039555356 0.035881262 0.06994964
000260 45 38 8c 3d 40 2a 82 bd d5 78 52 3d c6 4c 29 bd
       0.0684667 -0.06355715 0.051384766 -0.041332982
000270 48 6d 9d bd 37 26 38 3d 51 66 6f bc 5d 52 9a 3d
       -0.07686859 0.04495832 -0.0146117965 0.07535241
000280 7b e7 b0 3d f7 73 b5 bb f4 19 5a bc 91 d2 66 3c
       0.086379014 -0.0055375057 -0.013311852 0.014088289
000290 72 9a e6 3c f3 3a 8b 3d eb 3a c9 3c f7 22 c7 3c
       0.028149817 0.06798353 0.024564227 0.024308665
0002a0 73 ce 6e 3d 4e 9e ab bc ed 2b 73 3b 80 22 55 bc
       0.058302354 -0.020949509 0.003710504 -0.013008714
0002b0 cd b2 55 bd 66 cf 19 3d 10 63 ae bd 1f 0c 54 bd
       -0.05217247 0.037551306 -0.085149884 -0.051769372
0002c0 47 28 a3 3d 15 c2 70 bd 77 e3 d6 bc 91 c8 98 3d
       0.07966667 -0.05877884 -0.02623151 0.0746013
0002d0 48 c9 ab bd 00 a4 4c bd bf 46 fd bb dc b8 ae 3d
       -0.08388001 -0.04996109 -0.007729381 0.08531353
0002e0 fc f7 3c 3d f4 ef ae bd 20 ac ae 3c 88 11 6a 3c
       0.046134934 -0.08541861 0.02132231 0.014286406
0002f0 db 72 32 bc bb d8 3b bd aa b1 f5 bc 08 ee dd 3a
       -0.0108916415 -0.045860987 -0.029991943 0.0016931901
000300 e9 5c 94 3c c7 6f 95 3d 21 88 34 bb d6 06 87 3d
       0.01811071 0.072967105 -0.002754696 0.06593101
000310 36 84 0b bd 7d 8c b4 3c d7 9d bd bc cd 8f 8f 3c
       -0.034061633 0.022039646 -0.023146553 0.017524624
000320 ee c8 9d bd fc a5 2f 3c f8 ac d7 3c a2 4b 74 bc
       -0.0770434 0.010720726 0.026327595 -0.01491061
000330 3a 81 1f 3d 88 e5 6e bd 71 b8 ad bb 9d 95 09 bd
       0.0389416 -0.058324367 -0.005301528 -0.033589948
000340 22 f5 a2 bd fe b6 16 bc a5 7f 71 bd fe 3a 31 3d
       -0.079569116 -0.009198902 -0.058959622 0.04326915
000350 20 63 3d 3d 68 0e 89 3d af 3e 73 bd fd cb f4 bc
       0.04623711 0.06692201 -0.05938595 -0.029882425
000360 f0 86 04 3d b9 1d 63 bd ac c5 44 bd 23 0b 84 3d
       0.03235525 -0.055448268 -0.048040077 0.06447437
000370 9e 73 1d bd 82 3d 22 3b 86 b8 8c 3d ed a3 48 bd
       -0.03844034 0.00247559 0.068711326 -0.048984457
000380 99 81 54 bb 7e 0a 72 bb b4 dc 8b 3d 7e da 98 3d
       -0.003242588 -0.0036932523 0.06829205 0.07463549
000390 de db cb bc 13 17 1d 3c 11 a3 a4 bd b4 97 58 3c
       -0.024885114 0.009588021 -0.08038915 0.013219763
0003a0 53 f6 59 3d 07 c4 94 3d fe 58 27 bd c6 0f 90 bd
       0.05321343 0.07263952 -0.040856354 -0.070342585
0003b0 39 d7 a4 bc 71 20 00 bc bf 3e 29 3d bb ec 8f 3d
       -0.020122157 -0.007820235 0.041319605 0.07027575
0003c0 dc ac 2e bd c1 8b 80 3d 5f 67 6e bd 42 07 91 3d
       -0.04264532 0.06276656 -0.05820405 0.070814624
0003d0 a8 62 97 3d db 0a b8 bd 55 72 91 bd 24 a3 9d bd
       0.07391864 -0.089864455 -0.07101885 -0.07697132
0003e0 b9 14 b8 bc 4f c2 23 bd 58 aa 5c bd b6 1b 2d bd
       -0.022470819 -0.03998023 -0.05387339 -0.042262755
0003f0 24 2c e5 bc a3 98 c6 bc 31 fe 5f 3d 94 db 09 3d
       -0.02797515 -0.024242705 0.054685775 0.03365667

bias f4 [128]
000000 c7 1c 85 bc 47 da b1 bd 0e d0 fc bc e7 40 99 3d
       -0.016249074 -0.08684211 -0.030860927 0.07483082
000010 4f 0d 5e bd b9 b5 c3 bc ca 99 53 bd 8b 64 ba 3d
       -0.05421191 -0.023890363 -0.051660337 0.09101208
000020 6a 0d 72 3d 8f 81 b1 bc 02 cb cd bc 4b ca 4a bd
       0.059094824 -0.021668224 -0.025121216 -0.049509328
000030 3c ef 76 bd c8 b2 84 bc 32 46 ac bd 08 b2 8f 3d
       -0.060286745 -0.01619853 -0.08411826 0.07016379
000040 e2 52 e3 3c 33 ad 01 bc ec 09 55 3d d0 a5 98 bd
       0.027749483 -0.007914829 0.052011415 -0.07453501
000050 1b 5e a2 bd d7 40 6b bd d5 e5 9a 3b 6e 3e 89 3d
       -0.079281054 -0.057434883 0.004727105 0.06701361
000060 11 cb 8c bd ba 1d a1 bd a5 80 9f bd 87 f0 9b bd
       -0.06874669 -0.07866998 -0.07788209 -0.07614236
000070 3f d8 9a 3d 80 b3 a1 bd 29 9c ae bd f2 59 8d bd
       0.07560777 -0.07895565 -0.08525879 -0.06901921
000080 ab 65 18 3d fe 46 74 3c ad b9 54 bd 33 c9 62 bc
       0.037206333 0.014909504 -0.051934887 -0.013841915
000090 d0 8f 62 3c 56 50 b2 bd 1f 51 02 bd cb b8 25 bd
       0.013828233 -0.08706729 -0.031815644 -0.040459435
0000a0 88 ac 2f bb 45 59 b2 3d 44 f8 ad bd 36 93 4a 39
       -0.0026805717 0.08708433 -0.084946185 0.00019319062
0000b0 c5 d7 66 bd 33 73 8c bd d4 66 d4 3c b3 ea 46 3c
       -0.056358118 -0.0685791 0.025927939 0.012140918
0000c0 6d 3a a6 3d d0 79 d4 3c 38 fa 21 bd b8 62 61 3d
       0.081166126 0.025936991 -0.039545268 0.055025786
0000d0 77 9f ac bd bb 89 0b 3d c5 7f b2 bd 46 fe 91 3c
       -0.08428853 0.034066897 -0.08715776 0.017821442
0000e0 32 68 2d 3c 34 28 b5 3d 05 c3 15 3d b2 11 a2 3d
       0.010583924 0.08845559 0.03656294 0.07913531
0000f0 6f 84 b1 3d 6f cd 39 bd 3b 03 9f 3d 13 a3 96 bc
       0.08667838 -0.045361932 0.07764288 -0.018388307
000100 21 c8 b1 bb cb 44 82 bd 29 e5 00 3d 59 bf 28 3d
       -0.0054254686 -0.063607775 0.031468544 0.04119811
000110 a8 b4 ae bd a3 ee af bb fa 4a 25 bd 79 44 a5 bd
       -0.08530551 -0.005369024 -0.040354706 -0.08069701
000120 f2 e7 6b 3d 9a bf b2 bc 33 fa 27 3d 24 61 87 3d
       0.057594247 -0.021819878 0.041010093 0.06610325
000130 a7 93 ce bc a3 3a b4 3d 6b 2d 37 3c 54 21 17 bd
       -0.02521689 0.088002466 0.011180262 -0.03689702
000140 7f f6 b8 3b 72 49 14 bd 16 99 0b bd 81 85 a0 3d
       0.005644619 -0.036202855 -0.03408154 0.07837964
000150 0e 2e 52 bc a7 39 ab bd bf fa 44 bc 5f 77 a2 3c
       -0.012828363 -0.08360606 -0.012022673 0.019832311
000160 a1 f4 e4 bc d3 60 35 bd b2 88 b8 3c 83 73 fe 3c
       -0.02794868 -0.044281792 0.022526119 0.03106094
000170 cb 30 39 bb 66 56 25 bc 42 24 27 bc 58 03 c1 bc
       -0.0028257843 -0.0100914 -0.010201516 -0.023561165
000180 e6 42 ca 3c 65 9f 85 bd 41 e6 a9 3d fa 1a 7a bc
       0.024690103 -0.06524543 0.082958706 -0.015265221
000190 1c 8b 95 bd 2e 1b ab 3c 48 a5 eb bc c5 69 26 3c
       -0.07301924 0.020886984 -0.028765336 0.010157053
0001a0 8f 0f 51 bd ef 12 83 bd 77 fd ad bd 54 b8 81 bc
       -0.05104023 -0.06400096 -0.0849561 -0.015834965
0001b0 8d 3a ad bd ab 73 8a bd 44 30 9f bd 72 16 87 bc
       -0.08458433 -0.06760343 -0.07772878 -0.016490195
0001c0 62 d2 a9 bd 46 f4 83 3c b5 c5 96 bd ac 91 af 3d
       -0.082920805 0.01610769 -0.073619284 0.085727066
0001d0 3a 04 90 3b 29 4c 13 bc e4 cc 6a bd 3a 11 bf bc
       0.004395035 -0.008990326 -0.057324305 -0.023323644
0001e0 74 c0 a4 3d 82 39 90 bd 4f d0 34 3d 32 6a 06 bc
       0.0804452 -0.07042219 0.04414397 -0.00820403
0001f0 62 84 39 3d 4f 06 89 bd 0b dd b0 bc ce e2 22 3d
       0.045292266 -0.066906564 -0.021589777 0.03976708

weight f4 [2, 128]
000000 6f 33 88 3c 24 9e 7f 3d d7 dc 8e bd 8d 79 56 bb
       0.016626088 0.062406674 -0.069757156 -0.0032726259
000010 84 27 a0 bd 2b c6 4a bd 73 fc 1a bd 65 f7 19 bd
       -0.07820037 -0.049505394 -0.03783841 -0.03758945
000020 83 40 89 3c ce 66 a6 3c 92 57 9b bd 9c 89 05 3b
       0.016754394 0.020312693 -0.07585062 0.002037621
000030 ed d2 9b bd 91 f7 70 bc d1 54 5a bd 38 f0 09 bc
       -0.0760859 -0.014707462 -0.053303543 -0.008419089
000040 9c 27 86 bd a6 43 f8 3c 5d 0c 8f 3d 06 cd a5 bb
       -0.06550524 0.030305695 0.0698478 -0.005059841
000050 32 2a 8c 3c 06 83 95 bc fa 9e 34 bd 4a 30 a7 3d
       0.017109964 -0.018250953 -0.044096924 0.08163507
000060 07 92 8d 3d 39 51 4f 3c f0 80 91 3d b1 cc d8 bc
       0.06912618 0.012653642 0.07104671 -0.026464792
000070 ba c0 0c bd 36 1d b2 3d e4 bb a1 bd 6a 20 20 bd
       -0.034363486 0.08696978 -0.078971654 -0.039093412
000080 04 98 38 ba 7d c2 a9 bc 43 8b 83 bd c2 e3 98 3d
       -0.0007041695 -0.020722622 -0.064230464 0.07465316
000090 34 a9 55 3c 9a c7 ad 3d 78 0c 6a bd 24 38 78 bd
       0.013040829 0.084853366 -0.057140797 -0.060600415
0000a0 2c b1 25 3c ad 46 2d bd b2 07 b5 bc 90 af 4e bb
       0.010113042 -0.04230373 -0.022098396 -0.003153775
0000b0 57 c2 02 3d 25 2e 96 bd 4f 2b 86 3d b7 c8 e8 3c
       0.03192362 -0.0733302 0.06551229 0.02841602
0000c0 f1 92 53 3d 19 2f ae 3d 95 57 4e bd 50 f4 9d 3c
       0.051653806 0.08505077 -0.050376493 0.019281536
0000d0 02 63 fe bc 46 fa e7 3b 22 3f 3d bd 50 60 a0 3c
       -0.03105307 0.0070793955 -0.046202786 0.019577175
0000e0 b5 fa 44 bd 36 fe e8 3b f8 a2 55 3d da b1 9e 3d
       -0.048090655 0.0071103824 0.052157372 0.07748766
0000f0 fd ab 99 bd 38 67 8f bb 5d 00 06 3c 52 3b d4 3c
       -0.07503507 -0.0043763183 0.008178798 0.025907192
000100 52 24 a0 bd 02 b2 19 3a d4 6b 93 3d 08 a8 8e 3d
       -0.078194275 0.0005863012 0.07198301 0.06965643
000110 fc 53 05 3d 0b 49 0d 3b d4 a3 ca bb 2b 06 a4 3d
       0.032550797 0.002155843 -0.0061840806 0.08008989
000120 68 3c b2 3d f3 52 4d bd cb fc 4a bd ef 3f 42 ba
       0.08702928 -0.050127935 -0.04955749 -0.00074100395
000130 45 d1 4e bd b0 de 29 3d 6c 13 ca 3c bc 72 32 39
       -0.050492544 0.041472137 0.024667464 0.00017018145
000140 2a e5 34 3d 61 e9 25 bc 8b 91 0c bd d1 35 29 bd
       0.04416386 -0.010126443 -0.034318488 -0.04131109
000150 9e 45 04 3d 3f cb 8e 3d bc ab ac bd 31 0c 27 3d
       0.032292955 0.0697236 -0.08431193 0.04078311
000160 8d dc 1e bc 7e 69 95 bc 5e f9 91 bd 9b 57 a2 3d
       -0.009696138 -0.01823878 -0.07127641 0.07926866
000170 93 28 02 bb ab 8b 91 3c 36 d4 1c 3d 8f 82 9a 3d
       -0.001986061 0.017766794 0.038288318 0.07544433
000180 7b 0f 9e 3d e1 17 cd 3c 71 8c a5 bd 17 10 ad bc
       0.077177964 0.0250358 -0.08083428 -0.021125836
000190 ee 1a 91 3d ed 8b 8b bd 89 ed 32 3c 5e 9d b2 3d
       0.070852146 -0.06813798 0.010920891 0.08721422
0001a0 a0 c6 aa 3d 08 db 14 bd 47 fd 93 3d f9 df ad 3d
       0.08338666 -0.036341697 0.07226043 0.08489985
0001b0 f1 73 b0 3c 88 5c 48 3c cf 38 2b bd bd 06 a9 bd
       0.02153966 0.012229092 -0.041802224 -0.08253238
0001c0 7b e3 79 3d 52 59 f6 3c b5 52 80 3c 7d 0a 94 bc
       0.061007958 0.030071888 0.015664438 -0.018071407
0001d0 37 62 63 bd df dc 57 3c 3c 86 bb 3c 91 00 bc 3c
       -0.055513587 0.013175218 0.022891156 0.022949489
0001e0 8d cb ad 3d a4 43 2c bc b7 68 90 bd ce 41 86 bd
       0.0848609 -0.010514174 -0.07051223 -0.0655552
0001f0 60 82 97 bd 9a eb 24 bd 72 61 18 bb 7c 64 1b bd
       -0.07397914 -0.04026375 -0.0023251441 -0.037937626
000200 71 47 65 3d cf 1b 27 bd 08 1b 28 3d e0 85 a6 bb
       0.055976335 -0.040798005 0.041041404 -0.005081877
000210 a0 36 41 bd 13 02 97 3c 99 d0 59 bd eb 81 00 3d
       -0.047171235 0.018433606 -0.05317745 0.0313739
000220 7a d9 95 bd 20 63 82 3d b3 f2 0d bd dc 4f 54 3d
       -0.07316871 0.06366563 -0.034655284 0.051833972
000230 47 ef 7f bb 7a 7e c1 3d b6 74 86 3d c4 b8 74 bd
       -0.0039052533 0.094479516 0.065652296 -0.05974652
000240 f0 07 7e bd bb e2 14 3c ca 30 19 bd 20 f2 1b bd
       -0.06201929 0.00908726 -0.037400045 -0.038072705
000250 ec f2 53 bd f6 91 8c bd 07 a4 2d bc f4 8a 94 bd
       -0.05174534 -0.06863777 -0.010598189 -0.07253066
000260 1f b2 3b 3d 5a c7 69 bd c7 ce 82 bd 50 90 ad 3d
       0.045824166 -0.057074882 -0.06387096 0.08474791
000270 4c b0 ce 37 01 9e f2 3c 0a 31 0c 3d e6 91 e1 bb
       2.4639208e-05 0.029616358 0.034226455 -0.0068838475
000280 0e 80 02 3d 3d 8f 13 3c 7b 5d 38 3d 35 90 9a 3d
       0.031860404 0.009006319 0.045011025 0.075470366
000290 a2 61 4f bd 24 10 1d bd 1a d8 48 bd f8 e7 61 3d
       -0.05063022 -0.03834547 -0.049034216 0.055152863
0002a0 6d 00 91 bd e3 f0 c0 3c d9 7d a0 bd 0f 65 5d bd
       -0.07080159 0.023552364 -0.078365035 -0.054051455
0002b0 0e 32 81 bc 01 93 cb 3c cd 88 bc bc ac 75 d0 bc
       -0.015770938 0.02485037 -0.02301445 -0.025446735
0002c0 e3 fc 33 3c 58 83 8a bd fb 50 7e 3d 11 c8 9c bd
       0.010985586 -0.06763333 0.062088948 -0.07655347
0002d0 16 9e dc bc 25 7c 13 bd 73 00 50 3d 53 e5 54 bc
       -0.02693085 -0.036007065 0.05078168 -0.012994128
0002e0 0c 60 b3 3d 85 58 b0 3d 3b 4d 3b 3d cf ce 3b bd
       0.08758554 0.08610634 0.04572795 -0.045851525
0002f0 7b d5 08 3c 2b 8f 24 3b f3 b6 8e 3c 12 67 83 bc
       0.008351679 0.0025109749 0.017421221 -0.016040359
000300 69 cc 9f 3b 30 5c 9f bc ea 04 b0 3d 95 55 58 bc
       0.0048766625 -0.019453138 0.08594687 -0.013203998
000310 ff 6a a4 3d fc c8 37 bc fd f5 55 bd e2 28 d0 3b
       0.080282204 -0.011217352 -0.052236546 0.00635253
000320 0e 55 ea bc 87 e5 b9 3b 37 78 4f bd 11 22 90 bd
       -0.02860501 0.0056731137 -0.050651755 -0.07037748
000330 53 96 c6 bc 31 73 89 3c 7e 39 9f 3d 42 26 90 3d
       -0.024241602 0.01677856 0.07774638 0.07038547
000340 12 07 b0 3c 2c f8 86 bd 29 2b 9a bd a1 48 25 3c
       0.021487746 -0.06590304 -0.075277634 0.010088117
000350 93 fe a0 bd 1f 3e 63 3d 58 15 94 bc 7c 44 1e bd
       -0.07861056 0.055479165 -0.018076584 -0.03863953
000360 0b 39 34 3c 56 9e bc 3c ca e0 75 bc 27 78 7e bc
       0.010999928 0.02302472 -0.015007207 -0.015531576
000370 62 9b cb bc 30 96 2c bc 9d 04 eb ba 3b 42 82 bd
       -0.024854366 -0.010533854 -0.0017930452 -0.06360289
000380 bf 92 71 bd 33 d5 3b bd 7f 5a 87 bd d1 d0 44 3c
       -0.05897784 -0.04585762 -0.06609058 0.012012676
000390 98 6f e6 3c e2 f2 a0 bd ff e7 2b bd 8d bf 76 bd
       0.028129384 -0.07858826 -0.041969296 -0.06024127
0003a0 fb cd 43 3d 6b 63 6d bd a4 b2 8a bc f1 0d eb 3b
       0.04780386 -0.05795614 -0.016930886 0.007173293
0003b0 c1 e3 64 3d 06 b8 9c bd 4f d3 af bc 9f 28 57 3d
       0.055881266 -0.07652287 -0.021463064 0.052528974
0003c0 bc 3f 2e 3c c5 96 99 3c fb d1 26 3d e2 99 96 3c
       0.010635313 0.01874865 0.040727597 0.018383924
0003d0 d8 26 b5 3d 71 59 d0 3c 38 cb 94 bd ba 8a 7c bd
       0.088452995 0.025433274 -0.072653234 -0.061655737
0003e0 c0 d0 21 3d d5 79 22 3c 53 f1 b0 3c 17 fe 98 3c
       0.03950572 0.009916742 0.021599447 0.018675847
0003f0 14 b1 8c bd cb 62 08 bb 3e b7 8d 3b 9a ca 6f bd
       -0.068697125 -0.0020810838 0.0043248227 -0.058542825

bias f4 [2]
000000 14 0c 9c bc 6b 6e 70 3c
       -0.019048728 0.014674763
