model_saved/epoch_9.pth (torch, 139407 bytes, 8 tensors)

weight f4 [128, 5]
-0.11342009 -0.17512351 0.14560029 -0.3991933 0.24855836 -0.12178207 -0.3681055 0.100796975
-0.11850989 -0.30695188 0.43145528 -0.36676717 -0.4228607 0.36090258 0.4213782 0.25791702
0.22880167 -0.19840962 -0.4333423 0.27632123 0.064646915 -0.101420835 -0.38325137 -0.13330469
0.21978424 -0.24367191 -0.37403628 0.3646402 -0.089414135 0.3765458 0.29178563 -0.2871417
0.2725193 0.050834335 0.36282185 -0.37267736 0.29136938 -0.4468327 -0.14277591 -0.099360555
-0.37098122 -0.3481099 0.2786209 0.26367083 0.071031556 -0.43182385 -0.3936243 0.36583492
0.24333575 -0.37486732 0.23272541 0.08800525 -0.34123442 0.27400202 0.21351485 0.20633031
-0.27401268 0.00931942 0.38749516 0.41459945 0.38888976 0.33073908 -0.09265847 0.120910525
0.13177112 0.43336794 0.2586628 0.20684028 0.21830224 0.18120906 -0.21273418 0.253449
-0.34118718 0.27236858 -0.07165807 -0.29892847 0.039116953 -0.08708566 -0.103268445 -0.32241926
-0.22058403 -0.4236116 -0.05046979 0.2605956 0.3759928 0.077457055 -0.0076663108 0.22445078
0.30348513 -0.31554654 -0.027209492 -0.40446514 -0.12834494 -0.012945756 -0.36441848 -0.17546569
-0.33455434 -0.2556406 -0.27696428 -0.37324116 -0.3590714 0.18363032 -0.008195176 -0.30115336
-0.0073923375 -0.11218852 0.37823018 0.11862131 0.33222228 -0.15885721 0.26647508 0.1622786
-0.12947574 -0.21223463 -0.1309907 -0.17362809 0.32640222 0.042189848 -0.10908947 0.24891976
0.07441974 -0.17340127 0.30316645 -0.19300681 -0.3478505 -0.39259842 0.18132253 -0.27062523
-0.4335428 0.3671911 -0.18003011 -0.24830556 -0.16932967 -0.22081478 -0.10927554 -0.23071319
0.3580964 0.04911092 -0.22841083 0.0072978754 0.03934534 -0.34290394 0.011634068 0.19661248
0.28323922 0.21081859 -0.0792431 0.011594243 -0.08344261 0.3640122 0.34392023 0.05268364
-0.06141528 -0.21652101 0.3473273 0.35440195 0.00074933394 -0.01946299 0.30013505 0.319479
-0.1497851 0.2541103 -0.07473396 0.41647056 -0.22729585 -0.19024247 -0.3758707 -0.17122503
-0.4251887 0.26604852 0.2656767 -0.43711993 0.16460063 -0.14500427 -0.0076223863 0.08711332
0.24159041 0.3471125 0.0051429854 -0.1789873 -0.14668973 0.11023312 0.35164818 -0.2231218
-0.217994 0.28880328 0.23020129 0.08053814 -0.35317227 -0.16798535 0.29260573 0.41524416
-0.22217697 -0.37525627 0.34866118 0.37316766 -0.42640567 0.3523361 -0.39900932 0.15949053
0.22200088 -0.19880651 0.34134823 0.320455 0.2546316 -0.32212058 0.2582485 -0.39378124
-0.3710987 -0.34814936 -0.28154147 0.025756981 -0.07466876 -0.26425555 0.20835176 -0.29958296
0.26205435 0.31476182 -0.18241714 -0.32154214 -0.36072105 0.41477108 0.39570665 0.27699998
-0.3496357 -0.3013452 0.18853183 -0.19393301 -0.10194922 -0.30920413 0.26776636 0.33740377
0.015799655 -0.0781839 0.12920307 0.32451895 0.07671036 0.32794103 -0.1420003 -0.40014175
0.36571977 0.3852072 -0.28033522 -0.079740986 0.43198416 -0.27145347 -0.22573997 0.21381503
0.07124847 -0.26307896 0.4323928 -0.35662383 -0.19525835 0.10774804 -0.034597863 -0.25414482
00000000: cb48 e8bd 9453 33be 3e18 153e 1063 ccbe
00000010: 1586 7e3e e168 f9bd 5378 bcbe a56e ce3d
00000020: 50b5 f2bd cc28 9dbe b5e7 dc3e e8c8 bbbe
00000030: 3381 d8be 39c8 b83e e2be d73e b30d 843e
00000040: fc4a 6a3e e42b 4bbe 0bdf ddbe fa79 8d3e
00000050: 9a65 843d bab5 cfbd 8639 c4be 0681 08be
00000060: 1f0f 613e 2185 79be af81 bfbe 1fb2 ba3e
00000070: c21e b7bd 9cca c03e ed64 953e 3d04 93be
00000080: a687 8b3e aa37 503d c9c3 b93e 91cf bebe
00000090: 5e2e 953e 41c7 e4be d933 12be 8c7d cbbd
000000a0: 40f1 bdbe 763b b2be 66a7 8e3e ddff 863e
000000b0: fe78 913d 0418 ddbe 2089 c9be b74e bb3e
000000c0: 022d 793e 9cee bfbe 924f 6e3e 193c b43d
000000d0: 47b6 aebe fe49 8c3e a3a3 5a3e 4148 533e
000000e0: 644b 8cbe 7bb0 183c c465 c63e 6146 d43e
000000f0: 8f1c c73e a256 a93e b9c3 bdbd f09f f73d
00000100: 02ef 063e 67e2 dd3e 736f 843e f0cd 533e
00000110: 9f8a 5f3e de8e 393e fdd6 59be 11c4 813e
00000120: 16b0 aebe e573 8b3e 77c1 92bd 270d 99be
00000130: 1939 203d f759 b2bd 687e d3bd 2314 a5be
00000140: c8e0 61be 9fe3 d8be 69b9 4ebd c96c 853e
00000150: 2182 c03e cea1 9e3d ad35 fbbb 6dd6 653e
00000160: 6762 9b3e 518f a1be 71e6 debc 0e16 cfbe
00000170: db6c 03be 701a 54bc 0f95 babe 47ad 33be
00000180: b54a abbe 53e3 82be 43ce 8dbe 7719 bfbe
00000190: 35d8 b7be 9609 3c3e 0f45 06bc c630 9abe
000001a0: 6c3b f2bb 18c3 e5bd 63a7 c13e bbef f23d
000001b0: 0a19 aa3e 77ab 22be 6c6f 883e 5c2c 263e
000001c0: 4a95 04be 0954 59be 6d22 06be 90cb 31be
000001d0: 311e a73e 43cf 2c3d 4d6a dfbd d2e4 7e3e
000001e0: 6069 983d 1a90 31be a238 9b3e 94a3 45be
000001f0: 7619 b2be a902 c9be 9dac 393e 648f 8abe
00000200: 52f9 ddbe 7900 bc3e d059 38be d043 7ebe
00000210: c264 2dbe 451d 62be dbcb dfbd 1440 6cbe
00000220: 6958 b73e 8828 493d 87e4 69be 0423 ef3b
00000230: 9428 213d 1b91 afbe d19c 3e3c c854 493e
00000240: bb04 913e d4e0 573e 354a a2bd c8f5 3d3c
00000250: f6e3 aabd cf5f ba3e 5016 b03e cdca 573d
00000260: 978e 7bbd afb7 5dbe e2d4 b13e 2c74 b53e
00000270: f36e 443a d970 9fbc 4dab 993e c092 a33e
00000280: 4461 19be bf1a 823e 1e0e 99bd a13b d53e
00000290: 3ec0 68be ecce 42be 2072 c0be 9d55 2fbe
000002a0: 55b2 d9be 8337 883e c706 883e 2fce dfbe
000002b0: 118d 283e 007c 14be 36c5 f9bb 7868 b23d
000002c0: 7a63 773e bbb8 b13e 7d86 a83b 7248 37be
000002d0: d535 16be e7c1 e13d 3b0b b43e 0b7a 64be
000002e0: d239 5fbe 06de 933e e3b9 6b3e 2ef1 a43d
000002f0: ffd2 b4be 5a04 2cbe 6bd0 953e e29a d43e
00000300: 5c82 63be 9721 c0be b883 b23e d50f bf3e
00000310: d851 dabe 6665 b43e f34a ccbe 7c51 233e
00000320: 3354 633e ef93 4bbe 32c5 ae3e ae12 a43e
00000330: 135f 823e fdec a4be 2639 843e b29d c9be
00000340: a600 bebe a240 b2be 3426 90be 4e00 d33c
00000350: efeb 98bd 814c 87be 2a5a 553e f062 99be
00000360: fd2b 863e 7628 a13e 8fcb 3abe 2ca1 a4be
00000370: 6eb0 b8be e05c d43e 109a ca3e f1d2 8d3e
00000380: 7303 b3be eb49 9abe 7d0e 413e 6096 46be
00000390: c1ca d0bd 0150 9ebe ac18 893e 30c0 ac3e
000003a0: 476e 813c e11e a0bd cf4d 043e 5927 a63e
000003b0: 521a 9d3d e3e7 a73e 8768 11be 61df ccbe
000003c0: 9f3f bb3e e139 c53e 1988 8fbe 3e4f a3bd
000003d0: 072d dd3e f3fb 8abe 6128 67be 54f2 5a3e
000003e0: b8ea 913d 49b2 86be 9762 dd3e 6697 b6be
000003f0: cef1 47be 01ab dc3d 7db6 0dbd 451f 82be

bias f4 [128]
-0.21369395 -0.3550191 -0.2727965 0.16552508 0.3312079 -0.25848114 0.20339353 0.032909885
-0.27072388 -0.06189898 -0.2182043 0.16953965 -0.38016647 0.40570003 -0.4168759 0.18650804
-0.27816114 0.23976223 -0.054343548 0.33764112 0.014736363 0.16079548 0.23513633 0.26650572
-0.43559963 -0.2828037 0.24915753 -0.029800216 0.22121365 0.38401175 0.34434685 0.32147786
0.25192717 -0.40624908 -0.14763412 0.07931999 0.21198304 -0.03478763 0.21478657 -0.29562297
0.2651159 -0.3782447 -0.24125569 0.37152657 -0.38420403 0.1815445 0.29275557 0.25662604
0.2555517 -0.324924 0.36310992 -0.41587785 -0.053877145 0.2289456 -0.34303913 -0.09315371
-0.37434316 0.3226711 -0.39705542 -0.10682886 -0.43995273 0.11685937 -0.037439603 0.28363025
0.13923207 0.14878105 0.1739155 -0.057753064 0.16309246 0.26668617 -0.41788006 -0.35145715
-0.35014194 0.30843616 0.17370085 0.43846437 -0.19724774 -0.23600723 0.40857482 -0.1360102
-0.3490272 0.3684812 -0.3499108 0.018960131 0.03848566 -0.29591873 -0.048292365 0.34047803
-0.22219388 0.10921065 0.4303029 -0.09915588 0.13561179 0.3254364 -0.28771994 0.17679651
-0.39796054 -0.35470065 0.13144676 0.10407107 -0.29335383 0.21273924 -0.30236104 0.4293367
0.101701185 -0.12333229 -0.44212198 0.14174254 -0.18577136 0.052788306 -0.34045285 -0.25027418
0.095143765 0.18122447 -0.298298 -0.34842068 0.38728008 0.19776098 -0.17299287 -0.11590465
-0.13627584 -0.43871546 -0.36063072 0.19604829 -0.09073049 -0.34984326 -0.027685149 0.3190342
00000000: 96d2 5abe 10c5 b5be fcab 8bbe 687f 293e
00000010: 1594 a93e a457 84be 6546 503e 84cc 063d
00000020: 529c 8abe c989 7dbd f370 5fbe cd9b 2d3e
00000030: 2ea5 c2be eab7 cf3e c270 d5be f7fb 3e3e
00000040: 236b 8ebe 3b84 753e 5797 5ebd 4cdf ac3e
00000050: c970 713c 92a7 243e 94c7 703e 7073 883e
00000060: ea06 dfbe a6cb 90be 2723 7f3e 951f f4bc
00000070: d585 623e 309d c43e 3b4e b03e bf98 a43e
00000080: 99fc 803e e1ff cfbe 662d 17be 8572 a23d
00000090: 1512 593e 797d 0ebd 03f1 5b3e e55b 97be
000000a0: 45bd 873e 4aa9 c1be bb0b 77be bb38 be3e
000000b0: 64b6 c4be cde6 393e 0fe4 953e 7d64 833e
000000c0: acd7 823e 705c a6be 8be9 b93e f1ed d4be
000000d0: 48ae 5cbd b770 6a3e d3a2 afbe 5fc7 bebd
000000e0: e8a9 bfbe 2535 a53e d94a cbbe 17c9 dabd
000000f0: 7c41 e1be f753 ef3d 455a 19bd fc37 913e
00000100: da92 0e3e 0f5a 183e e816 323e 7a8e 6cbd
00000110: b601 273e 178b 883e 60f4 d5be 31f2 b3be
00000120: ce45 b3be 58eb 9d3e a3de 313e 677e e03e
00000130: 50fb 49be e1ab 71be b830 d13e 4246 0bbe
00000140: b1b3 b2be 91a9 bc3e 8227 b3be 4752 9b3c
00000150: 24a3 1d3d a982 97be 37ce 45bd 2353 ae3e
00000160: cb86 63be d5a9 df3d a950 dc3e 3d12 cbbd
00000170: d1dd 0a3e 9a9f a63e 0750 93be 250a 353e
00000180: 7cc1 cbbe 539b b5be fb99 063e 3723 d53d
00000190: 7932 96be 51d8 593e 11cf 9abe 05d2 db3e
000001a0: b648 d03d a495 fcbd d05d e2be f524 113e
000001b0: d93a 3ebe 8d38 583d d64f aebe f023 80be
000001c0: bcda c23d e892 393e 84ba 98be 3264 b2be
000001d0: 9349 c63e db81 4a3e 0b25 31be 6b5f edbd
000001e0: e58b 0bbe 509f e0be 97a4 b8be e2c0 483e
000001f0: e8d0 b9bd a81e b3be f7cb e2bc 7358 a33e

weight f4 [128, 128]
0.022043496 0.05791446 -0.036839716 0.02681011 0.0019645337 0.06851321 -0.074349426 0.0858971
-0.0036100144 -0.043515746 0.06992177 -0.03743009 0.07562648 0.035158943 0.06593418 -0.010823302
0.0052602952 -0.05710621 -0.04056158 -0.04789645 0.011277816 0.0659203 -0.059361976 0.037025418
-0.044861156 -0.08014586 0.08706962 -0.028966144 0.033120874 -0.042255234 0.036387976 -0.07163049
0.06599656 -0.03363354 -0.0065576807 -0.07718954 0.014989368 0.06953159 -0.00807706 -0.037265684
0.059707917 0.015855327 0.010769953 -0.067487404 -0.013238061 -0.046181634 0.080884404 0.0024327855
-0.05321237 0.034855716 -0.0014095071 -0.053823926 -0.055527125 0.02515204 -0.07897272 -0.06681391
0.0067049838 0.074235395 -0.055892695 -0.023833578 0.087605566 0.040468507 -0.05698286 0.019754458
-0.035302453 0.025425842 0.084063925 0.06404698 -0.047473714 -0.043253552 -0.08261845 0.024396976
0.012386 0.010646913 0.010356847 -0.0049299435 0.08006158 -0.05492711 0.00080451363 0.063265726
-0.0016896039 0.06366132 0.008575925 0.019001106 0.024376366 0.07487139 -0.08821971 -0.002148424
0.07451809 -0.05663346 -0.03577479 0.055287056 0.060974814 -0.028866518 -0.018431976 -0.078084216
0.032662436 0.012659059 0.035943504 -0.0073067057 -0.049237896 -0.08183414 -0.0047387914 -0.010314339
-0.0750001 -0.07939921 0.07551673 -0.050655473 0.04277077 -0.00326903 -0.023299368 -0.025311278
-0.08502652 0.017956423 0.06316481 0.027851153 0.08635144 -0.009307405 -0.018811297 0.04547636
0.06604795 0.07887008 0.051255044 -0.04965941 0.08269357 0.020834178 -0.018195579 0.042510863
0.07006743 0.04104496 -0.023204098 -0.036920812 -0.049912814 0.08649415 -0.01184961 0.057239737
-0.025371607 -0.04937007 -0.01565142 0.037387047 -0.039003763 -0.06971634 -0.037267644 -0.06990759
-0.035462223 0.070049144 0.045108665 0.023984486 0.0326359 0.02808631 -0.049531404 0.046806674
-0.07818372 -0.043793313 -0.045177635 0.046841063 -0.035507586 -0.05902246 -0.0366476 0.05909567
0.029888047 0.08364111 0.049443364 0.0026348045 -0.038931064 0.0022750043 0.077642485 -0.07996029
-0.07619054 -0.07145992 0.043454498 0.070659935 0.02981795 -0.044460617 0.03629862 -0.0579545
0.07315233 -0.024239168 0.08756754 0.081923254 0.0871213 0.02839887 0.001691412 0.028623985
0.0804275 -0.016228102 -0.014349242 0.0072267954 -0.032960985 -0.0009090158 -0.053149015 0.05927672
0.04973331 -0.00510228 0.0875848 -0.08023024 0.07884291 0.058340196 -0.011229821 0.06614163
-0.08043612 -0.07477076 -0.017012104 -0.0060880617 -0.05231932 -0.070636526 -0.08400203 0.08033181
-0.0050723567 -0.07159437 0.02810945 0.089676455 0.0124267945 0.0018301426 -0.059950303 -0.056085527
0.0063130474 0.06458518 0.03513021 -0.043353714 -0.049821302 -0.043127004 0.017194899 -0.02588317
0.060732853 -0.04311274 -0.08380049 -0.037484374 0.022668788 0.0043545766 0.038487557 -0.016986268
-0.012439841 -0.049508605 0.086183384 0.05476157 0.0135726025 -0.035496052 -0.0068332166 -0.017366964
0.08897646 -0.051676787 -0.08677777 0.01597416 0.016507568 -0.01733426 -0.0694245 -0.022347214
-0.055827014 -0.028821029 0.026254294 0.057606567 -0.07883224 -0.00081705215 -0.018717743 -0.0014325983
00000000: 9094 b43c b637 6d3d 3ee5 16bd e0a0 db3c
00000010: 68bf 003b a750 8c3d 8344 98bd d2ea af3d
00000020: fe95 6cbb 913d 32bd 2533 8f3d 4b50 19bd
00000030: 0ee2 9a3d d302 103d 8008 873d 3854 31bc
00000040: 8e5e ac3b 34e8 69bd e623 26bd 112f 44bd
00000050: 97c6 383c 3901 873d 8b25 73bd f7a7 173d
00000060: 55c0 37bd 8323 a4bd 8f51 b23d 684a edbc
00000070: c1a9 073d d313 2dbd 8f0b 153d 02b3 92bd
00000080: 3429 873d 53c3 09bd d0e1 d6bb 8d15 9ebd
00000090: f795 753c 9466 8e3d a555 04bc e7a3 18bd
000000a0: 4a90 743d 08e3 813c 7574 303c d636 8abd
000000b0: 74e4 58bc f428 3dbd b9a6 a53d 5e6f 1f3b
000000c0: 37f5 59bd dec4 0e3d 36bf b8ba 7a76 5cbd
000000d0: 6970 63bd a70b ce3c 73bc a1bd bbd5 88bd
000000e0: 7bb5 db3b ba08 983d bdef 64bd a33e c3bc
000000f0: 8c6a b33d 4ec2 253d dc66 69bd 1ad4 a13c
00000100: 4e99 10bd db49 d03c b529 ac3d 102b 833d
00000110: cc73 42bd a32a 31bd dd33 a9bd 2bdc c73c
00000120: a6ee 4a3c 6470 2e3c c4af 293c 5d8b a1bb
00000130: 53f7 a33d 40fb 60bd ffe5 523a 7691 813d
00000140: b375 ddba de60 823d 0982 0c3c 35a8 9b3c
00000150: f2b0 c73c 2c56 993d 89ac b4bd 93cc 0cbb
00000160: f19c 983d 7df8 67bd 9688 12bd ae74 623d
00000170: bac0 793d 7a79 ecbc a8fe 96bc 9eea 9fbd
00000180: 0cc9 053d f167 4f3c 7f39 133d 176d efbb
00000190: adad 49bd a898 a7bd dd47 9bbb 79fd 28bc
000001a0: a799 99bd 0e9c a2bd 84a8 9a3d 1d7c 4fbd
000001b0: 6730 2f3d 393d 56bb 51de bebc 9959 cfbc
000001c0: 6222 aebd 5919 933c 8d5c 813d 1a28 e43c
000001d0: 06d9 b03d 167e 18bc 261a 9abc 6b45 3a3d
000001e0: 2644 873d a386 a13d cff0 513d aa67 4bbd
000001f0: 3f5b a93d 70ac aa3c e50e 95bc df1f 2e3d
00000200: 837f 8f3d c31e 283d 8516 bebc 473a 17bd
00000210: 6171 4cbd d823 b13d de24 42bc 3774 6a3d
00000220: 1ed8 cfbc 4538 4abd 6837 80bc 2923 193d
00000230: 69c2 1fbd 71c7 8ebd f5a5 18bd b62b 8fbd
00000240: d640 11bd ed75 8f3d ddc3 383d 1d7b c43c
00000250: 39ad 053d 4315 e63c 71e1 4abd 5bb8 3f3d
00000260: c91e a0bd 9e60 33bd 2f0c 39bd 6adc 3f3d
00000270: 6770 11bd 89c1 71bd cb1b 16bd 4d0e 723d
00000280: c7d7 f43c 084c ab3d 2085 4a3d afac 2c3b
00000290: 2e76 1fbd 3d18 153b 0603 9f3d 38c2 a3bd
000002a0: c909 9cbd 9459 92bd 58fd 313d 28b6 903d
000002b0: c644 f43c 561c 36bd ddad 143d b361 6dbd
000002c0: e4d0 953d 3891 c6bc 9c56 b33d 61c7 a73d
000002d0: a76c b23d bfa4 e83c 5eb2 dd3a d97c ea3c
000002e0: 2cb7 a43d ccf0 84bc 1519 6bbc c1ce ec3b
000002f0: 1902 07bd 054b 6eba c8b2 59bd 25cc 723d
00000300: 28b5 4b3d 0731 a7bb a95f b33d c14f a4bd
00000310: 6478 a13d 21f6 6e3d 48fd 37bc 4375 873d
00000320: b1bb a4bd 6a21 99bd f85c 8bbc 5d7e c7bb
00000330: c94c 56bd e2a9 90bd 4209 acbd 0185 a43d
00000340: 0336 a6bb 12a0 92bd ca45 e63c 4aa8 b73d
00000350: c199 4b3c 65e1 ef3a 738e 75bd f0b9 65bd
00000360: aedd ce3b 3c45 843d b2e4 0f3d aa93 31bd
00000370: 6c11 4cbd f1a5 30bd 51dc 8c3c f108 d4bc
00000380: 03c3 783d fc96 30bd 979f abbd 3789 19bd
00000390: e5b3 b93c d6b0 8e3b 21a5 1d3d c926 8bbc
000003a0: 7ad0 4bbc 89c9 4abd ea80 b03d ab4d 603d
000003b0: 9f5f 5e3c 4f64 11bd 2de9 dfbb 2a45 8ebc
000003c0: 4a39 b63d 0aab 53bd 8bb8 b1bd 3edc 823c
000003d0: e13a 873c 9400 8ebc 6f2e 8ebd 8111 b7bc
000003e0: deaa 64bd 141a ecbc 3f13 d73c ddf4 6b3d
000003f0: cc72 a1bd 712f 56ba f455 99bc 06c6 bbba

bias f4 [128]
0.014051187 -0.0059829834 0.031508964 0.020868164 -0.034418613 0.021293812 0.07155002 -0.05527323
-0.009979278 -0.06549496 -0.036787488 -0.016382048 -0.0035457658 -0.080960505 0.042292416 0.013432719
0.023465155 0.03307794 0.020084852 0.047207266 -0.0455043 -0.022733405 -0.0039510666 -0.028960774
0.04891388 -0.07043469 -0.070450135 -0.04891787 0.0056369947 0.060504563 -0.071085826 -0.04679885
0.040773924 0.00051907 0.07070697 0.009254416 0.07575288 -0.03242819 -0.013821776 -0.041037407
0.07400579 -0.046858802 0.053997878 -0.0043911934 -0.040489707 -0.03156746 0.02820053 -0.026449561
-0.03664897 0.04482277 -0.010101075 0.06539042 -0.07461602 0.028858006 -0.00063483557 0.048496157
-0.005923147 -0.081749655 0.06785962 0.031804495 0.01387919 -0.00044744147 0.069255106 0.07337155
-0.071219794 0.085069604 0.07464056 -0.008128066 -0.008455321 0.079839826 -0.031964526 -0.08377663
-0.020916812 0.03447682 -0.025130041 -0.07545724 -0.0048114737 0.007066301 -0.053337134 0.050875444
-0.067621395 0.030885927 0.028878018 0.026042769 0.023982674 -0.084025234 0.08544486 -0.053607892
-0.023562456 -0.007403908 -0.030162556 0.011970231 0.019469032 0.05413841 -0.033437837 -0.047838323
0.046397425 -0.027098222 0.0039025408 -0.054727744 0.061386295 0.055539675 0.051936764 0.051153302
-0.025153702 -0.06492337 0.05054452 0.07525743 0.026382627 0.03998397 0.0630337 0.01820551
-0.056847446 0.0026338396 0.059280753 0.053161222 0.083844975 -0.01853603 0.05457612 -0.08029378
0.015005424 -0.039619647 0.0074436483 0.07995503 -0.009137412 0.055414245 0.05460599 -0.005615566
00000000: f336 663c e70c c4bb 8b0f 013d b6f3 aa3c
00000010: 88fa 0cbd 5c70 ae3c d188 923d 2f66 62bd
00000020: 2080 23bc 3922 86bd 7aae 16bd a533 86bc
00000030: 1460 68bb 9fce a5bd d03a 2d3d e814 5c3c
00000040: ff39 c03c bc7c 073d fd88 a43c 685c 413d
00000050: b862 3abd 683b babc f377 81bb 253f edbc
00000060: ec59 483d 1040 90bd 2948 90bd 1b5e 48bd
00000070: 8ab6 b83b a2d3 773d 7295 91bd 27b0 3fbd
00000080: 8f02 273d 3312 083a d1ce 903d d69f 173c
00000090: 5324 9b3d 6cd3 04bd bb74 62bc d716 28bd
000000a0: 5990 973d 04ef 3fbd e12c 5d3d 00e4 8fbb
000000b0: 89d8 25bd e24c 01bd cc04 e73c c0ac d8bc
000000c0: 3b1d 16bd 1598 373d fb7e 25bc 6aeb 853d
000000d0: 49d0 98bd a067 ec3c 186b 26ba e8a3 463d
000000e0: f516 c2bb 5d6c a7bd fcf9 8a3d 6e45 023d
000000f0: 8b65 633c 9496 eab9 9fd5 8d3d d343 963d
00000100: afdb 91bd f938 ae3d 26dd 983d 942b 05bc
00000110: 3088 0abc 1083 a33d 3ced 02bd 1593 abbd
00000120: bc59 abbc 9137 0d3d 84dd cdbc 5389 9abd
00000130: 91a9 9dbb 6e8c e73b 0a78 5abd c562 503d
00000140: 167d 8abd 7c04 fd3c 9891 ec3c a557 d53c
00000150: 5077 c43c 6c15 acbd b7fd ae3d f393 5bbd
00000160: 0d06 c1bc 7b9c f2bb 7717 f7bc ca1e 443c
00000170: 857d 9f3c 3dc0 5d3d 1df6 08bd 1ef2 43bd
00000180: 3a0b 3e3d 17fd ddbc c5c1 7f3b 332a 60bd
00000190: 3270 7b3d 927d 633d a5bb 543d 2086 513d
000001a0: 230f cebc 8bf6 84bd c507 4f3d 9120 9a3d
000001b0: 6120 d83c 3bc6 233d d017 813d b923 953c
000001c0: ded8 68bd 7f9c 2c3b 60d0 723d 95bf 593d
000001d0: eab6 ab3d dfd8 97bc 368b 5f3d 1171 a4bd
000001e0: 4fd9 753c 3648 22bd d9e9 f33b 76bf a33d
000001f0: 15b5 15bc 0cfa 623d 88aa 5f3d c802 b8bb

weight f4 [128, 128]
0.040535096 0.031096842 -0.037441574 -0.0794186 0.06469498 -0.04376736 -0.087664664 -0.058887556
0.006193985 -0.073037416 0.016583556 -0.067862555 -0.045675375 -0.06947558 0.057609826 -0.043450408
0.08372967 0.0699842 -0.059773926 -0.03799238 0.03497057 -0.08618979 0.037916318 0.07719601
-0.025659572 0.008339179 -0.015697509 0.030550351 -0.036234587 0.024908194 0.03164173 -0.08339737
-0.054584596 0.012910106 0.013060718 0.029381998 -0.029568635 0.0875429 0.06024885 0.053906914
0.08496378 -0.017278194 0.07511456 -0.017926348 0.050425865 0.0015365792 -0.03700548 0.08988557
-0.008718154 0.07180424 -0.042680543 0.043867677 -0.0821096 -0.07093676 0.082266495 0.07997224
0.05311685 0.017701764 -0.013575878 -0.06678182 -0.024512487 -0.006865279 0.048594307 0.031101387
0.0146822445 -0.049958013 0.013753959 0.025853837 0.0741949 0.08507101 0.0332496 0.06732824
-0.05431204 -0.07311593 -0.05452736 0.016449736 0.02354462 -0.0055131232 0.04858637 0.024722282
0.045324866 -0.02666788 0.037110593 -0.08225683 -0.08156428 -0.047780678 0.010887478 -0.081690624
-0.07728604 0.012557696 0.04169625 -0.0721276 0.08903137 -0.060845915 -0.059503328 -0.0041660606
0.04295346 -0.028633105 0.054693256 0.040125877 0.08103792 0.08215056 -0.06431257 -0.07494952
-0.048630834 -0.077024214 -0.013306998 0.031713523 -0.013580971 0.0025260197 -0.06027208 0.044180054
-0.040512793 0.05911739 -0.038321543 -0.012997588 -0.04357849 0.018679302 0.04478784 0.06770835
0.039740134 0.0744649 -0.0037156374 -0.043989774 -0.08540943 0.049285997 0.06732105 -0.038627356
-0.025735954 0.06345682 -0.07807024 0.04556117 -0.022425136 0.0018457471 -0.019770538 -0.07062975
-0.027659312 0.06891826 0.015969317 -0.06521113 -0.032202963 -0.052452043 -0.06972761 0.012134643
-0.0068785097 0.08691344 -0.039545693 -0.038593363 0.071581826 0.07846968 -0.06486177 -0.076665685
-0.019785257 0.08828852 0.074010946 0.07477017 -0.03383755 -0.006313439 0.019478701 -0.012831259
0.03730742 -0.08652667 0.08118702 0.08706645 0.020971641 0.030929549 0.02711242 0.08773691
0.032913093 0.06713727 -0.05431915 -0.017416518 -0.014615044 0.0678198 -0.028159225 -0.045649044
0.072578005 0.07073457 0.0637934 0.02376379 0.08824273 -0.05287384 0.052357197 -0.042197395
0.022591935 0.05272129 -0.019014249 0.01778387 -0.06327192 0.018066572 -0.055643912 0.009048556
-0.06510582 0.02901313 -0.025955562 -0.0663332 0.08483004 -0.055475336 -0.07409603 0.04245748
-0.003642704 0.023129871 -0.018150419 -0.0096334 0.057733163 0.0384737 0.008356777 0.056663364
0.051039837 0.021686334 0.08664358 -0.01601908 0.007518489 -0.05571493 0.04136072 -0.020105321
0.012678275 0.043339446 -0.059009787 0.07981949 0.025816305 -0.069030516 0.08573097 -0.034493335
-0.015601804 -0.037024546 -0.0053710695 -0.025456885 0.071709365 -0.0036229 -0.0052392907 -0.0033822916
0.020251844 -0.06141885 0.03342662 0.009966952 0.061050463 -0.03201439 -0.05701298 0.0053324774
0.02656656 0.07628781 0.07838744 -0.032003406 0.03062819 -0.0041492577 -0.053378284 -0.03697788
-0.011174207 0.05974083 -0.060867302 0.068330094 0.03397317 -0.05239345 -0.03460316 -0.02087835
00000000: 2108 263d cebe fe3c 565c 19bd 38a6 a2bd
00000010: cd7e 843d 6745 33bd 8889 b3bd 1434 71bd
00000020: eaf6 ca3b a494 95bd 3dda 873c 86fb 8abd
00000030: 1a16 3bbd 3649 8ebd 48f8 6b3d 0ef9 31bd
00000040: 767a ab3d e053 8f3d 81d5 74bd e69d 1bbd
00000050: 4d3d 0f3d 4684 b0bd 244e 1b3d f118 9e3d
00000060: 0634 d2bc 0da1 083c 1098 80bc bb44 fa3c
00000070: b86a 14bd 450c cc3c c29a 013d 3ecc aabd
00000080: 1994 5fbd e984 533c 9ffc 553c 84b2 f03c
00000090: ec39 f2bc b149 b33d 80c7 763d 7fcd 5c3d
000000a0: 7e01 ae3d 008b 8dbc aad5 993d 47da 92bc
000000b0: 5a8b 4e3d 0b67 c93a 0f93 17bd ed15 b83d
000000c0: 97d6 0ebc 1a0e 933d cbd1 2ebd 98ae 333d
000000d0: 1429 a8bd 4b47 91bd 567b a83d 7cc8 a33d
000000e0: 0e91 593d 4a03 913c 5c6d 5ebc e8c4 88bd
000000f0: 69ce c8bc 22f6 e0bb d30a 473d 56c8 fe3c
00000100: cc8d 703c c6a0 4cbd 4958 613c 6dcb d33c
00000110: 7ff3 973d b639 ae3d bc30 083d 63e3 893d
00000120: 4d76 5ebd cebd 95bd 1558 5fbd 99c1 863c
00000130: a6e0 c03c 6ea7 b4bb 8002 473d 6286 ca3c
00000140: 91a6 393d 9976 dabc 4701 183d 4576 a8bd
00000150: 2c0b a7bd acb5 43bd 6461 323c 6a4d a7bd
00000160: 2548 9ebd cbbe 4d3c b0c9 2a3d a3b7 93bd
00000170: 1456 b63d 9139 79bd c3b9 73bd 7383 88bb
00000180: f8ef 2f3d f98f eabc 0906 603d 085b 243d
00000190: 36f7 a53d 8e3e a83d 4fb6 83bd 227f 99bd
000001a0: 2031 47bd dfbe 9dbd 9805 5abc 0ae6 013d
000001b0: b982 5ebc 948b 253b dbdf 76bd 25f6 343d
000001c0: bef0 25bd 1425 723d 0df7 1cbd d6f3 54bc
000001d0: 5c7f 32bd 5605 993c 7473 373d adaa 8a3d
000001e0: 8dc6 223d 0e81 983d 0d82 73bb 9f2e 34bd
000001f0: 24eb aebd 1de0 493d 9edf 893d b837 1ebd
00000200: 35d4 d2bc a6f5 813d 4ae3 9fbd 599e 3a3d
00000210: ebb4 b7bc ffec f13a d3f5 a1bc 55a6 90bd
00000220: c895 e2bc 0425 8d3d 16d2 823c 6a8d 85bd
00000230: 41e7 03bd f4d7 56bd 59cd 8ebd 62d0 463c
00000240: 1f65 e1bb acff b13d aafa 21bd 1314 1ebd
00000250: 7e99 923d b6b4 a03d 3fd6 84bd e602 9dbd
00000260: b114 a2bc 9dd0 b43d 0d93 973d 1a21 993d
00000270: 3e99 0abd f7e0 cebb cc91 9f3c 333a 52bc
00000280: aacf 183d e534 b1bd 6145 a63d e54f b23d
00000290: b8cc ab3c f75f fd3c de1a de3c 69af b33d
000002a0: e1cf 063d 447f 893d c27d 5ebd 16ad 8ebc
000002b0: f073 6fbc 1be5 8a3d 2dae e6bc 7efa 3abd
000002c0: c7a3 943d 49dd 903d 1da6 823d 48ac c23c
000002d0: 9bb8 b43d 3d92 58bd 8074 563d 2dd7 2cbd
000002e0: b912 b93c 48f2 573d c5c3 9bbc 7baf 913c
000002f0: b594 81bd 5900 943c dfea 63bd 6540 143c
00000300: 3356 85bd f2ac ed3c c2a0 d4bc b3d9 87bd
00000310: 5fbb ad3d 1b3a 63bd a9bf 97bd e5e7 2d3d
00000320: 6fba 6ebb db7a bd3c 30b0 94bc 68d5 1dbc
00000330: 9c79 6c3d 9996 1d3d ddea 083c d817 683d
00000340: 260f 513d 8aa7 b13c 3072 b13d 723a 83bc
00000350: a85d f63b 5735 64bd dc69 293d eab3 a4bc
00000360: 8ab8 4f3c b484 313d 3fb4 71bd 6778 a33d
00000370: b77c d33c df5f 8dbd b893 af3d e248 0dbd
00000380: b59e 7fbc 0da7 17bd ccff afbb f58a d0bc
00000390: 5cdc 923d 2d6e 6dbb 5bae abbb 70a9 5dbb
000003a0: 32e7 a53c 5592 7bbd 5aea 083d 6d4c 233c
000003b0: 0d10 7a3d 8521 03bd 7186 69bd 10bc ae3b
000003c0: 1da2 d93c c93c 9c3d 9889 a03d 0116 03bd
000003d0: f8e7 fa3c 7ff6 87bb 30a3 5abd 1e76 17bd
000003e0: 0514 37bc cdb2 743d fe4f 79bd a6f0 8b3d
000003f0: 7327 0b3d 849a 56bd 0bbc 0dbd 1309 abbc

bias f4 [128]
0.08051649 0.005458024 -0.075833656 -0.0038748013 -0.057025734 -0.0022550882 -0.002791508 0.0723526
-0.08240184 0.029606175 -0.0006514419 -0.08575969 -0.046215933 -0.055582862 0.070706345 -0.041552283
-0.056419794 0.0038552864 0.079802975 0.04810095 -0.024581915 0.04038546 -0.06581297 -0.066908225
0.05518132 -0.01978971 -0.027845327 0.03287861 0.009499239 -0.05859057 0.00031054614 -0.0479745
-0.08838221 0.019530723 -0.08765189 -0.0104855355 0.0014431569 0.022982012 0.050745927 -0.007029724
-0.047284707 0.00087473966 -0.030523408 -0.021169929 0.05965593 -0.05686988 -0.01015681 -0.024045367
-0.084406026 0.026532803 0.030860811 0.07703892 -0.016904572 -0.045838702 0.036495466 0.061030652
-0.05356636 0.007837613 0.016175212 -0.05200385 -0.011977417 0.05432485 0.054369666 0.0031901966
-0.06348371 0.046631854 0.053844444 -0.04993813 -0.018797342 -0.018358251 0.065814905 0.06343982
0.023610009 -0.08801994 -0.020766884 0.01960794 0.00032552032 -0.0629948 0.05630189 0.061992545
-0.06578379 0.03953536 0.038111117 -0.034741275 -0.032439858 -0.052376915 0.023955826 0.0049054557
-0.08403025 -0.08585896 0.062146712 0.08565455 0.044004817 -0.042248633 0.03542882 0.03171633
0.031709444 0.060166016 -0.065300696 0.0019498649 0.08148593 0.072287716 -0.08809845 -0.02796056
-0.037999995 -0.057385646 0.061738368 -0.003201388 -0.047910124 0.011413421 -0.053104892 0.066881634
0.005201614 0.050953075 -0.052563563 -0.07965453 -0.04068841 0.07296003 0.09036426 0.04369543
0.05688711 -0.055004463 -0.024951793 0.07837259 0.06716956 0.04137402 0.04656533 -0.039176796
00000000: d4e5 a43d 39d9 b23b ad4e 9bbd 61f0 7dbb
00000010: d193 69bd 1aca 13bb bcf1 36bb 9a2d 943d
00000020: 4cc2 a8bd a688 f23c 87c5 2aba c7a2 afbd
00000030: eb4c 3dbd dbaa 63bd 7dce 903d ba32 2abd
00000040: 7118 67bd f9a8 7c3b be6f a33d 8005 453d
00000050: 0360 c9bc 396b 253d f3c8 86bd 2e07 89bd
00000060: cf05 623d 081e a2bc e21b e4bc b9ab 063d
00000070: b2a2 1b3c aafc 6fbd ccd0 a239 e980 44bd
00000080: bb01 b5bd e5fe 9f3c d682 b3bd 86cb 2bbc
00000090: 4f28 bd3a c644 bc3c f6da 4f3d 9959 e6bb
000000a0: 9cad 41bd c94e 653a 3a0c fabc 8f6c adbc
000000b0: c759 743d 64f0 68bd c068 26bc cafa c4bc
000000c0: 11dd acbd 525b d93c d0cf fc3c 95c6 9d3d
000000d0: 757b 8abc 5dc1 3bbd 457c 153d 47fb 793d
000000e0: 6668 5bbd 5569 003c e181 843c fd01 55bd
000000f0: ee3c 44bc bc83 5e3d bab2 5e3d 9e12 513b
00000100: bf03 82bd 0b01 3f3d fe8b 5c3d ed8b 4cbd
00000110: e2fc 99bc 0b64 96bc f7c9 863d bdec 813d
00000120: c769 c13c cc43 b4bd 501f aabc d5a0 a03c
00000130: 99aa aa39 6b03 81bd d09c 663d e5eb 7d3d
00000140: a7b9 86bd d4ef 213d 671a 1c3d de4c 0ebd
00000150: a8df 04bd 2d89 56bd 023f c43c f2bd a03b
00000160: 0d18 acbd d3d6 afbd 8d8d 7e3d a76b af3d
00000170: 653e 343d e70c 2dbd cf1d 113d fce8 013d
00000180: c3e1 013d a470 763d 5fbc 85bd 9c92 ff3a
00000190: 18e2 a63d 950b 943d f66c b4bd 8b0d e5bc
000001a0: e2a5 1bbd 360d 6bbd 5fe1 7c3d 61ce 51bb
000001b0: 683d 44bd 5bff 3a3c 8484 59bd 3df9 883d
000001c0: 4d72 aa3b 2cb4 503d e44c 57bd ea21 a3bd
000001d0: e4a8 26bd 116c 953d e610 b93d fbf9 323d
000001e0: 7502 693d 5c4c 61bd b467 ccbc cf81 a03d
000001f0: 3290 893d ce77 293d 4abb 3e3d d977 20bd

weight f4 [2, 128]
0.06282741 -0.004666884 -0.03712366 -0.013965362 -0.03922087 0.056218646 -0.00071530306 0.019649025
-0.06531052 -0.020640772 0.08011203 0.042066686 -0.06349187 0.053026658 -0.0010544787 0.07732621
-0.017453885 0.03388579 0.0065830206 0.054677725 0.011393269 -0.07570081 -0.07156079 0.058048762
0.06529406 -0.015528527 -0.039457984 -0.0763243 -0.06958702 0.065860264 0.03550032 0.018767215
0.010442419 0.0014624114 -0.03002043 -0.06659458 0.026252827 -0.055099696 0.06793478 0.08243616
-0.040573 -0.06674447 0.024652472 0.047689755 -0.07874314 -0.06751225 0.050353922 -0.041034013
0.08277407 -0.08272264 0.013397447 0.06862647 0.0737697 -0.05607245 -0.008842814 0.046676613
0.025971072 0.06568744 -0.021111129 0.045568436 0.06414264 -0.046012413 -0.07558313 0.031527534
0.034149535 0.074359246 -0.07610575 0.028853396 -0.0046172324 -0.08744346 0.06759946 -0.02370306
0.07211848 0.083504826 0.040807877 0.049719788 0.066639 -0.03121967 0.05884064 -0.021485535
-0.0018504679 0.06562114 -0.012967352 0.06693992 -0.016523099 -0.0008911843 -0.046723563 0.04555947
0.03885383 -0.025254391 0.049075663 -0.028994335 -0.013073252 -0.011098582 -0.081288084 -0.011735455
-0.034898687 0.074116826 -0.023917241 -0.038944405 0.08295203 -0.039304506 0.038735945 0.03976809
-0.021147022 -0.08414051 -0.030358657 0.008039855 -0.05340516 -0.012427988 -0.022096211 -0.044564717
0.06354371 -0.054310087 0.036088187 0.02761859 0.017542962 -0.027339943 -0.028395114 -0.06630695
-0.04970799 0.042943045 -0.04826596 -0.07974057 0.035161573 -0.007930959 0.084850036 -0.06467738
0.05968938 0.05006546 0.034665816 -0.050318167 0.08587591 0.061286975 0.07899404 -0.06574001
-0.084623165 -0.015587712 0.05705921 -0.07638638 -0.0011894483 0.037591394 -0.051357258 0.010636526
0.06900818 0.043085523 -0.054070298 -0.054338217 -0.06944454 0.017854823 -0.028380243 0.056247674
0.0053338576 -0.04118052 -0.019432299 0.07117973 0.004498189 0.052619953 0.06782375 0.028507367
0.021959297 0.06408755 0.031639017 0.021157738 0.08718391 -0.06311896 0.0822479 0.005716048
0.001564944 -0.009776459 -0.01783244 -0.018397063 0.026356088 0.07020065 -0.05270977 0.01664025
0.053335525 0.07784271 -0.06618248 0.06304685 0.049332034 0.00016251825 -0.04078419 0.028811766
-0.06048026 -0.08589176 0.059200358 -0.014890548 -0.05311797 0.06669266 0.074932195 -0.035747692
0.031339638 -0.023342267 0.051249918 0.00036225212 0.040258776 -0.024348497 0.051901598 -0.059183635
-0.03225721 0.08383123 -0.02363907 -0.074661575 0.054757953 -0.045828957 -0.07026731 0.04026357
0.038407348 -0.017646104 -0.038929652 0.019904677 0.07368456 -0.021283941 0.007876908 0.0058045257
-0.05491159 0.07730361 -0.082549125 0.036788132 -0.06707626 0.010190065 -0.006072301 -0.06758476
0.040165268 0.04264938 -0.06346806 -0.047854297 0.06992774 0.009050583 0.026671072 0.008789989
-0.027991569 0.005902931 -0.019926533 0.037815508 0.027013354 -0.0046205553 -0.016393133 -0.024002219
0.039638467 -0.066554695 -0.029797882 -0.03470269 0.064276375 -0.040235743 0.06989974 -0.02919936
-0.038289674 0.024686167 -0.06669531 -0.034650672 0.03846494 0.029381318 0.087032884 -0.04791323
00000000: a8ab 803d a9ec 98bb fb0e 18bd f9ce 64bc
00000010: 10a6 20bd 8645 663d 2d83 3bba fef6 a03c
00000020: 86c1 85bd d616 a9bc c711 a43d 1e4e 2c3d
00000030: 0708 82bd 7b32 593d 6f36 8aba 345d 9e3d
00000040: 73fb 8ebc d3cb 0a3d 61b6 d73b c0f5 5f3d
00000050: d5aa 3a3c 0709 9bbd 778e 92bd 8ac4 6d3d
00000060: e4b8 853d 5d6b 7ebc b29e 21bd ea4f 9cbd
00000070: a483 8ebd bfe1 863d c968 113d b4bd 993c
00000080: ae16 2b3c 62ae bf3a 68ed f5bc bd62 88bd
00000090: 2b10 d73c 38b0 61bd 6421 8b3d 4ad4 a83d
000000a0: e02f 26bd 53b1 88bd fbf3 c93c 5556 433d
000000b0: 1544 a1bd dd43 8abd ea3f 4e3d 4813 28bd
000000c0: 7485 a93d 7d6a a9bd f780 5b3c 098c 8c3d
000000d0: 9214 973d 3aac 65bd 73e1 10bc fa2f 3f3d
000000e0: 49c1 d43c 2387 863d 3ff1 acbc f8a5 3a3d
000000f0: 375d 833d 8377 3cbd 54cb 9abd 0423 013d
00000100: 62e0 0b3d a949 983d 55dd 9bbd f55d ec3c
00000110: 274c 97bb 8f15 b3bd 9671 8a3d eb2c c2bc
00000120: dbb2 933d 9404 ab3d 2926 273d faa6 4b3d
00000130: 077a 883d 65c0 ffbc e202 713d 6f02 b0bc
00000140: 668b f2ba 6064 863d 0475 54bc cc17 893d
00000150: 735b 87bc 5e9e 69ba 3561 3fbd 919c 3a3d
00000160: 3225 1f3d 4ce2 cebc 9003 493d 8785 edbc
00000170: 3131 56bc d4d6 35bc 5e7a a6bd 1146 40bc
00000180: edf1 0ebd 90ca 973d 17ee c3bc 2b84 1fbd
00000190: c1e2 a93d c3fd 20bd 95a9 1e3d dde3 223d
000001a0: 853c adbc dc51 acbd b8b2 f8bc 99b9 033c
000001b0: 5ebf 5abd c39e 4bbc 1d03 b5bc 7e89 36bd
000001c0: 3423 823d 4174 5ebd 35d1 133d 6240 e23c
000001d0: 42b6 8f3c 04f8 dfbc df9c e8bc f0cb 87bd
000001e0: 9b9a 4bbd 0ce5 2f3d 87b2 45bd 064f a3bd
000001f0: 9505 103d daf0 01bc dbc5 ad3d 9375 84bd
00000200: da7c 743d 7111 4d3d befd 0d3d 6c1a 4ebd
00000210: b6df af3d 0d08 7b3d a1c7 a13d b3a2 86bd
00000220: e94e adbd 9a63 7fbc ebb6 693d 7670 9cbd
00000230: 43e7 9bba 6ff9 193d fd5b 52bd d344 2e3c
00000240: 2954 8d3d 727a 303d d178 5dbd c091 5ebd
00000250: f038 8ebd 4744 923c af7d e8bc f663 663d
00000260: a4c7 ae3b e8ac 28bd 7c30 9fbc aec6 913d
00000270: 8b65 933b 0588 573d 2ee7 8a3d 4888 e93c
00000280: fce3 b33c 5540 833d ea97 013d fe52 ad3c
00000290: 7a8d b23d 8344 81bd 9671 a83d b04d bb3b
000002a0: cf1e cd3a 712d 20bc 5615 92bc 70b5 96bc
000002b0: b9e8 d73c 5cc5 8f3d 33e6 57bd 2251 883c
000002c0: 5a76 5a3d 006c 9f3d ae8a 87bd b51e 813d
000002d0: 6310 4a3d a969 2a39 530d 27bd a706 ec3c
000002e0: 26ba 77bd 05e8 afbd 137c 723d 7cf7 73bc
000002f0: 3a92 59bd 2996 883d 0d76 993d 2c6c 12bd
00000300: fe5d 003d 4838 bfbc 6feb 513d a8ec bd39
00000310: 63e6 243d 8076 c7bc c596 543d 8a6a 72bd
00000320: 2320 04bd b5af ab3d b9a6 c1bc 2be8 98bd
00000330: e049 603d 25b7 3bbd 4fe8 8fbd 6aeb 243d
00000340: 0651 1d3d 908e 90bc b374 1fbd 220f a33c
00000350: eee7 963d a95b aebc 260e 013c e433 be3b
00000360: faea 60bd 5b51 9e3d 840f a9bd 27af 163d
00000370: 475f 89bd 3bf4 263c 27fa c6bb e169 8abd
00000380: 5684 243d 1eb1 2e3d 8bfb 81bd de02 44bd
00000390: 4636 8f3d e548 143c 4b7d da3c e303 103c
000003a0: 934e e5bc 606d c13b f83c a3bc 6fe4 1a3d
000003b0: 1c4b dd3c 0768 97bb e44a 86bc 4da0 c4bc
000003c0: f25b 223d d44d 88bd b01a f4bc 6824 0ebd
000003d0: 55a3 833d 3cce 24bd 9827 8f3d 7f33 efbc
000003e0: a2d5 1cbd a53a ca3c 8d97 88bd dded 0dbd
000003f0: 6a8d 1d3d 17b1 f03c 4c3e b23d aa40 44bd

bias f4 [2]
-0.048666116 -0.040752817
00000000: 1f56 47bd 6dec 26bd
