model_saved/epoch_99.pth (torch, 139407 bytes, 8 tensors)

weight f4 [128, 5]
-0.037818052 -0.41102988 0.1758919 -0.20169961 0.03602938 -0.25219202 -0.09628042 -0.009733334
-0.2673823 0.025106117 -0.06811477 -0.08068169 -0.0009960816 -0.08497125 -0.3934162 0.24772748
-0.054257076 0.2311488 -0.14513771 0.34623545 0.35021728 0.0440897 -0.04613499 -0.09788535
-0.11561688 -0.23099028 0.20246781 -0.06802421 -0.25181732 0.32377034 -0.15990171 -0.16678172
-0.2891755 0.070842154 -0.37855145 0.3699503 0.010450499 -0.15405402 0.093473405 -0.31232396
-0.356413 -0.19874859 -0.0038241774 -0.26808107 -0.3177299 0.12697417 0.38678733 -0.39454404
0.25263783 0.39723927 -0.30290005 0.430431 -0.3863739 -0.40080538 -0.010405536 0.38938788
0.25888935 0.3051668 -0.24155784 0.009392519 0.44666895 0.22702302 -0.14792474 -0.16601965
0.120670274 -0.34666425 -0.05163498 -0.22537372 -0.18675748 -0.07952431 0.36511979 -0.12464684
-0.17791408 0.25362867 0.43993852 0.4412832 -0.3507764 -0.023172706 -0.31326455 0.34434864
0.20071386 -0.41309276 -0.37546912 -0.028429601 0.039187305 -0.3485398 -0.07720667 -0.26256168
-0.40315983 -0.008406434 -0.061946027 0.41444916 -0.09116424 -0.23192118 0.28458384 -0.45745352
0.20000868 -0.21096823 0.06737576 0.20718777 -0.3924671 0.34287676 -0.27320004 -0.1824669
-0.036675893 -0.3426357 0.05295944 -0.400319 0.060627583 0.15378302 0.43068996 0.27753812
0.105634555 -0.057418376 -0.22274669 0.10088958 0.42510933 0.44664747 -0.07571143 0.033946328
-0.2005256 -0.35058495 0.26824874 0.20789436 0.060688157 0.4190209 0.46303126 0.17518461
0.43392098 0.20720059 -0.41381317 0.3260908 0.21025598 -0.3438747 -0.28105652 0.047335684
-0.12867719 -0.14363675 -0.2621458 -0.25847867 -0.3749132 -0.1315516 0.053358342 -0.28316706
-0.014073844 -0.17980358 0.122224435 -0.38914576 -0.015409056 -0.45220006 0.122997 -0.1867546
0.021719847 -0.43986815 -0.049128406 -0.2149258 -0.38754416 0.07071061 0.16168338 0.04279232
-0.35085 0.10193338 -0.3532518 -0.07100767 -0.04616639 -0.15654038 -0.1892333 -0.22101632
-0.122039236 0.390587 -0.08833781 0.33769143 -0.09403221 0.4779517 -0.07094271 -0.21120355
-0.2661235 -0.29497096 -0.36988762 -0.023702202 -0.1352013 0.24909967 -0.41749144 0.17707443
-0.3113738 -0.06042284 0.41332 0.41996557 0.3886516 0.10720825 -0.051199496 -0.10962057
-0.13829425 0.39997658 0.34277752 0.02513609 0.44159198 0.3251915 -0.37524 -0.27774003
-0.21943292 -0.43739316 0.09498532 0.3980753 0.12727562 0.012743897 0.003794565 0.37393293
-0.15790701 0.014078012 -0.2138628 0.3750103 -0.24605691 0.30473867 0.18910155 -0.07179291
0.38322803 -0.23035519 0.13543014 0.2865699 -0.08306662 0.25702304 0.272502 -0.15221497
-0.44500747 -0.2812246 -0.07649709 0.14366436 -0.24228759 -0.19044502 -0.3595565 0.06669482
0.1417792 0.3662869 -0.13649838 -0.26618737 -0.13473105 0.30962473 -0.11915374 0.34424445
0.28481945 -0.41558945 -0.053293623 0.20439358 -0.20313744 0.09729648 -0.0996784 0.12155577
-0.24995562 -0.07627743 0.1440071 -0.4463044 -0.3845634 0.3125484 -0.22069933 0.03300037
00000000: 1ae7 1abd 8272 d2be 021d 343e 588a 4ebe
00000010: 8b93 133d 501f 81be ab2e c5bd 9078 1fbc
00000020: 55e6 88be 58ab cd3c c27f 8bbd 713c a5bd
00000030: f48e 82ba 6805 aebd d96d c9be 46ac 7d3e
00000040: ab3c 5ebd 45b2 6c3e fb9e 14be c645 b13e
00000050: ae4f b33e 6797 343d 0bf8 3cbd 1d78 c8bd
00000060: 8bc8 ecbd b788 6cbe b953 4f3e 4750 8bbd
00000070: 33ee 80be 3ac5 a53e 46bd 23be d4c8 2abe
00000080: d00e 94be b115 913d 7fd1 c1be 206a bd3e
00000090: 9238 2b3c 56c0 1dbe fc6e bf3d ede8 9fbe
000000a0: c47b b6be c084 4bbe 0d9f 7abb ec41 89be
000000b0: 7ead a2be 8405 023e fd08 c63e ad01 cabe
000000c0: bf59 813e f262 cb3e b715 9bbe 7461 dc3e
000000d0: cdd2 c5be 5d36 cdbe fb7b 2abc d95d c73e
000000e0: 258d 843e d33e 9c3e f05a 77be 14e3 193c
000000f0: cbb1 e43e b978 683e 9579 17be 0e01 2abe
00000100: fa21 f73d fa7d b1be 337f 53bd 5ec8 66be
00000110: 5a3d 3fbe a4dd a2bd fbf0 ba3e d846 ffbd
00000120: 1c2f 36be 9edb 813e 9f3f e13e dfef e13e
00000130: f798 b3be b0d4 bdbc 3664 a0be 774e b03e
00000140: ef87 4d3e e580 d3be 7d3d c0be 32e5 e8bc
00000150: de82 203d cf73 b2be 881e 9ebd 7c6e 86be
00000160: f76a cebe 24bb 09bc 1ebb 7dbd ae32 d43e
00000170: 51b4 babd bf7c 6dbe f9b4 913e 5937 eabe
00000180: 13cf 4c3e 0e08 58be 4dfc 893d 0829 543e
00000190: 73f1 c8be 8b8d af3e e0e0 8bbe 9ad8 3abe
000001a0: 7639 16bd f26d afbe ffeb 583d 9df6 ccbe
000001b0: a154 783d 4c79 1d3e 6583 dc3e 7a19 8e3e
000001c0: ee56 d83d 882f 6bbd b517 64be 329f ce3d
000001d0: eea7 d93e faae e43e 980e 9bbd 4e0b 0b3d
000001e0: 9556 4dbe df7f b3be e657 893e 42e2 543e
000001f0: 2594 783d e889 d63e 6f12 ed3e 9863 333e
00000200: e42a de3e 642c 543e 52df d3be 60f5 a63e
00000210: 584d 573e 5810 b0be a4e6 8fbe 10e3 413d
00000220: f4c3 03be 8315 13be f937 86be 5157 84be
00000230: 9ff4 bfbe 76b5 06be 478e 5a3d 46fb 90be
00000240: fb95 66bc 6e1e 38be ce50 fa3d 1d3e c7be
00000250: 4476 7cbc c486 e7be dae5 fb3d 993c 3fbe
00000260: d2ed b13c 6636 e1be de3a 49bd 8215 5cbe
00000270: 306c c6be b9d0 903d 5490 253e 0047 2f3d
00000280: 9ca2 b3be 73c2 d03d 6cdd b4be 786c 91bd
00000290: f818 3dbd 1f4c 20be 60c6 41be 1a52 62be
000002a0: b5ef f9bd 05fb c73e 74ea b4bd e4e5 ac3e
000002b0: f693 c0bd 16b6 f43e 694a 91bd be45 58be
000002c0: 5741 88be 6f06 97be e961 bdbe 1f2b c2bc
000002d0: 3672 0abe fc13 7f3e 70c1 d5be 0053 353e
000002e0: 636c 9fbe f17d 77bd ae9e d33e ba05 d73e
000002f0: 58fd c63e 0090 db3d 90b6 51bd c080 e0bd
00000300: 029d 0dbe bbc9 cc3e 8980 af3e 34ea cd3c
00000310: 5818 e23e 807f a63e 751f c0be f133 8ebe
00000320: 06b3 60be fff1 dfbe aa87 c23d 87d0 cb3e
00000330: 8a54 023e c7cb 503c 3dae 783b 2374 bf3e
00000340: 60b2 21be 76a7 663c dafe 5abe 5a01 c03e
00000350: 58f6 7bbe b506 9c3e d6a3 413e 2908 93bd
00000360: 7736 c43e 3be2 6bbe 33ae 0a3e 4ab9 923e
00000370: d51e aabd 8698 833e 6285 8b3e 3ede 1bbe
00000380: 05d8 e3be acfc 8fbe 82aa 9cbd c01c 133e
00000390: 3d1a 78be 0504 43be ca17 b8be 4b97 883d
000003a0: 912e 113e f589 bb3e 3bc6 0bbe b649 88be
000003b0: f0f6 09be 2287 9e3e e006 f4bd cf40 b03e
000003c0: dbd3 913e 24c8 d4be 6a4a 5abd 8d4c 513e
000003d0: 4303 50be 6043 c73d 3024 ccbd 3bf2 f83d
000003e0: 5ef4 7fbe 5737 9cbd 9976 133e 0382 e4be
000003f0: 7ee5 c4be 5806 a03e 01ff 61be 652b 073d

bias f4 [128]
-0.34020722 0.2823224 0.38017237 0.3776759 0.3315303 -0.05000281 0.36376828 -0.2577876
0.13692826 0.02303127 0.17071782 -0.27871162 -0.12271048 -0.25174153 0.22531474 0.27472693
0.2935796 0.4345107 -0.39970934 0.30155897 0.22493161 0.23319109 -0.40298134 0.21130113
0.30801827 -0.05515024 -0.29110503 -0.44060856 0.40645167 0.063164525 -0.10151679 0.11388822
0.3294616 0.23852092 -0.18357976 -0.36268303 0.30324253 -0.0037193894 -0.1915309 0.09399328
0.39235732 -0.057897363 0.26081127 0.18284473 -0.18340985 0.0003128882 0.33994266 0.2331613
-0.028193738 0.1983129 0.46989578 0.437456 -0.25137436 0.10267616 0.3912256 -0.317152
-0.06976809 0.21026273 -0.4383663 -0.27931467 0.41621137 0.21325845 -0.39502648 -0.3326796
0.33766907 0.028409816 0.23669995 -0.21676095 0.20348752 -0.3560935 0.48485267 -0.3209401
0.2870375 -0.06685157 -0.30946952 0.1576825 0.33721474 -0.36725783 -0.20671178 -0.023837846
-0.4466889 -0.09993476 0.24255732 0.15758802 0.14968738 0.3748246 -0.40246877 -0.13184509
0.41547948 -0.16495878 -0.13860455 -0.17684536 0.39417258 0.17245427 -0.2981039 -0.19085547
0.22802652 -0.1510059 -0.22141396 -0.025423035 0.3276428 0.26282132 -0.3889959 0.1280672
-0.038447116 0.16979219 -0.33277446 -0.27346045 0.017913088 0.43067655 0.09270146 -0.26456282
0.312529 0.45283464 -0.17110829 -0.14950952 0.24970052 0.38187522 0.17376296 -0.41631076
-0.19846976 0.12712045 -0.2446221 -0.16745909 0.15831931 -0.039726887 -0.055592615 -0.3658962
00000000: a42f aebe 908c 903e f4a5 c23e bc5e c13e
00000010: 57be a93e bfcf 4cbd d63f ba3e bcfc 83be
00000020: ec36 0c3e 13ac bc3c a7d0 2e3e 4ab3 8ebe
00000030: a24f fbbd 44e4 80be e8b8 663e 02a9 8c3e
00000040: 1150 963e 3078 de3e b4a6 ccbe f065 9a3e
00000050: 7954 663e a5c9 6e3e 9253 cebe 535f 583e
00000060: 92b4 9d3e 38e5 61bd b80b 95be 7297 e1be
00000070: 6f1a d03e 675c 813d 09e8 cfbd 3a3e e93d
00000080: 31af a83e d43e 743e 55fc 3bbe 97b1 b9be
00000090: 9b42 9b3e 00c1 73bb ad20 44be 8c7f c03d
000000a0: 0fe3 c83e c925 6dbd 0e89 853e a63b 3b3e
000000b0: cbcf 3bbe 250b a439 f70c ae3e d6c1 6e3e
000000c0: 8ef6 e6bc 8912 4b3e 2e96 f03e 3cfa df3e
000000d0: 24b4 80be e147 d23d b94e c83e bf61 a2be
000000e0: 93e2 8ebd 1d4f 573e 8c71 e0be 5502 8fbe
000000f0: a819 d53e 6c60 5a3e e940 cabe fb54 aabe
00000100: f6e2 ac3e b4bb e83c 7961 723e 95f6 5dbe
00000110: 085f 503e e351 b6be 9c3e f83e 4352 a4be
00000120: 94f6 923e 7ae9 88bd ca72 9ebe 8577 213e
00000130: 69a7 ac3e 3809 bcbe 41ac 53be 9647 c3bc
00000140: 68b4 e4be 98aa ccbd f260 783e c15e 213e
00000150: a647 193e 03e9 bf3e 6310 cebe 6602 07be
00000160: bab9 d43e f4ea 28be 5aee 0dbe f316 35be
00000170: fdd0 c93e da97 303e 13a1 98be 9e6f 43be
00000180: c97f 693e 4aa1 1abe 57ba 62be f843 d0bc
00000190: ccc0 a73e 8490 863e 782a c7be 0c24 033e
000001a0: b97a 1dbd 01de 2d3e 6a61 aabe 0203 8cbe
000001b0: 78be 923c a381 dc3e 43da bd3d c774 87be
000001c0: cd03 a03e f1d9 e73e 0337 2fbe 0619 19be
000001d0: 7eb1 7f3e 2685 c33e ebee 313e af26 d5be
000001e0: a83b 4bbe dd2b 023e 377e 7abe 657a 2bbe
000001f0: 751e 223e a9b8 22bd 15b5 63bd bf56 bbbe

weight f4 [128, 128]
-0.062057167 -0.007646376 0.019080942 -0.08801271 -0.06830326 0.0386709 0.033534203 0.016613064
0.021469994 0.07384546 -0.074589774 0.085305445 -0.08227598 0.043520402 0.024499815 -0.075089976
0.055130847 0.04545645 0.05828186 -0.012969723 -0.030923247 -0.08766345 0.04279967 -0.030644668
0.035712752 -0.042299535 0.017817602 0.0028107627 -0.032515693 -0.074434735 0.061032735 -0.079590194
-0.07612617 0.06052909 0.083064295 0.025439627 0.011500874 -0.08454776 -0.0364526 0.035742506
-0.007474185 -0.0022330664 0.048813067 -0.057714164 0.08597615 -0.0017021216 -0.036587227 0.014587645
-0.011305882 0.025219694 0.07296305 0.0068347016 0.070148826 0.024946086 -0.015049733 0.0012877443
0.051260892 -0.05606536 0.014019264 0.0048706373 -0.020350173 0.077559106 0.037469033 -0.03624374
-0.029357798 -0.04312279 0.05819205 0.057634518 -0.064143784 -0.02666905 0.017078198 -0.026111817
-0.05403149 -0.0017702519 0.039830964 -0.02617944 -0.02171749 -0.043911505 -0.0744007 -0.06725755
-0.036952153 -0.03686843 0.08406614 -0.048283756 0.045120064 -0.030232608 -0.01918417 -0.039782103
-0.030435883 -0.015904935 0.012192978 -0.07980884 0.043184776 -0.05415501 -0.013158952 -0.03376187
0.07002212 -0.087255396 0.032465097 0.059457835 0.041939043 -0.0634605 0.066313595 0.023084598
-0.07980982 -0.020018036 0.066695556 0.013596731 -0.07581758 0.07847571 -0.029011646 0.05591041
-0.053060196 0.018361496 -0.060375582 0.040399894 -0.017805105 -0.007608697 -0.026556665 -0.007393653
0.0068395273 0.0401562 0.03833336 -0.06290484 -0.053986445 -0.013275509 0.08763296 -0.06958306
-0.068872124 0.036955558 0.075976394 0.024443 -0.07599323 -0.038045064 0.021298572 -0.061752845
0.07295671 -0.06153366 0.07831886 -0.0068017845 -0.07491889 0.054460745 -0.04251218 -0.0689521
-0.029429985 0.082199514 -0.07169251 0.024296477 0.010180087 0.014092515 -0.03752865 0.034442995
0.07664721 -0.032810353 0.06382469 0.0048379838 0.0046699867 -0.018391442 0.06701603 -0.058014084
-0.04998161 -0.060149644 -0.0062839473 -0.07730341 0.07450738 0.009625803 -0.060623184 0.032417174
-0.05685397 0.081096604 0.039178222 0.086722985 -0.05716273 0.0123165315 -0.058072645 0.0025786601
0.020485643 -0.06692535 -0.07105223 -0.06162256 -0.062807456 0.057526536 -0.07377248 -0.04100997
0.006397533 -0.06734923 0.011357006 0.03278321 -0.07423065 0.056910835 -0.026491981 -0.010899417
0.018737445 0.086648695 -0.07922286 -0.03784596 -0.023085704 0.061521605 0.054108776 -0.06468378
-0.017106226 0.005729485 -0.066729404 0.08289499 0.03766924 -0.016254384 0.054184377 -0.0281964
0.009147246 -0.043095596 -0.0756704 0.07768656 -0.08311194 -0.084736556 0.041831862 0.061622642
-0.015870154 -0.06220587 -0.065183654 0.024471618 0.026255274 0.07776997 -0.019720731 -0.052633468
0.01905108 -0.082915254 0.073769726 -0.006599459 -0.064836994 0.031241393 0.009437196 0.049912617
0.028762147 0.070673764 -0.026709227 -0.0566365 -0.045878075 0.066085495 0.008702871 -0.03745621
-0.07207537 -0.07158869 -0.0032025494 0.053442013 -0.020131389 -0.08559763 0.062860146 -0.018336924
-0.02170276 -0.0020760484 -0.033744432 -0.020688044 -0.06720594 0.08357533 -0.025967453 0.011292511
00000000: a82f 7ebd 738e fabb a34f 9c3c 0240 b4bd
00000010: 94e2 8bbd 6165 1e3d 295b 093d 1f18 883c
00000020: d7e1 af3c 4a3c 973d 86c2 98bd 9fb4 ae3d
00000030: 4f80 a8bd 7342 323d d6b3 c83c c6c8 99bd
00000040: e2d0 613d 8b30 3a3d f6b8 6e3d f67e 54bc
00000050: c052 fdbc e588 b3bd b54e 2f3d 870a fbbc
00000060: 8947 123d 4742 2dbd 38f6 913c c634 383b
00000070: 2d2f 05bd 3d71 98bd 76fd 793d 2f00 a3bd
00000080: 0ae8 9bbd 5aed 773d 9d1d aa3d c466 d03c
00000090: 296e 3c3c 6027 adbd 524f 15bd bc66 123d
000000a0: 02ea f4bb a358 12bb 36f0 473d b065 6cbd
000000b0: 4414 b03d b919 dfba 7ddc 15bd 0501 6f3c
000000c0: 4e3c 39bc 8899 ce3c a76d 953d a2f5 df3b
000000d0: 30aa 8f3d bc5b cc3c 2893 76bc 87c9 a83a
000000e0: f1f6 513d caa4 65bd 0eb1 653c de99 9f3b
000000f0: 68b5 a6bc 4fd7 9e3d 2179 193d 5174 14bd
00000100: c47f f0bc 86a1 30bd c95a 6e3d 2c12 6c3d
00000110: d15d 83bd 0d79 dabc 94e7 8b3c 73e8 d5bc
00000120: 2050 5dbd cc07 e8ba cb25 233d 4476 d6bc
00000130: e1e8 b1bc 8ddc 33bd 655f 98bd 54be 89bd
00000140: 245b 17bd 5a03 17bd de2a ac3d 30c5 45bd
00000150: d1cf 383d 60aa f7bc 1f28 9dbc 8ff2 22bd
00000160: ac54 f9bc 114b 82bc 0ec5 473c d172 a3bd
00000170: 85e2 303d a5d1 5dbd a598 57bc e349 0abd
00000180: c267 8f3d f5b2 b2bd 1ffa 043d 0f8a 733d
00000190: 46c8 2b3d 94f7 81bd 6ccf 873d e91b bd3c
000001a0: 5573 a3bd ddfc a3bc ae97 883d d3c4 5e3c
000001b0: 3f46 9bbd dfb7 a03d d5a9 edbc 5002 653d
000001c0: a655 59bd d96a 963c 634c 77bd 5c7a 253d
000001d0: 03dc 91bc 6052 f9bb 5d8d d9bc 7546 f2bb
000001e0: 1d1e e03b d47a 243d 7103 1d3d 41d4 80bd
000001f0: e420 5dbd 8581 59bc e978 b33d 9081 8ebd
00000200: d40c 8dbd b65e 173d 8399 9b3d b03c c83c
00000210: 57a2 9bbd 24d5 1bbd 587a ae3c 8df0 7cbd
00000220: 546a 953d b80a 7cbd a365 a03d 81e1 debb
00000230: 136f 99bd 3b12 5f3d 4021 2ebd c236 8dbd
00000240: 2717 f1bc 3858 a83d 86d3 92bd 6809 c73c
00000250: 61ca 263c 4be4 663c a4b7 19bd 1914 0d3d
00000260: 36f9 9c3d 2664 06bd 85b6 823d f387 9e3b
00000270: b006 993b a6a9 96bc b33f 893d 2da0 6dbd
00000280: 84b9 4cbd 795f 76bd 92e9 cdbb 4051 9ebd
00000290: 5397 983d 8bb5 1d3c 0450 78bd dfc7 043d
000002a0: b5df 68bd fa15 a63d 5879 203d d29b b13d
000002b0: 7723 6abd 47cb 493c 95dd 6dbd bdfe 283b
000002c0: 82d1 a73c 2810 89bd d583 91bd f067 7cbd
000002d0: 32a1 80bd f2a0 6b3d 0716 97bd 12fa 27bd
000002e0: 66a2 d13b 65ee 89bd bc12 3a3c b047 063d
000002f0: 3d06 98bd 561b 693d b605 d9bc 7893 32bc
00000300: 457f 993c df74 b13d 983f a2bd 5e04 1bbd
00000310: 3b1e bdbc 14fe 7b3d 2aa1 5d3d ee78 84bd
00000320: 5b22 8cbc 67be bb3b 6da9 88bd d9c4 a93d
00000330: 104b 1a3d ea27 85bc 70f0 5d3d 23fc e6bc
00000340: 55de 153c 0285 30bd 15f9 9abd 221a 9f3d
00000350: 9836 aabd 5c8a adbd e357 2b3d 0668 7c3d
00000360: 2002 82bc 95cb 7ebd 027f 85bd b478 c83c
00000370: 4d15 d73c dd45 9f3d 5f8d a1bc 3196 57bd
00000380: 0311 9c3c 79cf a9bd 9514 973d 4640 d8bb
00000390: 42c9 84bd f3ed ff3c 789e 1a3c 2c71 4c3d
000003a0: 989e eb3c 68bd 903d 4fcd dabc adfb 67bd
000003b0: a6ea 3bbd d557 873d 7d96 0e3c af6b 19bd
000003c0: 409c 93bd 179d 92bd dde1 51bb 03e6 5a3d
000003d0: 95ea a4bc cf4d afbd d2bc 803d 5137 96bc
000003e0: fdc9 b1bc 500e 08bb 9a37 0abd f979 a9bc
000003f0: 45a3 89bd 8b29 ab3d b2b9 d4bc 3904 393c

bias f4 [128]
-0.07362896 -0.08058633 0.010422249 -0.08319548 -0.009885358 -0.043437395 0.076315224 0.022470985
-0.06152265 -0.05586344 0.06633363 -0.017711928 0.07951824 -0.021087399 0.008622275 -0.041091435
-0.0012250824 -0.03071631 0.057820678 -0.076741606 0.05350456 0.07901182 0.078526355 0.03756575
-0.06040651 0.08776089 0.06464753 0.03474747 0.06266305 -0.03804377 -0.061364964 -0.0134975
0.06795762 -0.07882674 0.060519565 -0.025716009 0.060639985 0.08705568 0.074735075 0.09028351
-0.0001353085 0.047391232 -0.025150213 0.010541032 0.04599507 0.022500882 0.055046704 0.077206135
-0.050941885 0.02037418 0.069299005 0.06681518 -0.02522124 0.03510812 -0.0040142983 -0.058847588
0.014760933 -0.054471336 0.024001751 0.103211105 -0.023025569 0.038806845 -0.02056888 0.08100523
0.08550352 0.003449424 0.049892515 0.07113361 -0.06280912 0.047882266 0.051752478 0.020804316
0.04952566 -0.01958315 0.046773065 -0.009443213 -0.063023254 -0.028576864 -0.056376044 0.0108057
-0.02670005 0.0077576735 0.050648727 -0.09519737 0.01728704 0.0772023 0.010907048 -0.035964306
0.08577694 -0.022322718 0.06331434 0.0524555 -0.08344941 0.053264502 0.026133552 -0.08039374
-0.0012659695 0.0297352 0.034084503 -0.07169528 -0.015187335 -0.057540316 -0.07707664 0.09468603
0.001850888 0.060348343 0.090223335 0.031358667 -0.020775367 -0.009739669 -0.030434325 -0.028105156
-0.07678229 0.0072089303 0.008972214 -0.0071699102 -0.08783823 0.062549956 0.06038979 0.018829156
-0.01359351 -0.037236217 0.06207443 -0.0016697 0.025747593 -0.014741106 -0.05625113 -0.047876418
00000000: c8ca 96bd 720a a5bd 15c2 2a3c 6462 aabd
00000010: 32f6 21bc 69eb 31bd 284b 9c3d 1215 b83c
00000020: 2dff 7bbd 10d1 64bd edd9 873d 9b18 91bc
00000030: 76da a23d 7bbf acbc 7144 0d3c 7e4f 28bd
00000040: f292 a0ba c5a0 fbbc 60d5 6c3d b42a 9dbd
00000050: 9927 5b3d f3d0 a13d 6dd2 a03d 8bde 193d
00000060: d16c 77bd fbbb b33d ed65 843d 5d53 0e3d
00000070: 7c55 803d c9d3 1bbd d459 7bbd 9e24 5dbc
00000080: 5d2d 8b3d ea6f a1bd 5de3 773d 61aa d2bc
00000090: a261 783d 404a b23d b40e 993d 90e6 b83d
000000a0: 99e1 0db9 4f1d 423d d207 cebc 4bb4 2c3c
000000b0: 5465 3c3d c553 b83c a778 613d 401e 9e3d
000000c0: 70a8 50bd c1e7 a63c a3ec 8d3d 66d6 883d
000000d0: c69c cebc 88cd 0f3d 608a 83bb 2b0a 71bd
000000e0: d7d7 713c 561d 5fbd 529f c43c 5860 d33d
000000f0: 1ea0 bcbc edf3 1e3d 1180 a8bc 12e6 a53d
00000100: 781c af3d bb0f 623b 185c 4c3d 80ae 913d
00000110: 11a2 80bd 3220 443d 68fa 533d d06d aa3c
00000120: 6bdb 4a3d d86c a0bc 1d95 3f3d b5b7 1abc
00000130: 5612 81bd 071a eabc 91ea 66bd 640a 313c
00000140: 10ba dabc 1534 fe3b 0a75 4f3d d7f6 c2bd
00000150: 8d9d 8d3c 3d1c 9e3d 7ab3 323c 4f4f 13bd
00000160: d2ab af3d 22de b6bc f3aa 813d 94db 563d
00000170: 86e7 aabd e12b 5a3d 0816 d63c 79a5 a4bd
00000180: e3ee a5ba 3c97 f33c 319c 0b3d fad4 92bd
00000190: 4dd4 78bc 65af 6bbd 5cda 9dbd c0ea c13d
000001a0: 7f99 f23a d32f 773d 03c7 b83d f271 003d
000001b0: 1a31 aabc 2293 1fbc 6851 f9bc c93c e6bc
000001c0: 0940 9dbd e438 ec3b 3100 133c 91f1 eabb
000001d0: 88e4 b3bd 311a 803d 495b 773d 9a3f 9a3c
000001e0: 50b7 5ebc 0185 18bd c241 7e3d d6d9 daba
000001f0: 9eec d23c ae84 71bc 9667 66bd 101a 44bd

weight f4 [128, 128]
-0.02421779 0.0040207673 0.040676344 0.0733582 -0.028856259 -0.07188064 -0.03509863 -0.001072257
0.012376411 0.0720651 -0.04997109 0.0299036 0.06804169 0.0810753 -0.052933425 -0.014556499
0.060229227 -0.084016204 -0.06922011 -0.07908721 0.026543537 -0.042484388 0.0011923133 -0.006110155
0.0022589297 -0.032674648 0.07665683 0.040789783 0.005577161 0.029271038 -0.03451829 0.0822588
-0.00905301 -0.029433187 -0.020431234 -0.023956425 -0.07931224 -0.06172218 0.008663733 -0.05981725
-0.05548107 0.07589922 0.025376225 -0.082221195 -0.062394593 0.07627089 0.054378785 0.031022621
-0.0746193 0.084990054 0.023854632 -0.07672672 0.024736945 0.01201986 -0.08309221 -0.049154192
0.06496331 0.056940485 -0.052881252 0.040998954 -0.05333817 0.056191072 0.051710777 -0.054657888
0.012706727 -0.011746681 -0.012501442 0.023165833 0.05728978 -0.008758874 0.02719362 0.084854186
0.050046314 0.07824068 -0.05124113 -0.04838613 -0.084149115 0.049668375 0.009608754 0.059175722
0.0036492636 -0.034800243 -0.011603537 0.035113625 -0.045860134 0.041462563 -0.035050247 0.056981754
0.0139036 -0.062543906 0.03118068 -0.0024205358 0.00513808 0.065784305 0.062913746 -0.0062219496
0.041225445 0.018591894 0.05931571 -0.0317249 0.05772212 -0.032373663 -0.04562254 0.04796126
0.016195443 0.0010310278 -0.030875072 -0.027634066 -0.045213085 -0.0036493165 -0.08278828 -0.03498301
0.08626328 0.014236338 -0.08370033 -0.014229377 0.079094425 0.020945895 -0.07951535 0.015326579
-0.023388792 -0.06907205 -0.04120821 0.05266825 0.0043213796 -0.00013473602 -0.08250235 0.07107275
0.070854016 -0.037170317 -0.04479983 0.07692935 -0.058605384 0.042214934 0.08187328 -0.1096097
-0.17149186 -0.056732357 0.0064011216 -0.07397695 -0.06403055 -0.1879538 0.057870246 -0.014898945
-0.02787757 -0.20012201 -0.0955642 -0.081341416 -0.030352648 0.0017029782 0.028323336 -0.17175028
0.05186543 0.028930556 0.042279247 0.14858904 -0.042021178 -0.09968088 -0.12808052 -0.06265382
0.022175314 -0.13306178 0.07314784 -0.058790304 0.09475292 0.021346658 0.021406775 0.0900403
-0.07761922 -0.07332901 -0.012806162 -0.06762194 0.09293687 -0.13332085 0.0039720573 -0.12684591
0.06592601 -0.0139983585 -0.037560277 -0.0015337552 -0.06507793 0.0004358302 0.03827862 -0.0010168559
0.042466164 -0.13186058 0.15134862 0.12107872 -0.07519222 0.0033093372 0.07369777 0.043697376
-0.1367265 -0.04999201 0.045140274 0.07076328 -0.0023993358 -0.0011033308 0.12930699 -0.14651635
-0.040835157 -0.038972884 -0.1472199 0.14444457 -0.015986549 -0.08398186 -0.022250928 -0.056580335
-0.022090638 -0.047669865 -0.050957657 0.023434112 0.08680257 0.13558511 -0.019465357 -0.008352164
0.014652271 0.14991893 -0.18787888 -0.06974867 -0.1356642 -0.16072488 -0.026672967 0.022491686
-0.072181 -0.17237942 0.050771594 -0.19182663 0.0035983277 0.0069700303 -0.04565815 0.027956739
0.06915841 -0.08114862 0.031730015 0.030364623 -0.03286517 -0.067384675 -0.08819912 -0.012031156
-0.013349172 -0.18879956 -0.07712445 -0.15403366 0.049716998 -0.03546001 -0.043110926 -0.054953083
0.024045222 0.03471093 0.05985076 -0.043262728 -0.04520733 -0.068835996 -0.0024405343 -0.12055841
00000000: 6364 c6bc a4c0 833b 3d9c 263d d33c 963d
00000010: f663 ecbc 2836 93bd 95c3 0fbd f98a 8cba
00000020: 6ec6 4a3c de96 933d 7cae 4cbd 65f8 f43c
00000030: 7159 8b3d cf0a a63d b8d0 58bd 627e 6ebc
00000040: ecb2 763d b010 acbd 46c3 8dbd 7af8 a1bd
00000050: d571 d93c 1c04 2ebd 6547 9c3a b237 c8bb
00000060: 8d0a 143b dad5 05bd 42fe 9c3d 3013 273d
00000070: 9ec0 b63b d1c9 ef3c 0d63 0dbd 4d77 a83d
00000080: 1353 14bc de1d f1bc 675f a7bc 4440 c4bc
00000090: 756e a2bd 66d0 7cbd 54f2 0d3c ef02 75bd
000000a0: 1e40 63bd 0d71 9b3d cde1 cf3c 9663 a8bd
000000b0: 7991 7fbd ea33 9c3d 4abc 5e3d 2723 fe3c
000000c0: 01d2 98bd 440f ae3d ca6a c33c e622 9dbd
000000d0: 22a5 ca3c f2ee 443c 402c aabd e855 49bd
000000e0: 7c0b 853d 6d3a 693d 039a 58bd 85ee 273d
000000f0: 2079 5abd 9c28 663d aece 533d f3e0 5fbd
00000100: e02f 503c 2775 40bc d9d2 4cbc 46c6 bd3c
00000110: b0a8 6a3d 6181 0fbc 28c5 de3c 08c8 ad3d
00000120: 5dfd 4c3d a63c a03d 38e2 51bd 8930 46bd
00000130: 5f56 acbd 1171 4b3d 096e 1d3c 3e62 723d
00000140: 7c28 6f3b b38a 0ebd c31c 3ebc 4ed3 0f3d
00000150: d6d7 3bbd a6d4 293d d990 0fbd b365 693d
00000160: edcb 633c 0517 80bd a06e ff3c daa1 1ebb
00000170: 575d a83b ecb9 863d ecd8 803d 7fe1 cbbb
00000180: 03dc 283d 074e 983c 08f5 723d f8f1 01bd
00000190: 086e 6c3d 3f9a 04bd b3de 3abd 0773 443d
000001a0: 4eac 843c 8d23 873a b8ed fcbc d660 e2bc
000001b0: 5b31 39bd 5f29 6fbb e78c a9bd 584a 0fbd
000001c0: cdaa b03d 883f 693c 146b abbd 5522 69bc
000001d0: 42fc a13d ba96 ab3c f2d8 a2bd 551c 7b3c
000001e0: da99 bfbc a675 8dbd f1c9 28bd aaba 573d
000001f0: 5c9a 8d3b ed47 0db9 fef6 a8bd 978e 913d
00000200: e91b 913d e73f 18bd 0780 37bd 238d 9d3d
00000210: 330c 70bd 91e9 2c3d 2ead a73d 0d7b e0bd
00000220: 909b 2fbe 3060 68bd 80c0 d13b 3a81 97bd
00000230: 7322 83bd f676 40be 5a09 6d3d b41a 74bc
00000240: 805f e4bc c9ec 4cbe 2ab7 c3bd 5496 a6bd
00000250: 1ea6 f8bc 7736 df3a 5706 e83c 4edf 2fbe
00000260: d870 543d c6ff ec3c 012d 2d3d ba27 183e
00000270: 661e 2cbd 7d25 ccbd 8a27 03be a550 80bd
00000280: 01a9 b53c 5941 08be 89ce 953d 1ace 70bd
00000290: d20d c23d 30df ae3c 435d af3c 0c67 b83d
000002a0: d3f6 9ebd 852d 96bd f0d0 51bc 5f7d 8abd
000002b0: b055 be3d 4385 08be 0828 823b e5e3 01be
000002c0: 3704 873d 5f59 65bc ced8 19bd 4908 c9ba
000002d0: 9447 85bd 2480 e439 0bca 1c3d 0648 85ba
000002e0: 00f1 2d3d 7606 07be 22fb 1a3e 1ff8 f73d
000002f0: 61fe 99bd 77e1 583b dbee 963d 05fc 323d
00000300: 0802 0cbe 6cc4 4cbd 02e5 383d 57ec 903d
00000310: 2d3e 1dbb a39d 90ba 0d69 043e 6208 16be
00000320: c442 27bd 08a2 1fbd d0c0 16be 47e9 133e
00000330: 39f6 82bc aefe abbd 9447 b6bc c8c0 67bd
00000340: 6df7 b4bc 7a41 43bd fab8 50bd e5f8 bf3c
00000350: 8cc5 b13d d3d6 0a3e d075 9fbc 84d7 08bc
00000360: 1410 703c 5984 193e 5263 40be 64d8 8ebd
00000370: 8eeb 0abe 1095 24be 4481 dabc 7c40 b83c
00000380: a2d3 93bd 3b84 30be e0f5 4f3d 336e 44be
00000390: ecd1 6b3b da64 e43b 0a04 3bbd 8805 e53c
000003a0: eda2 8d3d 3f31 a6bd 55f7 013d 3bbf f83c
000003b0: a19d 06bd fa00 8abd bda1 b4bd 531e 45bc
000003c0: 7cb6 5abc ac54 41be 6cf3 9dbd 00bb 1dbe
000003d0: 0da4 4b3d 843e 11bd 1595 30bd 7c16 61bd
000003e0: 7cfa c43c 0c2d 0e3d 1226 753d 4234 31bd
000003f0: 522b 39bd e3f9 8cbd 5ff1 1fbb 54e7 f6bd

bias f4 [128]
-0.0842667 0.029265553 -0.038825676 0.004949417 0.04219566 0.06366548 -0.057751596 -0.08627939
0.046288606 0.053314745 0.05553316 0.041283824 0.055628642 0.030847812 -0.015354575 -0.027731346
0.07852166 -0.020099655 0.07592524 -0.033309203 -0.024443548 0.06165537 -0.043880768 -0.043304015
0.068154946 0.010880212 -0.03544078 -0.005168324 -0.029262261 0.074960686 0.07833959 0.075897634
0.0012930847 0.024499925 0.032456383 -0.06541825 0.084125355 -0.07798848 0.055519976 -0.0019791254
-0.044301797 0.08256407 0.043496415 0.057628013 0.07227518 -0.041280635 0.017887028 -0.02599056
-0.010702039 0.026038218 0.05095745 -0.071208894 -0.042037282 0.008367028 -0.005841201 -0.044927504
-0.05113658 0.045068454 -0.051952638 0.077468716 0.0038958509 -0.009447699 0.03161498 -0.0144882
-0.03132155 -0.08463531 -0.0139302155 -0.051000003 -0.043390606 -0.06567083 -0.05187274 -0.08590163
-0.07879289 -0.023197614 -0.035220396 -0.060649883 -0.07013338 -0.026440965 0.074897975 0.08688449
0.03979212 0.0752215 -0.006253182 -0.024283053 -0.08729353 -0.049714543 -0.014777023 -0.0538319
-0.03246701 -0.07586794 0.059373323 -0.04793917 0.027578259 -0.004395741 -0.047754187 0.07373002
0.05371502 -0.009456772 0.08317918 -0.01463614 0.03542569 0.054527868 0.072104186 0.053655848
-0.057604067 0.017679593 -0.051204123 0.056094304 0.052192446 -0.0845061 -0.08451957 -0.037832256
0.08151221 0.060589172 -0.067644425 0.07448471 -0.022178037 -0.06767595 0.063174024 -0.011358586
0.053077567 -0.04284258 0.031802714 -0.0023515176 -0.062262833 0.0020979254 -0.036861457 -0.077417396
00000000: 0594 acbd 50be ef3c ac07 1fbd b82e a23b
00000010: 5bd5 2c3d 0c63 823d f08c 6cbd 40b3 b0bd
00000020: 1f99 3d3d 9060 5a3d bd76 633d 3a19 293d
00000030: dcda 633d 8db4 fc3c c191 7bbc d92c e3bc
00000040: f7cf a03d 08a8 a4bc b17e 9b3d 3b6f 08bd
00000050: d63d c8bc 578a 7c3d 52bc 33bd 8d5f 31bd
00000060: d294 8b3d eb42 323c 5a2a 11bd 0b5b a9bb
00000070: 69b7 efbc fd84 993d 8270 a03d 3870 9b3d
00000080: b97c a93a 11b4 c83c fcf0 043d 01fa 85bd
00000090: ea49 ac3d 6db8 9fbd ea68 633d 37b4 01bb
000000a0: cd75 35bd 5a17 a93d 4c29 323d 5a0b 6c3d
000000b0: 0205 943d e215 29bd d187 923c 28ea d4bc
000000c0: 9b57 2fbc 1a4e d53c c2b8 503d f8d5 91bd
000000d0: 492f 2cbd dc15 093c 8c67 bfbb e705 38bd
000000e0: 9774 51bd b399 383d 4acc 54bd eba7 9e3d
000000f0: 8851 7f3b 86ca 1abc b67e 013d ea5f 6dbc
00000100: 074b 00bd 4755 adbd 8f3b 64bc 61e5 50bd
00000110: 59ba 31bd 6e7e 86bd 8378 54bd 32ed afbd
00000120: 2b5e a1bd ec08 bebc 4343 10bd 036c 78bd
00000130: 17a2 8fbd b99a d8bc 1c64 993d 7ff0 b13d
00000140: 10fd 223d bb0d 9a3d 7ee7 ccbb 41ed c6bc
00000150: f3c6 b2bd 7aa1 4bbd 541b 72bc d77e 5cbd
00000160: 21fc 04bd a760 9bbd 7131 733d dd5b 44bd
00000170: cdeb e13c 260a 90bb e599 43bd c4ff 963d
00000180: 4804 5c3d 94f0 1abc d959 aa3d 6ccc 6fbc
00000190: 871a 113d 9d58 5f3d 5cab 933d 3cc6 5b3d
000001a0: 3ef2 6bbd cbd4 903c 6abb 51bd 24c3 653d
000001b0: bfc7 553d 8911 adbd 9918 adbd fff5 1abd
000001c0: e0ef a63d 5a2c 783d 2989 8abd 718b 983d
000001d0: b7ae b5bc b099 8abd 6261 813d 5d19 3abc
000001e0: dd67 593d b37b 2fbd 9043 023d eb1b 1abb
000001f0: 5007 7fbd 597d 093b 0afc 16bd 038d 9ebd

weight f4 [2, 128]
-0.033682454 0.09254637 0.058981944 0.060447447 0.059585165 -0.006150859 0.055254348 0.08041571
-0.019634457 0.07783487 -0.012643616 -0.0784103 0.056790743 0.05315715 -0.052885447 0.031558853
0.015765274 0.074103214 -0.05012402 0.053469356 -0.020707283 0.08853383 -0.009697862 0.0575052
-0.035514522 0.093453586 0.06606015 -0.047890704 -0.073178515 -0.06961085 0.030794887 0.00474691
-0.12129026 -0.032549035 0.059603523 -0.0132958405 -0.013601753 -0.049748745 -0.08486881 0.019728396
-0.01590467 0.0019179112 -0.04523862 -0.061913256 -0.068952896 -0.115662344 0.08519218 -0.0048612473
0.05972373 -0.031253804 0.042547543 0.061377227 -0.15989007 -0.0399878 -0.076473534 0.04587551
-0.02143027 0.07820482 0.062775604 0.027830927 -0.06877389 0.062379424 0.02452797 -0.023785446
-0.014068917 -0.08373604 -0.02605745 0.057144668 0.11314823 -0.12490965 0.0775308 -0.027385462
-0.0498571 -0.04679202 -0.056019697 0.050902035 0.06468088 -0.058955412 0.073662885 0.047034897
0.02346787 -0.0078797955 0.030531917 0.07518926 -0.07046717 0.02050444 0.028451843 -0.031979352
-0.019606823 0.08705949 -0.06717578 0.07867381 -0.05586999 -0.09444008 0.019806009 -0.047047842
-0.016325342 0.04457227 0.053640515 -0.032046914 -0.008228099 -0.08389164 -0.0015107327 -0.035795953
-0.013108112 0.07781953 -0.08369325 0.052397773 -0.022199076 -0.022918465 -0.018269302 0.08679692
-0.08071343 -0.03926557 0.043975405 0.07723077 -0.041431714 -0.04001452 -0.016671326 0.03038673
0.06819832 -0.039338034 0.067427345 0.0888209 -0.04265439 0.06473097 -0.054959588 -0.007838376
0.04887585 0.1549744 0.008266229 0.027075132 -0.13614649 0.09154809 0.07842656 0.1381938
-0.08127828 0.0031673845 -0.07664405 -0.042412918 -0.013748609 0.110544436 -0.05830292 0.1580758
0.16192722 0.16751301 -0.037357517 0.059152838 -0.076102726 0.10880867 0.037861824 0.14560817
-0.10336117 0.11617489 0.08032152 0.08782679 -0.066596985 0.07487305 0.18378669 0.062287148
-0.07132448 0.08962814 0.0027737294 -0.12579452 -0.13166137 0.042410947 -0.11168154 -0.056826122
-0.007898772 0.06529798 -0.07641322 -0.10285671 0.0773951 -0.12681021 -0.057924215 -0.12974617
0.110962816 -0.10122604 0.055032153 0.041571297 -0.08411012 -0.024247319 -0.045522112 -0.12863503
-0.066444874 0.010041324 -0.06713497 -0.11635362 0.008489762 0.05740778 0.10519814 -0.07166734
0.18237334 -0.065129764 0.093513496 -0.046850782 0.1726511 -0.0942529 -0.06611459 -0.07112365
-0.0034792854 -0.0025987325 -0.05874663 0.070490435 -0.07892885 0.04303421 -0.13308358 -0.107022315
0.10566816 -0.14548753 0.12966251 -0.06303141 -0.05639691 0.05282251 -0.117229454 -0.12347443
-0.04772822 -0.02395314 -0.12396031 0.01295951 0.10200435 -0.14091119 -0.06230199 0.01059175
-0.05729195 0.03391207 0.0048499536 0.060355492 0.15754735 -0.029308198 0.013901684 -0.09416542
-0.05769702 -0.04627452 -0.08535152 -0.07613153 0.04274784 0.04217816 0.18181849 0.17296855
-0.07859804 0.091958895 0.007336614 -0.06446138 -0.09879038 0.010381586 0.085745275 -0.082900226
-0.07257119 -0.030572355 -0.08726363 -0.026784997 -0.073457055 0.08371272 0.07739806 0.060106874
00000000: 9df6 09bd f488 bd3d 0d97 713d be97 773d
00000010: 930f 743d 258d c9bb 6252 623d feb0 a43d
00000020: 71d8 a0bc e367 9f3d 2b27 4fbc 9495 a0bd
00000030: 699d 683d 50bb 593d 699e 58bd db43 013d
00000040: 2d26 813c 6dc3 973d d84e 4dbd af02 5b3d
00000050: 52a2 a9bc 3a51 b53d c8e3 1ebc 938a 6b3d
00000060: ad77 11bd 9864 bf3d 8b4a 873d 0b29 44bd
00000070: 9ede 95bd 2290 8ebd 8f45 fc3c f88b 9b3b
00000080: 0767 f8bd 2352 05bd d322 743d ccd6 59bc
00000090: e3d9 5ebc 57c5 4bbd b3cf adbd 729d a13c
000000a0: 834a 82bc 6c62 fb3a 224c 39bd c198 7dbd
000000b0: 2d37 8dbd 61e0 ecbd 3d79 ae3d 194b 9fbb
000000c0: dfa0 743d fd03 00bd 5546 2e3d b066 7b3d
000000d0: 39ba 23be 3fca 23bd 289e 9cbd f5e7 3b3d
000000e0: 898e afbc d929 a03d 7f90 803d affd e33c
000000f0: 53d9 8cbd 9181 7f3d e2ee c83c b2d9 c2bc
00000100: 5181 66bc cd7d abbd 6f76 d5bc 8710 6a3d
00000110: 42ba e73d a1d0 ffbd 78c8 9e3d 7a57 e0bc
00000120: f536 4cbd fda8 3fbd e974 65bd a77e 503d
00000130: 6977 843d 3b7b 71bd 91dc 963d aaa7 403d
00000140: b13f c03c 421a 01bc 121e fa3c d4fc 993d
00000150: 1751 90bd edf8 a73c d713 e93c c8fc 02bd
00000160: 7d9e a0bc 3f4c b23d 7593 89bd bc1f a13d
00000170: eed7 64bd cd69 c1bd 3640 a23c 3db5 40bd
00000180: b9bc 85bc 6a91 363d 28b6 5b3d a043 03bd
00000190: 26cf 06bc 61cf abbd c703 c6ba c79e 12bd
000001a0: 68c3 56bc d95f 9f3d 5e67 abbd 0c9f 563d
000001b0: d6da b5bc 81bf bbbc 81a9 95bc 95c2 b13d
000001c0: 154d a5bd efd4 20bd 8e1f 343d 2a2b 9e3d
000001d0: 4db4 29bd 44e6 23bd 4e92 88bc 97ed f83c
000001e0: 90ab 8b3d eb20 21bd 5917 8a3d bbe7 b53d
000001f0: 5fb6 2ebd ac91 843d 4e1d 61bd 886c 00bc
00000200: 0b32 483d 9cb1 1e3e 146f 073c abcc dd3c
00000210: fc69 0bbe 917d bb3d 1b9e a03d ad82 0d3e
00000220: 3a75 a6bd e593 4f3b 8ef7 9cbd 2bb9 2dbd
00000230: d941 61bc 1f65 e23d 0bcf 6ebd 9fde 213e
00000240: 40d0 253e 8888 2b3e 3204 19bd 3f4a 723d
00000250: bfdb 9bbd 14d7 de3d 0015 1b3d 4f1a 153e
00000260: 05af d3bd 1aed ed3d 9c7f a43d 88de b33d
00000270: 0064 88bd 0b57 993d 9432 3c3e cf20 7f3d
00000280: 9212 92bd f58e b73d 75c7 353b 47d0 00be
00000290: 3dd2 06be 1ab7 2d3d 4bb9 e4bd 82c2 68bd
000002a0: da69 01bc f3ba 853d 897e 9cbd 8aa6 d2bd
000002b0: 5281 9e3d 89da 01be f141 6dbd 2edc 04be
000002c0: 7940 e33d 994f cfbd 6569 613d aa46 2a3d
000002d0: ed41 acbd 50a2 c6bc 6575 3abd e7b8 03be
000002e0: 4014 88bd 5e84 243c 0f7e 89bd cf4a eebd
000002f0: a518 0b3c 6c24 6b3d 1f72 d73d 54c6 92bd
00000300: 14c0 3a3e c162 85bd 0184 bf3d 9be6 3fbd
00000310: 73cb 303e aa07 c1bd 1667 87bd 47a9 91bd
00000320: b904 64bb 7f4f 2abb 4ea0 70bd 4a5d 903d
00000330: 73a5 a1bd a444 303d 1047 08be 842e dbbd
00000340: 8c68 d83d affa 14be 40c6 043e 9d16 81bd
00000350: 7200 67bd 6b5c 583d ff15 f0bd 29e0 fcbd
00000360: aa7e 43bd 6039 c4bc e7de fdbd 2054 543c
00000370: a8e7 d03d 064b 10be 5f30 7fbd 0589 2d3c
00000380: f7aa 6abd 62e7 0a3d 5cec 9e3b 5237 773d
00000390: 1854 213e bf17 f0bc e4c3 633c cdd9 c0bd
000003a0: b653 6cbd 5a8a 3dbd c7cc aebd d9ea 9bbd
000003b0: 5c18 2f3d 02c3 2c3d a02e 3a3e ab1e 313e
000003c0: 02f8 a0bd f254 bc3d fb67 f03b 5404 84bd
000003d0: 9c52 cabd 8717 2a3c 389b af3d 98c7 a9bd
000003e0: 34a0 94bd e072 fabc 46b7 b2bd 366c dbbc
000003f0: a770 96bd 9371 ab3d e082 9e3d a032 763d

bias f4 [2]
-0.06575937 0.022776973
00000000: d9ac 86bd c696 ba3c
