model_saved/epoch_4.pth (torch, 139407 bytes, 8 tensors)

weight f4 [128, 5]
0	0xbde8a40a	-0.11359413
1	0xbe338077	-0.17529474
2	0x3e15183e	0.14560029
3	0xbecc822a	-0.39943057
4	0x3e7e5ec0	0.24840832
5	0xbdf968e1	-0.12178207
6	0xbebc7853	-0.3681055
7	0x3dce6ea5	0.100796975
8	0xbdf2b550	-0.11850989
9	0xbe9d28cc	-0.30695188
10	0x3edcdfac	0.43139398
11	0xbebbdab3	-0.36690292
12	0xbed88133	-0.4228607
13	0x3eb8df30	0.3610778
14	0x3ed7dd4f	0.42161033
15	0x3e83b008	0.2572024
16	0x3e69dc53	0.22837953
17	0xbe4b2be4	-0.19840962
18	0xbede587f	-0.43426892
19	0x3e8d4db0	0.27598333
20	0x3d854cd4	0.065087944
21	0xbdcfaadc	-0.10140011
22	0xbec43986	-0.38325137
23	0xbe08156e	-0.13289425
24	0x3e6141a9	0.21997704
25	0xbe797106	-0.24359521
26	0xbebf735d	-0.37392703
27	0x3ebab21f	0.3646402
28	0xbdb6c06e	-0.08923422
29	0x3ec0eb7a	0.37679654
30	0x3e951347	0.2911627
31	0xbe9332b0	-0.2874961
32	0x3e8b87a6	0.2725193
33	0x3d4d15c0	0.05006957
34	0x3eb9e0df	0.36304376
35	0xbebec680	-0.37260818
36	0x3e9531bb	0.29139504
37	0xbee4c741	-0.4468327
38	0xbe126f52	-0.14300278
39	0xbdca5e0a	-0.09881218
40	0xbebe5d86	-0.37180728
41	0xbeb29cd1	-0.34885266
42	0x3e8ea766	0.2786209
43	0x3e86993d	0.26288787
44	0x3d8fe76b	0.07026561
45	0xbedd1804	-0.43182385
46	0xbec98920	-0.3936243
47	0x3ebb4eb7	0.36583492
48	0x3e792d02	0.24333575
49	0xbebfee9c	-0.37486732
50	0x3e6d946b	0.23201148
51	0x3db2c495	0.08728901
52	0xbeaeb647	-0.34123442
53	0x3e8bfead	0.2734274
54	0x3e5a5dba	0.21324816
55	0x3e528274	0.20557576
56	0xbe8c9e7a	-0.27464658
57	0x3c18b07b	0.00931942
58	0x3ec600c6	0.38672465
59	0x3ed41e3a	0.4142931
60	0x3ec6e770	0.38848448
61	0x3ea94cc7	0.3306639
62	0xbdbdc3b9	-0.09265847
63	0x3df62b9b	0.12020036
64	0x3e06a06c	0.13147134
65	0x3ede408f	0.4340863
66	0x3e84b3c5	0.25918403
67	0x3e53cdf0	0.20684028
68	0x3e603566	0.2189537
69	0x3e39e5b2	0.18154028
70	0xbe59d6fd	-0.21273418
71	0x3e81c411	0.253449
72	0xbeaeb016	-0.34118718
73	0x3e8b73e5	0.27236858
74	0xbd92c177	-0.07165807
75	0xbe995664	-0.29948723
76	0x3d1d97fd	0.038475025
77	0xbdb259f7	-0.08708566
78	0xbdd4b37c	-0.103857964
79	0xbea567a2	-0.32305628
80	0xbe618f2b	-0.2202727
81	0xbed8c6b6	-0.42339104
82	0xbd4eb969	-0.05046979
83	0x3e858366	0.26076812
84	0x3ec0a0e7	0.3762276
85	0x3da0ca5c	0.07851097
86	0xbbde7f41	-0.006790072
87	0x3e65d66d	0.22445078
88	0x3e9be764	0.30449975
89	0xbea124f0	-0.31473494
90	0xbcdee671	-0.027209492
91	0xbecf160e	-0.40446514
92	0xbe036cdb	-0.12834494
93	0xbc541a70	-0.012945756
94	0xbeba950f	-0.36441848
95	0xbe341cfc	-0.17589182
96	0xbeab8918	-0.33503032
97	0xbe82e353	-0.2556406
98	0xbe8e0352	-0.27736908
99	0xbebf548b	-0.3736919
100	0xbeb81923	-0.35956678
101	0x3e3b5b43	0.18296532
102	0xbc06450f	-0.008195176
103	0xbe9a9f4a	-0.30199653
104	0xbc00fa6d	-0.007872206
105	0xbde48a54	-0.111591965
106	0x3ec1b9d5	0.3783709
107	0x3df2efbb	0.11862131
108	0x3eaa7fec	0.33300722
109	0xbe226389	-0.15858282
110	0x3e87fe52	0.26561219
111	0x3e255172	0.1614435
112	0xbe04954a	-0.12947574
113	0xbe5a1e61	-0.21300651
114	0xbe06d1b7	-0.13165937
115	0xbe3215f2	-0.17391184
116	0x3ea74407	0.32669088
117	0x3d2ccf43	0.042189848
118	0xbde09298	-0.109654605
119	0x3e7eaf4e	0.24871561
120	0x3d986960	0.07441974
121	0xbe31901a	-0.17340127
122	0x3e9b38a2	0.30316645
123	0xbe45a394	-0.19300681
124	0xbeb21976	-0.3478505
125	0xbec8ffdd	-0.39257708
126	0x3e399e72	0.18126848
127	0xbe8a8f64	-0.27062523
128	0xbede2992	-0.4339109
129	0x3ebbed27	0.3670437
130	0xbe38e1c2	-0.1805487
131	0xbe7ed259	-0.24884929
132	0xbe2d64c2	-0.16932967
133	0xbe629472	-0.2212694
134	0xbde10649	-0.10987527
135	0xbe6b640a	-0.2298738
136	0x3eb7cbe9	0.3589776
137	0x3d492888	0.04911092
138	0xbe68fb54	-0.22752124
139	0x3bfdce85	0.0077455663
140	0x3d22ca78	0.03974387
141	0xbeaf3658	-0.34221148
142	0x3c3e9cd1	0.011634068
143	0x3e491ef4	0.19640714
144	0x3e9114ce	0.28336185
145	0x3e5771f1	0.21039559
146	0xbda366d6	-0.07978599
147	0x3c3df5c8	0.011594243
148	0xbdab8291	-0.08374513
149	0x3eba7c0d	0.36422768
150	0x3eb06716	0.34453648
151	0x3d5a80e6	0.053345583
152	0xbd7b8e97	-0.06141528
153	0xbe5d49a3	-0.21610121
154	0x3eb1bf32	0.34716183
155	0x3eb5d058	0.35510516
156	0x3a5ac9ae	0.00083460927
157	0xbc9f70d9	-0.01946299
158	0x3e9a21c6	0.30103892
159	0x3ea3cb5c	0.31991088
160	0xbe18d1ba	-0.14923754
161	0x3e826b19	0.25472334
162	0xbd990e1e	-0.07473396
163	0x3ed58ae7	0.41707537
164	0xbe686d17	-0.22697864
165	0xbe432b35	-0.19059451
166	0xbec09cad	-0.37619534
167	0xbe2f559d	-0.17122503
168	0xbed9df34	-0.42553103
169	0x3e880e0e	0.26573223
170	0x3e87b766	0.2650711
171	0xbee01c30	-0.43771505
172	0x3e288d11	0.16460063
173	0xbe15134a	-0.1455814
174	0xbc06b2ec	-0.008221369
175	0x3db3a5c4	0.08771852
176	0x3e77feb4	0.24218255
177	0x3eb1b8bb	0.3471125
178	0x3bbd7c56	0.0057826443
179	0xbe36d969	-0.17856373
180	0xbe17161f	-0.14754532
181	0x3ddfe0dc	0.109315604
182	0x3eb40b3b	0.35164818
183	0xbe655c00	-0.22398376
184	0xbe601666	-0.21883544
185	0x3e93b148	0.28846192
186	0x3e6c8142	0.23096183
187	0x3da4f12e	0.08053814
188	0xbeb50154	-0.35352576
189	0xbe2b825c	-0.16748947
190	0x3e95c444	0.292513
191	0x3ed466f8	0.4148481
192	0xbe63825c	-0.22217697
193	0xbebff673	-0.37492713
194	0x3eb27ab1	0.3485923
195	0x3ebf25f5	0.37333646
196	0xbeda62e0	-0.4265356
197	0x3eb46566	0.3523361
198	0xbecc1505	-0.39859787
199	0x3e236f3f	0.15960406
200	0x3e63118f	0.22174667
201	0xbe4c166d	-0.1993043
202	0x3eaec532	0.34134823
203	0x3ea4216d	0.32056752
204	0x3e8224bf	0.2541866
205	0xbea4ecfd	-0.32212058
206	0x3e843926	0.2582485
207	0xbec99db2	-0.39378124
208	0xbebe00a6	-0.3710987
209	0xbeb240a2	-0.34814936
210	0xbe8fe9fa	-0.28108197
211	0x3cd7537a	0.026284922
212	0xbd98ebef	-0.07466876
213	0xbe86fb7b	-0.2636374
214	0x3e55ebb1	0.2089069
215	0xbe98ee80	-0.2986946
216	0x3e86a37b	0.262966
217	0x3ea12876	0.31476182
218	0xbe39f6be	-0.18160531
219	0xbea42817	-0.32061836
220	0xbeb8690c	-0.36017644
221	0x3ed4af7d	0.41540137
222	0x3eca9a10	0.39570665
223	0x3e8e22ed	0.2776102
224	0xbeb2afb6	-0.34899682
225	0xbe99e52f	-0.30057666
226	0x3e41ef07	0.18938838
227	0xbe469660	-0.19393301
228	0xbdcf2d8f	-0.101161115
229	0xbe9de5f5	-0.30839506
230	0x3e88a48f	0.26688048
231	0x3eac8de1	0.33701995
232	0x3c816e47	0.015799655
233	0xbda216c9	-0.07914502
234	0x3e043d21	0.12913944
235	0x3ea630c4	0.3245908
236	0x3d9e161f	0.07719063
237	0x3ea7e7e3	0.32794103
238	0xbe11277a	-0.14175215
239	0xbecca31f	-0.39968202
240	0x3ebbb134	0.36658633
241	0x3ec5a425	0.38601795
242	0xbe8f8819	-0.28033522
243	0xbda1b2a8	-0.07895404
244	0x3edd791f	0.4325647
245	0xbe8afbf3	-0.27145347
246	0xbe672861	-0.22573997
247	0x3e5af254	0.21381503
248	0x3d91eab8	0.07124847
249	0xbe86b249	-0.26307896
250	0x3eddc3ac	0.43313348
251	0xbeb641cf	-0.35597083
252	0xbe47f1ce	-0.19525835
253	0x3dde0d19	0.10842342
254	0xbd0c8490	-0.03430611
255	0xbe821f45	-0.25414482

bias f4 [128]
0	0xbe5af236	-0.21381459
1	0xbeb5c510	-0.3550191
2	0xbe8bb3bb	-0.2728556
3	0x3e2902c3	0.1650496
4	0x3ea9acc0	0.3313961
5	0xbe8433cf	-0.25820777
6	0x3e4fb9a0	0.20285654
7	0x3d0645a3	0.032781255
8	0xbe8b0278	-0.2715032
9	0xbd7d89c9	-0.06189898
10	0xbe603fcb	-0.21899335
11	0x3e2cd79f	0.16879128
12	0xbec2b9e2	-0.38032442
13	0x3ed00ad0	0.4063325
14	0xbed570c2	-0.4168759
15	0x3e3e5909	0.18588652
16	0xbe8e42fd	-0.27785483
17	0x3e768928	0.24075758
18	0xbd5e9757	-0.054343548
19	0x3eaca218	0.33717418
20	0x3c64b1a3	0.0139583675
21	0x3e2507db	0.16116278
22	0x3e6fdad7	0.23423325
23	0x3e888949	0.2666724
24	0xbedf06ea	-0.43559963
25	0xbe90dcc3	-0.28293428
26	0x3e7e9973	0.24863224
27	0xbced240c	-0.028947853
28	0x3e632d66	0.22185287
29	0x3ec4543d	0.3834552
30	0x3eb0a5dd	0.34501544
31	0x3ea4bc95	0.32175127
32	0x3e8146f0	0.25249434
33	0xbed028a4	-0.40656006
34	0xbe17cc23	-0.14823966
35	0x3da3c6e8	0.07996923
36	0x3e582783	0.21108823
37	0xbd0c10cb	-0.034195703
38	0x3e5b75da	0.21431676
39	0xbe973556	-0.2953288
40	0x3e8787bc	0.26470745
41	0xbec1a94a	-0.3782447
42	0xbe76781c	-0.24069256
43	0x3ebeac78	0.37240958
44	0xbec46726	-0.38359946
45	0x3e3ac09d	0.18237539
46	0x3e95930c	0.2921375
47	0x3e83968f	0.25700805
48	0x3e834841	0.25641063
49	0xbea65c70	-0.324924
50	0x3eba469d	0.36382
51	0xbed4edf1	-0.41587785
52	0xbd5ff6d2	-0.054678746
53	0x3e698828	0.22805846
54	0xbeaf735f	-0.3426771
55	0xbdbff1e2	-0.09372307
56	0xbebff6b4	-0.37492907
57	0x3ea5716f	0.32313105
58	0xbecb4ad9	-0.39705542
59	0xbdd95219	-0.10611362
60	0xbee16b3e	-0.44027132
61	0x3deec3db	0.1165845
62	0xbd1c626d	-0.038179804
63	0x3e918e57	0.2842891
64	0x3e0f3408	0.13984692
65	0x3e178c7a	0.14799681
66	0x3e31556f	0.17317747
67	0xbd6c8e7a	-0.057753064
68	0x3e26a73e	0.16274735
69	0x3e882f85	0.26598755
70	0xbed63479	-0.41836908
71	0xbeb3f231	-0.35145715
72	0xbeb345ce	-0.35014194
73	0x3e9dbbfe	0.3080749
74	0x3e32d9c8	0.1746589
75	0x3ee037cd	0.43792573
76	0xbe4a6097	-0.19763409
77	0xbe71abe1	-0.23600723
78	0x3ed161a3	0.40894803
79	0xbe0b4642	-0.1360102
80	0xbeb2ce26	-0.34922904
81	0x3ebd124b	0.3692802
82	0xbeb32782	-0.3499108
83	0x3c9e359b	0.01931267
84	0x3d1b11e1	0.037858848
85	0xbe9782a9	-0.29591873
86	0xbd45800e	-0.048217826
87	0x3eae9823	0.34100446
88	0xbe638482	-0.22218516
89	0x3dde28ea	0.108476475
90	0x3edc0daa	0.42979175
91	0xbdc9d268	-0.09854585
92	0x3e0affed	0.1357419
93	0x3ea70766	0.32622832
94	0xbe932956	-0.28742474
95	0x3e349cf7	0.17638002
96	0xbecb89fc	-0.3975371
97	0xbeb5cb83	-0.3550683
98	0x3e074b2a	0.13212267
99	0x3dd67fe1	0.1047361
100	0xbe965ff4	-0.2937008
101	0x3e58f886	0.21188554
102	0xbe9a7b99	-0.30172423
103	0x3edc187b	0.42987427
104	0x3dcf76c7	0.10130077
105	0xbdfb2610	-0.12263119
106	0xbee26400	-0.4421692
107	0x3e1071e8	0.14105952
108	0xbe3e3ad9	-0.18577136
109	0x3d582223	0.05276693
110	0xbeae228d	-0.34010735
111	0xbe80004b	-0.25000224
112	0x3dc474ba	0.09592576
113	0x3e38f7c9	0.18063273
114	0xbe985591	-0.29752782
115	0xbeb26432	-0.34842068
116	0x3ec5f012	0.38659722
117	0x3e49f707	0.1972314
118	0xbe30cbaf	-0.17265199
119	0xbdec4d27	-0.11538153
120	0xbe0b3c8b	-0.13597314
121	0xbee0c48f	-0.43899962
122	0xbeb8a497	-0.36063072
123	0x3e488434	0.19581681
124	0xbdb89cb8	-0.09014267
125	0xbeb2ba1d	-0.34907618
126	0xbce9855a	-0.02850597
127	0x3ea313e0	0.318511

weight f4 [128, 128]
0	0x3cb49490	0.022043496
1	0x3d6d37b6	0.05791446
2	0xbd16e53e	-0.036839716
3	0x3cdeaade	0.027181085
4	0x3b18bda4	0.0023306394
5	0x3d8c50a7	0.06851321
6	0xbd9789a2	-0.07399298
7	0x3db0b246	0.08627753
8	0xbb6c95fe	-0.0036100144
9	0xbd323d91	-0.043515746
10	0x3d8f3325	0.06992177
11	0xbd17e569	-0.037084017
12	0x3d9ae20e	0.07562648
13	0x3d117c33	0.035518836
14	0x3d870880	0.06593418
15	0xbc2b79a3	-0.010466012
16	0x3bac5e8e	0.0052602952
17	0xbd688310	-0.056765616
18	0xbd2623e6	-0.04056158
19	0xbd42dd3a	-0.04757426
20	0x3c3f6a09	0.011682996
21	0x3d87bdfa	0.06628032
22	0xbd71acc0	-0.059002638
23	0x3d192cd5	0.03739627
24	0xbd37c055	-0.044861156
25	0xbda42383	-0.08014586
26	0x3db30dbe	0.087428555
27	0xbcea299b	-0.028584292
28	0x3d091fb2	0.033477493
29	0xbd2b945e	-0.04188954
30	0x3d168a5f	0.036753055
31	0xbd91f6be	-0.071271405
32	0x3d87e465	0.0663536
33	0xbd09c353	-0.03363354
34	0xbbd6e1d0	-0.0065576807
35	0xbd9d5ae0	-0.07683349
36	0x3c7b8d05	0.015353446
37	0x3d8f1fd1	0.069884904
38	0xbbfc92fa	-0.0077079507
39	0xbd18a3e7	-0.037265684
40	0x3d760517	0.060063448
41	0x3c81e308	0.015855327
42	0x3c307475	0.010769953
43	0xbd897850	-0.06712401
44	0xbc58e474	-0.013238061
45	0xbd3bad33	-0.045819473
46	0x3da665a3	0.081248544
47	0x3b360dc9	0.0027779213
48	0xbd5875c1	-0.052846674
49	0x3d0ec4de	0.034855716
50	0xba8c7ecb	-0.001071894
51	0xbd5c767a	-0.053823926
52	0xbd637069	-0.055527125
53	0x3cd0f3b8	0.02550684
54	0xbda1bc73	-0.07897272
55	0xbd8832a6	-0.066502854
56	0x3bdbb57b	0.0067049838
57	0x3d98c5fe	0.07459639
58	0xbd64efbd	-0.055892695
59	0xbcc33ea3	-0.023833578
60	0x3db36a8c	0.087605566
61	0x3d265fd1	0.04061872
62	0xbd68addf	-0.05680644
63	0x3ca4c05c	0.020111255
64	0xbd0f2e67	-0.034956362
65	0x3cd320e9	0.025772529
66	0x3dacf6e3	0.084455274
67	0x3d832b10	0.06404698
68	0xbd4169db	-0.047220092
69	0xbd2fa628	-0.04288307
70	0xbda933dd	-0.08261845
71	0x3cc7dc2b	0.024396976
72	0x3c4aeea6	0.012386
73	0x3c3433cd	0.010998678
74	0x3c2dd6f8	0.010610335
75	0xbb959a4d	-0.004565513
76	0x3da4aa50	0.08040297
77	0xbd60fb40	-0.05492711
78	0x3a97f4ba	0.001159332
79	0x3d819176	0.063265726
80	0xbadd75b3	-0.0016896039
81	0x3d8320ef	0.06402766
82	0x3c0c8209	0.008575925
83	0x3c9ba835	0.019001106
84	0x3cc7b0f2	0.024376366
85	0x3d99562c	0.07487139
86	0xbdb4ac89	-0.08821971
87	0xbaeaf737	-0.0017926459
88	0x3d989cf1	0.07451809
89	0xbd668560	-0.05627954
90	0xbd110cd9	-0.035412643
91	0x3d6274ae	0.055287056
92	0x3d7b4dc2	0.061353453
93	0xbce98b4a	-0.028508801
94	0xbc96fea8	-0.018431976
95	0xbd9f2717	-0.07771128
96	0x3d05c90c	0.032662436
97	0x3c4f67f1	0.012659059
98	0x3d13397f	0.035943504
99	0xbbe49d63	-0.00697677
100	0xbd49adad	-0.049237896
101	0xbda6d600	-0.08146286
102	0xbb9b47dd	-0.0047387914
103	0xbc2344d4	-0.00996514
104	0xbd98d323	-0.07462146
105	0xbda29c0e	-0.07939921
106	0x3d9aa884	0.07551673
107	0xbd4e6d8f	-0.050397452
108	0x3d2f3067	0.04277077
109	0xbb3a6abb	-0.0028444964
110	0xbcbede51	-0.023299368
111	0xbccf5999	-0.025311278
112	0xbdad62ba	-0.08466096
113	0x3c9617e3	0.018321937
114	0x3d815c8d	0.06316481
115	0x3ce4281a	0.027851153
116	0x3db19511	0.0867101
117	0xbc126582	-0.008935334
118	0xbc9a1a26	-0.018811297
119	0x3d3adf00	0.045622826
120	0x3d87c117	0.06628626
121	0x3da186a3	0.07887008
122	0x3d51f0cf	0.051255044
123	0xbd4a0278	-0.04931876
124	0x3da95b3f	0.08269357
125	0x3caaac70	0.020834178
126	0xbc920d7a	-0.017828692
127	0x3d2f9e65	0.042875666
128	0x3d8f442e	0.06995426
129	0x3d281ec3	0.04104496
130	0xbcc10869	-0.02356358
131	0xbd18d180	-0.03730917
132	0xbd4e735c	-0.050402984
133	0x3db0d762	0.08634831
134	0xbc49ca71	-0.012316332
135	0x3d687b27	0.056758072
136	0xbcca88e0	-0.02472347
137	0xbd4a3845	-0.04937007
138	0xbc838e5a	-0.01605909
139	0x3d1721da	0.036897518
140	0xbd213fd1	-0.0393675
141	0xbd9011b9	-0.0703463
142	0xbd18a5f5	-0.037267644
143	0xbd9098a9	-0.070603676
144	0xbd11f7f9	-0.035636876
145	0x3d8d8962	0.06910969
146	0x3d38c3dd	0.045108665
147	0x3cc093a5	0.023507902
148	0x3d04d280	0.03242731
149	0x3cdfd074	0.027321078
150	0xbd4e52ce	-0.050371937
151	0x3d3dfc31	0.046383087
152	0xbda01ec9	-0.07818372
153	0xbd33b2cb	-0.043871682
154	0xbd3bf878	-0.045891255
155	0x3d3f6724	0.046729222
156	0xbd1360da	-0.035981037
157	0xbd73c5ec	-0.059514925
158	0xbd18247a	-0.03714416
159	0x3d6fb678	0.058523625
160	0x3cee1344	0.029061921
161	0x3daaf866	0.083481595
162	0x3d4aac2e	0.04948061
163	0x3aeceb28	0.0018075453
164	0xbd22bb17	-0.039729204
165	0x3ac366ce	0.0014907958
166	0x3d9e1d2b	0.07720407
167	0xbda43039	-0.0801701
168	0xbd9d37ac	-0.07676634
169	0xbd925994	-0.07145992
170	0x3d317bc2	0.043330915
171	0x3d8f2374	0.06989184
172	0x3cf00311	0.029298337
173	0xbd39661f	-0.045263406
174	0x3d124234	0.035707667
175	0xbd7101c6	-0.058839582
176	0x3d94d013	0.072662495
177	0xbcc69138	-0.024239168
178	0x3db18b02	0.08669092
179	0x3da7c761	0.081923254
180	0x3db12bc2	0.08650924
181	0x3ce1d4f4	0.027567364
182	0x3ac556fa	0.0015055828
183	0x3ce5a85d	0.028034383
184	0x3da3b0e9	0.07992727
185	0xbc8a943f	-0.016916392
186	0xbc6b1915	-0.014349242
187	0x3bdc6a94	0.0067265723
188	0xbd0993a7	-0.033588078
189	0xbab48f23	-0.0013775568
190	0xbd5c925b	-0.053850513
191	0x3d6fbd87	0.058530357
192	0x3d4859c5	0.048913736
193	0xbbc21170	-0.005922489
194	0x3db304ff	0.08741187
195	0xbda44fc1	-0.08023024
196	0x3da0f536	0.0785927
197	0x3d6d1f40	0.05789113
198	0xbc3e4b7d	-0.0116146775
199	0x3d877543	0.06614163
200	0xbda4bbb1	-0.08043612
201	0xbd9af4be	-0.07566212
202	0xbc929458	-0.017893001
203	0xbbd9964f	-0.0066402326
204	0xbd576ef4	-0.052596048
205	0xbd90a9e2	-0.070636526
206	0xbdadb706	-0.084821746
207	0x3da48501	0.08033181
208	0xbbac0557	-0.00524966
209	0xbd9411b4	-0.07229939
210	0x3ce645ca	0.02810945
211	0x3db6ab7e	0.08919428
212	0x3c4843f4	0.012223233
213	0x3aefe165	0.0018301426
214	0xbd760d44	-0.060071245
215	0xbd68fff3	-0.056884717
216	0x3bb5bea8	0.0055464096
217	0x3d82ccf3	0.06386747
218	0x3d0d0767	0.034430888
219	0xbd34cd76	-0.044141255
220	0xbd4cf359	-0.050036762
221	0xbd339599	-0.04384384
222	0x3c8bfcb1	0.017088266
223	0xbcd72498	-0.026262566
224	0x3d78211c	0.06057845
225	0xbd3326b9	-0.0437381
226	0xbdad0356	-0.08447902
227	0xbd1a640f	-0.03769308
228	0x3cb88e1d	0.022528702
229	0x3b81bb91	0.0039591272
230	0x3d1cfcb2	0.038326927
231	0xbc90151a	-0.017588187
232	0xbc4fbfb6	-0.012679985
233	0xbd4acca7	-0.049511578
234	0x3db04fe6	0.086089894
235	0x3d5d725d	0.054064143
236	0x3c5e5f9f	0.0135726025
237	0xbd1332e3	-0.0359372
238	0xbbdae822	-0.0066805044
239	0xbc8fa88a	-0.01753642
240	0x3db55aeb	0.08855232
241	0xbd56af0e	-0.05241304
242	0xbdb23877	-0.08702176
243	0x3c82dc3e	0.01597416
244	0x3c822297	0.015885634
245	0xbc918a8c	-0.01776626
246	0xbd8e68fa	-0.069536164
247	0xbcb8d4d4	-0.022562422
248	0xbd65e730	-0.05612868
249	0xbced4700	-0.02896452
250	0x3cd7133f	0.026254294
251	0x3d680dbe	0.05665373
252	0xbda276a1	-0.07932783
253	0xba51dc0d	-0.00080055074
254	0xbc9c65d4	-0.019091524
255	0xbb00f7f7	-0.0019679049

bias f4 [128]
0	0x3c6c2578	0.01441323
1	0xbbdb3ab9	-0.00669035
2	0x3d010f8b	0.031508964
3	0x3caef391	0.021356376
4	0xbd0e56a2	-0.03475059
5	0x3cac9792	0.021068368
6	0x3d9288d1	0.07155002
7	0xbd62662f	-0.05527323
8	0xbc238020	-0.009979278
9	0xbd851212	-0.06497587
10	0xbd16179f	-0.03664362
11	0xbc8633a5	-0.016382048
12	0xbb5a9e05	-0.0033358347
13	0xbda59206	-0.080844924
14	0x3d2d947d	0.042377938
15	0x3c5c2096	0.0134355035
16	0x3cc362a2	0.023850743
17	0x3d077cbc	0.03307794
18	0x3ca90064	0.02063007
19	0x3d439357	0.047747936
20	0xbd37d4fe	-0.04488086
21	0xbcb435fa	-0.021998394
22	0xbb8177f3	-0.0039510666
23	0xbced3f25	-0.028960774
24	0x3d4ba3b8	0.04971668
25	0xbd8f868e	-0.07008086
26	0xbd90ad3d	-0.070642926
27	0xbd461c7b	-0.048367005
28	0x3bbee8e2	0.0058261016
29	0x3d730c10	0.059337676
30	0xbd9011db	-0.07034656
31	0xbd3e197d	-0.046411026
32	0x3d269906	0.04067328
33	0x3a081233	0.00051907
34	0x3d90ced1	0.07070697
35	0x3c08581f	0.008321791
36	0x3d9acca6	0.07558565
37	0xbd073860	-0.033012748
38	0xbc6b922c	-0.014378112
39	0xbd2816d7	-0.041037407
40	0x3d964100	0.073366165
41	0xbd3fef04	-0.046858802
42	0x3d5d2ce1	0.053997878
43	0xbb75b4aa	-0.0037491717
44	0xbd28bf59	-0.04119811
45	0xbd014ce2	-0.03156746
46	0x3ce704cc	0.02820053
47	0xbcd6d0bb	-0.026222577
48	0xbd155538	-0.036458224
49	0x3d3b0508	0.045659095
50	0xbc237c29	-0.009978333
51	0x3d86a18b	0.065737806
52	0xbd9890c6	-0.07449488
53	0x3cececbf	0.028921483
54	0xbaa26b9e	-0.0012391692
55	0x3d432cee	0.04765027
56	0xbbdece7a	-0.0067995163
57	0xbda6f867	-0.08152848
58	0x3d8ca1e8	0.06866819
59	0x3d050852	0.032478638
60	0x3c62cac6	0.01384229
61	0xb9ea9694	-0.00044744147
62	0x3d8c9d75	0.0686597
63	0x3d9659a4	0.07341316
64	0xbd91dbaf	-0.071219794
65	0x3dad6654	0.08466783
66	0x3d993a45	0.07481817
67	0xbc0e94d2	-0.008702474
68	0xbc14d363	-0.009083602
69	0x3da38310	0.079839826
70	0xbd00a1ed	-0.031404424
71	0xbdab9315	-0.08377663
72	0xbca5def0	-0.020247906
73	0x3d0f6f97	0.03501853
74	0xbcc74251	-0.024323614
75	0xbd9a8953	-0.07545724
76	0xbb9da991	-0.0048114737
77	0x3bc69f63	0.006061481
78	0xbd58046f	-0.052738603
79	0x3d528f03	0.051405918
80	0xbd89e880	-0.06733799
81	0x3cfd047c	0.030885927
82	0x3ceb6969	0.028736787
83	0x3cd557a5	0.026042769
84	0x3cc73b2b	0.024320206
85	0xbdab11a6	-0.083529755
86	0x3dae5109	0.0851155
87	0xbd587d1e	-0.052853696
88	0xbcb9b076	-0.022667151
89	0xbc057d52	-0.0081475545
90	0xbcf5d711	-0.030009778
91	0x3c389875	0.011266817
92	0x3c975f75	0.018478135
93	0x3d609f62	0.0548395
94	0xbd06a2c1	-0.032870058
95	0xbd46452f	-0.048405822
96	0x3d3bd6a0	0.04585898
97	0xbce1b568	-0.027552322
98	0x3b4c26e6	0.0031151115
99	0xbd602a33	-0.054727744
100	0x3d795f7d	0.06088208
101	0x3d6526c8	0.055945188
102	0x3d568712	0.052374907
103	0x3d544bb0	0.051829994
104	0xbcce0f23	-0.025153702
105	0xbd86a8cf	-0.065751664
106	0x3d4be501	0.049778942
107	0x3d9b9dba	0.07598443
108	0x3cd3d041	0.02585614
109	0x3d2145ba	0.039373137
110	0x3d7f8cb3	0.06239004
111	0x3c8fa5e4	0.017535158
112	0xbd68d8de	-0.056847446
113	0x3b00b4f5	0.0019639109
114	0x3d7309a1	0.059335355
115	0x3d5d0f2e	0.053969555
116	0x3daaa316	0.083318874
117	0xbc9d9a5b	-0.019238641
118	0x3d62d56a	0.05537931
119	0xbda526b5	-0.080640234
120	0x3c812567	0.015764905
121	0xbd20aa30	-0.039224803
122	0x3bfd03a7	0.0077213827
123	0x3da4d7fc	0.08049008
124	0xbc23c09a	-0.00999465
125	0x3d62fa0c	0.055414245
126	0x3d60647c	0.05478333
127	0xbbd32085	-0.0064430856

weight f4 [128, 128]
0	0x3d24bb93	0.040217947
1	0x3cf8a196	0.030350488
2	0xbd195c56	-0.037441574
3	0xbda376b7	-0.079816274
4	0x3d844a9d	0.06459544
5	0xbd353c62	-0.04424704
6	0xbdb38988	-0.087664664
7	0xbd713414	-0.058887556
8	0x3bcaf6ea	0.006193985
9	0xbd94bd81	-0.072627075
10	0x3c86ab85	0.016439209
11	0xbd8afb86	-0.067862555
12	0xbd3bbe2a	-0.04583565
13	0xbd8f190c	-0.06987199
14	0x3d6c511c	0.05769454
15	0xbd35b895	-0.044365484
16	0x3dabe9d6	0.0839421
17	0x3d8f53e0	0.0699842
18	0xbd765d09	-0.06014732
19	0xbd1d9c93	-0.0384794
20	0x3d0b896d	0.034066606
21	0xbdb192df	-0.086705916
22	0x3d1b4e24	0.037916318
23	0x3d9e18f1	0.07719601
24	0xbcd82d42	-0.026388768
25	0x3c03ac1a	0.008036638
26	0xbc81c071	-0.015838834
27	0x3cf5e177	0.030014737
28	0xbd152e8a	-0.036421336
29	0x3cc2f735	0.023799518
30	0x3cfcbaf5	0.030850867
31	0xbdabfe55	-0.08398119
32	0xbd6141e2	-0.05499447
33	0x3c5384e9	0.012910106
34	0x3c55fc9f	0.013060718
35	0x3ceb207a	0.02870201
36	0xbcf8ebba	-0.03038584
37	0x3db1f7b8	0.08689827
38	0x3d78df48	0.060759813
39	0x3d5ccd7f	0.053906914
40	0x3dad64db	0.08466502
41	0xbc8d8b00	-0.017278194
42	0x3d99d5aa	0.07511456
43	0xbc98090a	-0.018558998
44	0x3d4b7949	0.049676213
45	0x3ac9670b	0.0015365792
46	0xbd17930f	-0.03700548
47	0x3db6d334	0.089270025
48	0xbc174f64	-0.009235237
49	0x3d91503f	0.07095384
50	0xbd2ed22b	-0.0426809
51	0x3d30a4f2	0.043126054
52	0xbda90dca	-0.08254583
53	0xbd92ba6f	-0.07164466
54	0x3da6e7f8	0.08149713
55	0x3da2650b	0.07929429
56	0x3d56e224	0.05246176
57	0x3c93a085	0.018020878
58	0xbc6b095b	-0.014345492
59	0xbd8a65db	-0.06757709
60	0xbccc52af	-0.02494177
61	0xbbe0f622	-0.006865279
62	0x3d44a5d9	0.048009727
63	0x3cf97fe2	0.030456487
64	0x3c708dcc	0.0146822445
65	0xbd5017af	-0.050803836
66	0x3c56855e	0.013093321
67	0x3ccdcd9b	0.025122454
68	0x3d966e9e	0.07345317
69	0x3dae39b6	0.08507101
70	0x3d04e14a	0.032441415
71	0x3d89e363	0.06732824
72	0xbd60eda4	-0.05491413
73	0xbd96f5e8	-0.07371122
74	0xbd61a586	-0.055089496
75	0x3c86c199	0.016449736
76	0x3cc0e0a6	0.02354462
77	0xbbd09c5e	-0.0063662967
78	0x3d43d541	0.047810797
79	0x3cc387f2	0.023868535
80	0x3d3ad9c9	0.045617852
81	0xbcda7699	-0.02666788
82	0x3d14a15f	0.036286708
83	0xbda87645	-0.08225683
84	0xbda8c6c5	-0.08241037
85	0xbd40e6a4	-0.047094956
86	0x3c2d432c	0.010575097
87	0xbda886ad	-0.08228812
88	0xbd9fb931	-0.07798994
89	0x3c400373	0.011719572
90	0x3d2691f2	0.040666528
91	0xbd9543b7	-0.07288306
92	0x3db53f23	0.08849933
93	0xbd7bd895	-0.061485846
94	0xbd75b84e	-0.05999022
95	0xbb998a67	-0.0046856883
96	0x3d2cf4ff	0.042225834
97	0xbcf1619e	-0.029465493
98	0x3d5d6f85	0.05406143
99	0x3d245b08	0.040125877
100	0x3da44860	0.08021617
101	0x3da75477	0.08170407
102	0xbd84df8c	-0.06487951
103	0xbd9aec7b	-0.07564636
104	0xbd473120	-0.048630834
105	0xbd9f6955	-0.07783762
106	0xbc68c43e	-0.014206944
107	0x3cfcbe1b	0.030852368
108	0xbc6c609a	-0.0144273285
109	0x3b064815	0.0020489742
110	0xbd7a4fe2	-0.06111134
111	0x3d3177e6	0.043327235
112	0xbd25f0be	-0.040512793
113	0x3d6ee8e4	0.05832757
114	0xbd20cb3e	-0.039256327
115	0xbc60c3d6	-0.013718566
116	0xbd3577e9	-0.04430381
117	0x3c92bd72	0.0179126
118	0x3d33ff25	0.043944497
119	0x3d89c9a9	0.06727917
120	0x3d203dcf	0.039121445
121	0x3d973267	0.0738266
122	0xbb87e588	-0.0041472353
123	0xbd36655c	-0.044530258
124	0xbdb0c755	-0.086317696
125	0x3d49e01d	0.049285997
126	0x3d894f2a	0.067045525
127	0xbd2188ea	-0.039437212
128	0xbcd53a3f	-0.02602875
129	0x3d80f5d0	0.06296885
130	0xbd9fe34a	-0.07807024
131	0x3d38e935	0.04514428
132	0xbcb3d6b8	-0.021952972
133	0x3aa10f29	0.0012287843
134	0xbca1f5d3	-0.019770538
135	0xbd90a655	-0.07062975
136	0xbce295c8	-0.027659312
137	0x3d8d6003	0.069030784
138	0x3c81a15b	0.01582401
139	0xbd858d6a	-0.06521113
140	0xbd052360	-0.03250444
141	0xbd55f2e7	-0.052233603
142	0xbd8efa09	-0.06981284
143	0x3c3ca1d2	0.01151319
144	0xbbf25384	-0.0073952097
145	0x3db1ffac	0.08691344
146	0xbd239854	-0.039940193
147	0xbd1fdaaf	-0.039026912
148	0x3d9102c3	0.07080605
149	0x3d9f57ef	0.07780444
150	0xbd84d63f	-0.06486177
151	0xbd9d02e6	-0.076665685
152	0xbca82d7d	-0.020529503
153	0x3db42d5d	0.08797715
154	0x3d9746f5	0.07386581
155	0x3d980b8d	0.07424078
156	0xbd0b60ab	-0.034027737
157	0xbbf5e615	-0.0075042346
158	0x3c9b41a1	0.018952193
159	0xbc5c2790	-0.013437167
160	0x3d17e2d1	0.037081543
161	0xbdb134e5	-0.08652667
162	0x3da64561	0.08118702
163	0x3db0b10e	0.086275205
164	0x3ca71266	0.020394515
165	0x3cfa9126	0.03058679
166	0x3cda21d4	0.026627459
167	0x3db3af69	0.08773691
168	0x3d06b112	0.03288371
169	0x3d897f44	0.06713727
170	0xbd5e7dc2	-0.05431915
171	0xbc936541	-0.017992618
172	0xbc75e343	-0.015007797
173	0x3d8ae51b	0.0678198
174	0xbce6ae2d	-0.028159225
175	0xbd3deeee	-0.04637044
176	0x3d948705	0.072523154
177	0x3d8f1f9a	0.069884494
178	0x3d827aee	0.06371103
179	0x3cbe8ab4	0.023259498
180	0x3db42e68	0.08797914
181	0xbd5b43e3	-0.05353154
182	0x3d54251c	0.051793203
183	0xbd3034db	-0.043019157
184	0x3cb39fb6	0.021926742
185	0x3d57d328	0.05269161
186	0xbc9fbffd	-0.019500727
187	0x3c8d99e7	0.0172853
188	0xbd822727	-0.06355124
189	0x3c940059	0.018066572
190	0xbd652c20	-0.055950284
191	0x3c0bd83c	0.008535441
192	0xbd855633	-0.06510582
193	0x3ce83ada	0.028348375
194	0xbcd7185e	-0.026256736
195	0xbd8834b7	-0.066506796
196	0x3daceaa2	0.0844319
197	0xbd633a1b	-0.055475336
198	0xbd994c60	-0.074852705
199	0x3d2de7e5	0.04245748
200	0xbb8b7cc1	-0.004256815
201	0x3cb97a71	0.022641392
202	0xbc9ca931	-0.019123645
203	0xbc1dd568	-0.0096334
204	0x3d6c799c	0.057733163
205	0x3d1b63e3	0.037937056
206	0x3c002b32	0.007822799
207	0x3d64f946	0.05590179
208	0x3d50084c	0.050789163
209	0x3cb1a78a	0.021686334
210	0x3db02670	0.08601081
211	0xbc833a72	-0.01601908
212	0x3be0e84c	0.0068636294
213	0xbd6599db	-0.05605493
214	0x3d280c2c	0.041027233
215	0xbca9ab97	-0.020711703
216	0x3c42eeea	0.011897782
217	0x3d2e9fae	0.04263275
218	0xbd751b70	-0.05984062
219	0x3da26416	0.07929246
220	0x3ccd792e	0.025082197
221	0xbd8eb313	-0.069677494
222	0x3daeeff3	0.085418604
223	0xbd0f80de	-0.035035007
224	0xbc83a440	-0.016069531
225	0xbd19eb41	-0.03757787
226	0xbbc55429	-0.0060219956
227	0xbcd08af5	-0.025456885
228	0x3d919e09	0.07110221
229	0xbb7e5ac8	-0.0038811434
230	0xbbb5f205	-0.0055525326
231	0xbb838dbb	-0.0040146983
232	0x3ca5e732	0.020251844
233	0xbd7e51e5	-0.06208982
234	0x3d05e9c4	0.03269364
235	0x3c16ad2d	0.009196562
236	0x3d77da97	0.060511198
237	0xbd052e26	-0.032514714
238	0xbd6c08e1	-0.057625655
239	0x3ba1153f	0.004915863
240	0x3cd9a21d	0.02656656
241	0x3d9b6e7b	0.07589432
242	0x3d9fb179	0.07797522
243	0xbd06264b	-0.032751363
244	0x3cf4d1fd	0.029885286
245	0xbb90c9a1	-0.0044185673
246	0xbd5d7e4b	-0.05407552
247	0xbd1840a2	-0.037171014
248	0xbc4252b8	-0.011860542
249	0x3d72a21b	0.059236627
250	0xbd7a72cd	-0.06114464
251	0x3d8a9787	0.06767183
252	0x3d0887b7	0.033332553
253	0xbd569a84	-0.05239345
254	0xbd0ebb7a	-0.03484676
255	0xbcb1f6d0	-0.021724135

bias f4 [128]
0	0x3da30d02	0.079614654
1	0x3b99da7f	0.004695236
2	0xbd9b4ead	-0.075833656
3	0xbb5e8336	-0.003395272
4	0xbd6a7314	-0.057238653
5	0xbb13ca1a	-0.0022550882
6	0xbb65f84c	-0.0035090623
7	0x3d95aacb	0.07307967
8	0xbda8c24c	-0.08240184
9	0x3cf801e1	0.030274333
10	0xba13bd2d	-0.00056357944
11	0xbdaeb6a4	-0.0853093
12	0xbd3cdcd3	-0.046109032
13	0xbd63aadb	-0.055582862
14	0x3d91c625	0.07117871
15	0xbd2a32ba	-0.041552283
16	0xbd68558e	-0.056722216
17	0x3b475518	0.003041571
18	0x3da4fc93	0.08055987
19	0x3d487ecd	0.04894905
20	0xbcc3217b	-0.023819676
21	0x3d2579ba	0.04039929
22	0xbd86c8f3	-0.06581297
23	0xbd8aa7c7	-0.06770282
24	0x3d61753a	0.055043437
25	0xbc9ef68c	-0.019404672
26	0xbce41be2	-0.027845327
27	0x3d050b8f	0.032481726
28	0x3c23f6fd	0.010007617
29	0xbd73223c	-0.05935882
30	0xba05070c	-0.00050745974
31	0xbd4621a0	-0.04837191
32	0xbdb501bb	-0.08838221
33	0x3c9ffee5	0.019530723
34	0xbdb382d6	-0.08765189
35	0xbc2bcb86	-0.0104855355
36	0x3a25d4bd	0.0006325951
37	0x3cbedc81	0.023298504
38	0x3d4ced46	0.05003097
39	0xbbea8bbf	-0.0071577723
40	0xbd41ad9c	-0.047284707
41	0x3a99d450	0.0011736248
42	0xbcf5ad6d	-0.029989922
43	0xbcac1a33	-0.021008587
44	0x3d7358d6	0.059410892
45	0xbd68f064	-0.05686988
46	0xbc1c8abf	-0.009554564
47	0xbcc4faca	-0.024045367
48	0xbdae249a	-0.08503075
49	0x3cd4c834	0.02597437
50	0x3d020d65	0.031751055
51	0x3d9c0fde	0.07620214
52	0xbc8aa882	-0.016926054
53	0xbd3bc15d	-0.045838702
54	0x3d16135e	0.036639564
55	0x3d77bf0a	0.060484923
56	0xbd5a7b77	-0.0533404
57	0x3c0adea3	0.008475932
58	0x3c7d4a99	0.01545968
59	0xbd52b6f4	-0.05144401
60	0xbc443cee	-0.011977417
61	0x3d5b7ec8	0.053587705
62	0x3d5ac11c	0.05340682
63	0x3b799681	0.0038084092
64	0xbd8203bf	-0.06348371
65	0x3d4052a0	0.046953797
66	0x3d5b9f22	0.053618558
67	0xbd4a4a84	-0.04938747
68	0xbca0b221	-0.019616188
69	0xbc96640b	-0.018358251
70	0x3d853bb1	0.06505526
71	0x3d83accb	0.06429442
72	0x3cc65ce8	0.024214223
73	0xbdb443cc	-0.08801994
74	0xbca5e119	-0.020248936
75	0x3ca6dd21	0.020369114
76	0xb92427a3	-0.00015655025
77	0xbd801227	-0.06253462
78	0x3d692bdf	0.056926604
79	0x3d79efd1	0.061019722
80	0xbd86b9a7	-0.06578379
81	0x3d2317ab	0.039817493
82	0x3d1c1a67	0.038111117
83	0xbd1024fa	-0.035191514
84	0xbd07a003	-0.033111583
85	0xbd55c5a5	-0.05219044
86	0x3cc43f02	0.023955826
87	0x3b8795ff	0.004137754
88	0xbdac180d	-0.08403025
89	0xbdafd6d3	-0.08585896
90	0x3d80a72c	0.062818855
91	0x3dae2173	0.08502474
92	0x3d371822	0.04470075
93	0xbd2d0ce7	-0.042248633
94	0x3d11e35d	0.03561722
95	0x3d04434d	0.032290746
96	0x3cfeb653	0.031092798
97	0x3d736271	0.059420053
98	0xbd85bc5f	-0.065300696
99	0x3b357e9e	0.0027693878
100	0x3da5438a	0.08069523
101	0x3d940b95	0.072287716
102	0xbdb46cf6	-0.08809845
103	0xbce99728	-0.02851446
104	0xbd1926ff	-0.037390705
105	0xbd6f807e	-0.05847215
106	0x3d7d94e2	0.061909564
107	0xbb83529b	-0.00400765
108	0xbd44dec4	-0.04806401
109	0x3c3f4931	0.011675165
110	0xbd598484	-0.053104892
111	0x3d88f93d	0.066881634
112	0x3b96531f	0.0045875455
113	0x3d540e7e	0.051771633
114	0xbd5b1df1	-0.05349535
115	0xbda27289	-0.07932002
116	0xbd26a8e4	-0.04068841
117	0x3d971bba	0.07378335
118	0x3db79e36	0.08965723
119	0x3d358987	0.04432061
120	0x3d6c335f	0.05766618
121	0xbd63d6db	-0.055624824
122	0xbcc93b83	-0.02456451
123	0x3da1cb6d	0.079001285
124	0x3d87ea4e	0.06636487
125	0x3d2675d7	0.040639725
126	0x3d3b71e1	0.0457629
127	0xbd1d527e	-0.03840875

weight f4 [2, 128]
0	0x3d7ddea2	0.061979897
1	0xbb95a1f1	-0.004566424
2	0xbd180efb	-0.03712366
3	0xbc64f258	-0.013973795
4	0xbd1eeea4	-0.038801804
5	0x3d664586	0.056218646
6	0xb984f345	-0.00025358252
7	0x3ca058a4	0.019573517
8	0xbd85c186	-0.06531052
9	0xbcaca4ca	-0.021074671
10	0x3da44c65	0.080223836
11	0x3d2e6672	0.04257817
12	0xbd81b64a	-0.06333597
13	0x3d59327b	0.053026658
14	0xba992d8d	-0.0011686549
15	0x3d9e5d34	0.07732621
16	0xbc8c5cc6	-0.017134082
17	0x3d0c6af6	0.034281693
18	0x3bd4aaf9	0.006490108
19	0x3d614f8f	0.055007514
20	0x3c31a621	0.010842831
21	0xbd9ad8cc	-0.07560882
22	0xbd928e77	-0.07156079
23	0x3d6e724f	0.058214482
24	0x3d869734	0.065718085
25	0xbc779c51	-0.015112952
26	0xbd219eb2	-0.039457984
27	0xbd9e2866	-0.07722549
28	0xbd8f8f6e	-0.07009779
29	0x3d862536	0.06550066
30	0x3d120ebc	0.035658583
31	0x3c9afc0b	0.018919012
32	0x3c2b16ae	0.010442419
33	0x3abfae62	0.0014624114
34	0xbcf5ed68	-0.03002043
35	0xbd8862bd	-0.06659458
36	0x3cd57635	0.026057342
37	0xbd62b9d1	-0.05535299
38	0x3d8c74b0	0.06858194
39	0x3da94837	0.08265727
40	0xbd262fe0	-0.040573
41	0xbd8851db	-0.06656238
42	0x3ccba513	0.024858987
43	0x3d447d84	0.047971264
44	0xbda1dae6	-0.0790308
45	0xbd8a43dd	-0.06751225
46	0x3d4ef053	0.05052216
47	0xbd281348	-0.041034013
48	0x3daa320a	0.083103254
49	0xbdaabc6a	-0.083367184
50	0x3c56f971	0.013120995
51	0x3d8b5f59	0.068052955
52	0x3d96f6cc	0.073712915
53	0xbd65ac3a	-0.05607245
54	0xbc133c0b	-0.008986483
55	0x3d3d99c1	0.04628921
56	0x3cd80f6f	0.026374547
57	0x3d86ed06	0.065881774
58	0xbcae5ebf	-0.021285413
59	0x3d3c51d6	0.045976482
60	0x3d835d37	0.06414264
61	0xbd3fe277	-0.046846833
62	0xbd9a9fc6	-0.075500056
63	0x3d014fa0	0.031570077
64	0x3d0be062	0.034149535
65	0x3d98ad41	0.074549206
66	0xbd9e32f4	-0.07724562
67	0x3cf057fa	0.029338825
68	0xbbb95715	-0.005656133
69	0xbdb3158f	-0.08744346
70	0x3d8acd1b	0.06777402
71	0xbcc4cb88	-0.024022833
72	0x3d92d59b	0.07169648
73	0x3dab0494	0.083504826
74	0x3d28d3fb	0.041217785
75	0x3d4c4166	0.049867056
76	0x3d877b02	0.06615259
77	0xbcfeb5d7	-0.031092567
78	0x3d71e98b	0.059060615
79	0xbcb2c3d0	-0.021821886
80	0xbaf28b66	-0.0018504679
81	0x3d8528c1	0.06501914
82	0xbc547504	-0.012967352
83	0x3d899f54	0.067198426
84	0xbc9007ac	-0.017581783
85	0xba030ff6	-0.0004999632
86	0xbd3f6135	-0.046723563
87	0x3d36a902	0.044594772
88	0x3d1f2532	0.03885383
89	0xbccee24c	-0.025254391
90	0x3d4874a1	0.04893935
91	0xbcedbf9a	-0.029022027
92	0xbc543167	-0.012951232
93	0xbc35d6d4	-0.011098582
94	0xbda6273e	-0.081129536
95	0xbc481812	-0.01221277
96	0xbd0d8e0a	-0.034559287
97	0x3d982f3c	0.07430884
98	0xbcc3ee17	-0.023917241
99	0xbd1eda60	-0.038782477
100	0x3da9e0e2	0.08294846
101	0xbd20fdc3	-0.039304506
102	0x3d1ea995	0.038735945
103	0x3d20bfca	0.039245404
104	0xbca6de11	-0.020369561
105	0xbdaa9296	-0.0832874
106	0xbcf3600f	-0.02970889
107	0x3c07d4a7	0.008290446
108	0xbd599ade	-0.05312621
109	0xbc4fbeaa	-0.012679735
110	0xbcb5031d	-0.022096211
111	0xbd36897e	-0.044564717
112	0x3d811fb2	0.063048735
113	0xbd5df45f	-0.05418813
114	0x3d0ff6e9	0.03514758
115	0x3ce69c53	0.028150713
116	0x3c8fb642	0.017542962
117	0xbcdf68b9	-0.027271615
118	0xbce7e52b	-0.028307518
119	0xbd886b9e	-0.06661151
120	0xbd4ac155	-0.049500782
121	0x3d2ed7d1	0.042686287
122	0xbd43ed14	-0.047833517
123	0xbda3151a	-0.07963009
124	0x3d0ff849	0.035148893
125	0xbc0793e3	-0.008275005
126	0x3dadcf35	0.08486787
127	0xbd846f91	-0.06466592
128	0x3d70f0e3	0.058823477
129	0x3d4acad4	0.04950984
130	0x3d0dfdbe	0.034665816
131	0xbd4fad5e	-0.050702445
132	0x3dafae43	0.0857816
133	0x3d7b080d	0.061286975
134	0x3da0d605	0.07853321
135	0xbd8860e6	-0.06659107
136	0xbdad4ee9	-0.084623165
137	0xbc85b63d	-0.01632225
138	0x3d694a10	0.056955397
139	0xbd9d137e	-0.076697335
140	0xbae13ace	-0.0017183663
141	0x3d19f96f	0.037591394
142	0xbd541a0e	-0.05178266
143	0x3c2e44d3	0.010636526
144	0x3d8d1b59	0.06889982
145	0x3d2dc335	0.042422492
146	0xbd608a85	-0.054819603
147	0xbd625490	-0.055256426
148	0xbd8f9030	-0.070099235
149	0x3c921f1e	0.017837103
150	0xbce87daf	-0.028380243
151	0x3d63e5d9	0.05563912
152	0x3b95d88a	0.0045729326
153	0xbd2a1d8a	-0.041532077
154	0xbc9f307c	-0.019432299
155	0x3d8fda57	0.07024067
156	0x3b821151	0.0039693494
157	0x3d547477	0.051868882
158	0x3d8a03ce	0.06739007
159	0x3ce85a03	0.028363233
160	0x3cb3e3fc	0.021959297
161	0x3d834055	0.06408755
162	0x3d0197ea	0.031639017
163	0x3cad52fe	0.021157738
164	0x3db123b1	0.08649386
165	0xbd81c0d8	-0.0633561
166	0x3da753b3	0.08170261
167	0x3ba346f0	0.0049828216
168	0x3acd1ecf	0.001564944
169	0xbc28897c	-0.010286685
170	0xbc977538	-0.018488511
171	0xbc98b50b	-0.018641016
172	0x3cd5cf88	0.026099935
173	0x3d8fc55c	0.07020065
174	0xbd59cac2	-0.05317188
175	0x3c885122	0.01664025
176	0x3d58e2a5	0.05295052
177	0x3d9e02bc	0.07715365
178	0xbd890214	-0.066898495
179	0x3d7e999e	0.06215822
180	0x3d4ade57	0.049528446
181	0x392a69a9	0.00016251825
182	0xbd27a4bc	-0.040928587
183	0x3ce5e1dd	0.028061802
184	0xbd79171d	-0.06081306
185	0xbdb13c4d	-0.086540796
186	0x3d6ff3cf	0.058582123
187	0xbc7a2c75	-0.015269388
188	0xbd59923a	-0.05311797
189	0x3d86f9fa	0.06590648
190	0x3d97b165	0.07406882
191	0xbd1561b7	-0.03647014
192	0x3d005dfe	0.031339638
193	0xbcc64cac	-0.024206482
194	0x3d4f0010	0.05053717
195	0x39047aea	0.0001263429
196	0x3d216b6b	0.039409082
197	0xbcc77680	-0.024348497
198	0x3d526808	0.051368743
199	0xbd75e19e	-0.06002962
200	0xbd066b9d	-0.03281747
201	0x3dabafb5	0.08383123
202	0xbcc47e0f	-0.02398589
203	0xbd9a8007	-0.075439505
204	0x3d5e4f90	0.054275095
205	0xbd3ce424	-0.04611601
206	0xbd916459	-0.07099218
207	0x3d21c262	0.03949202
208	0x3d1d5106	0.038407348
209	0xbc97c83d	-0.018528098
210	0xbd1f74b3	-0.038929652
211	0x3c9f988f	0.019481925
212	0x3d95c004	0.07312015
213	0xbcb0adcd	-0.02156725
214	0x3c010e26	0.007876908
215	0x3ba305bb	0.0049750484
216	0xbd60eafa	-0.05491159
217	0x3d9e515b	0.07730361
218	0xbdaab5d0	-0.08335459
219	0x3d13c650	0.036077797
220	0xbd8a5455	-0.06754366
221	0x3c26f43b	0.010190065
222	0xbbdc08af	-0.0067149024
223	0xbd8b5805	-0.06803898
224	0x3d22168f	0.039572295
225	0x3d2adf6b	0.041716974
226	0xbd81fb8b	-0.06346806
227	0xbd47482a	-0.048652805
228	0x3d8e2ed7	0.06942528
229	0x3c1448e5	0.009050583
230	0x3cda7d4b	0.026671072
231	0x3c07d905	0.008291488
232	0xbcea8e8f	-0.02863243
233	0x3bac864c	0.005265033
234	0xbca810f4	-0.020515896
235	0x3d18ab81	0.037272934
236	0x3cdd75eb	0.027033767
237	0xbb9ee258	-0.0048487596
238	0xbc864ae4	-0.016393133
239	0xbcc4a04d	-0.024002219
240	0x3d1f92ec	0.038958475
241	0xbd899e44	-0.0671964
242	0xbcf6c756	-0.030124348
243	0xbd0d8b8f	-0.03455692
244	0x3d83a355	0.064276375
245	0xbd26f68a	-0.04076246
246	0x3d8dd6e6	0.06925754
247	0xbcf4dc1e	-0.029890116
248	0xbd1ff688	-0.03905347
249	0x3cc88b0e	0.024480369
250	0xbd8989a2	-0.067157045
251	0xbd111f6f	-0.035430368
252	0x3d1b8ee3	0.037978064
253	0x3cea3a37	0.028592212
254	0x3db10770	0.08643997
255	0xbd4679ea	-0.04845611

bias f4 [2]
0	0xbd478c0f	-0.048717555
1	0xbd2a19e6	-0.041528605
