model_saved/epoch_7.pth (torch, 139919 bytes, 8 tensors)

weight f4 [128, 6]
000000 b0 58 d5 3d e1 bc 2e 3e 4f 72 2a 3e 38 07 9c 3e
       0.104173064 0.17064239 0.16645168 0.30474257
000010 22 ad 18 bc 91 6a 9c 3e 0f 00 8e 3e e5 c9 a6 3d
       -0.009318622 0.30550054 0.2773442 0.08143977
000020 58 40 52 3c 4a 59 5c 3e 01 6b 48 3d 96 05 ac be
       0.012832724 0.21518436 0.048930172 -0.33598012
000030 0c 00 3a be 49 c9 8f be d2 74 b0 be 86 9b 32 be
       -0.1816408 -0.28083256 -0.34464127 -0.1744214
000040 7b 9b ab 3d 9a 78 6f 3e c0 15 65 3e c0 db 5f 3c
       0.08379265 0.2338585 0.22371578 0.013663232
000050 da 05 73 bd 78 5f 56 be 9f d0 0f be 6a 1e 8a bd
       -0.059331752 -0.20934856 -0.14044426 -0.06744082
000060 41 45 ab 3d 19 fa 67 be a7 fc 2c 3e 80 8a 91 be
       0.083628185 -0.22653998 0.16893254 -0.2842598
000070 f4 c9 4a bb 83 19 7e be 73 47 b7 be 95 fe 51 be
       -0.0030943127 -0.2481442 -0.357967 -0.20507272
000080 5c 38 f8 3c 6c 2f 9f be db 69 9a be fb c6 8a be
       0.030300312 -0.31090868 -0.30158886 -0.27104935
000090 66 cc e8 bd 3c e9 b5 3d 66 c1 90 3d ea 25 03 3e
       -0.11367111 0.088823766 0.07068138 0.12807432
0000a0 04 27 a8 be 98 fc b3 3e b3 58 9e bc 53 ba ac 3e
       -0.32842267 0.3515365 -0.019329404 0.33735904
0000b0 69 60 1e 3e 5e ff 83 3e c0 9d 7f 3e 6f 26 c9 be
       0.15466465 0.25780767 0.2496252 -0.39287135
0000c0 a0 f0 97 be 07 02 84 be c6 d8 3e 3e 0e a5 d0 3e
       -0.2967577 -0.25782797 0.1863738 0.40750927
0000d0 15 7c 9d 3d 3a 7a 89 3e 1b 30 9a 3c 16 09 05 be
       0.076896824 0.26851064 0.018821767 -0.12991747
0000e0 dc 45 85 3e 98 22 6b 3e 47 14 5c 3d 3a 2a 9d 3e
       0.2602986 0.22962415 0.053730275 0.3069628
0000f0 77 89 48 be 8e 7b 8a be 1b bf 87 be 50 ec 60 be
       -0.19583689 -0.2704739 -0.2651299 -0.21965146
000100 1c c2 b2 bd a9 a1 0b 3d 24 d8 06 3e 1c 89 24 3e
       -0.0872843 0.034089718 0.13168389 0.16067928
000110 47 d2 cb bd 86 ff df bd c4 0a ad be 62 f1 9c 3c
       -0.099522166 -0.10937409 -0.33797276 0.019158069
000120 03 73 3e be fb a3 ab 3e a1 0e 96 3e b7 1d 83 3e
       -0.18598561 0.33523545 0.29308036 0.25608608
000130 d9 91 bf 3e f4 d7 cf 3e 3b 84 ae 3e 92 ed 82 bd
       0.3741596 0.40594447 0.3408526 -0.06392969
000140 20 8c 22 bd ae 81 5c be 2f 86 3c 3e e0 15 a5 be
       -0.039684415 -0.21533844 0.18410562 -0.32243252
000150 6e 75 f8 bc aa 62 28 be b4 ee c8 3e 45 13 aa 3e
       -0.030329432 -0.16443887 0.39244616 0.33217826
000160 7c cf 30 be 8a f3 cb 3e b2 55 12 be 23 fc 0c 3e
       -0.17266649 0.39834243 -0.14290503 0.13768058
000170 57 1c 4b bc 82 84 be 3b 77 8b cc 3e 14 7c 6a 3e
       -0.012396893 0.005814136 0.39950153 0.22898895
000180 e5 de 5e be 16 f4 75 3e a1 ec 48 be 9a ba 9f 3d
       -0.21764715 0.24018893 -0.19621517 0.07799263
000190 41 6f bb 3e 5b b0 bd be 2a 2d c0 3e 50 06 b6 be
       0.36608317 -0.3704861 0.37534457 -0.3555169
0001a0 59 b9 6b 3e 8c 25 a4 3d 2a 40 b5 3e 5a 49 4d be
       0.23019923 0.08014974 0.35400516 -0.20047513
0001b0 34 57 a8 3d 4e 51 6f be c5 82 d5 3d d2 67 04 3e
       0.08219758 -0.23370859 0.10425333 0.1293023
0001c0 3b d0 82 bd 8f 53 a6 3e fa d8 40 3e bc 3f 1e be
       -0.06387373 0.32485625 0.1883277 -0.15454
0001d0 f6 8c 75 be ca 0a 65 3e a0 0b 1f be f3 9f b3 3e
       -0.23979554 0.22367397 -0.15531778 0.3508297
0001e0 50 22 f5 3d 44 53 af bd fc 8d c1 be 13 e4 b2 be
       0.11969435 -0.085608035 -0.37803638 -0.34939632
0001f0 82 ca 5f 3e a6 52 09 be f8 67 56 3d b0 f4 9a 3d
       0.21854594 -0.13410434 0.052345246 0.07566202
000200 63 8f 14 be 3e b2 8d 3d 1e 8f 8e bd f2 d0 40 be
       -0.14507823 0.069187626 -0.06960891 -0.18829706
000210 6e c0 24 3e a9 b5 8a 3c 16 07 04 be 0d 48 fb bc
       0.16089031 0.016932325 -0.12893328 -0.030674005
000220 5b 88 b9 be 7f eb 5a be 0b 09 b9 3e c6 58 dc bd
       -0.36236843 -0.21378897 0.36139712 -0.1075912
000230 a9 61 40 be 56 ef 64 3e 2b 60 c6 be ea de e8 bd
       -0.18787254 0.22356924 -0.38745245 -0.113706425
000240 00 04 8f be 3c 60 bd 3e ac ff 8f be f2 65 e5 3c
       -0.2793274 0.36987484 -0.2812475 0.028002713
000250 e1 a6 aa 3e b3 d1 82 bc 1b 11 aa 3e 49 90 b8 be
       0.33330444 -0.015969133 0.33216175 -0.3604758
000260 4a 14 a5 3e b6 63 c7 3e 7a 52 90 be 3b 48 b7 3e
       0.32242042 0.3894326 -0.28187925 0.35797295
000270 b9 27 97 be 9d 76 5b be 45 c6 2c 3e af 95 98 be
       -0.29522493 -0.21431966 0.16872509 -0.298017
000280 6a b3 86 be 51 5b 8e 3e 04 29 11 be 36 e1 82 3e
       -0.26308757 0.27804044 -0.14175802 0.25562447
000290 da 19 86 bb 9f 13 ae be 17 83 8b 3e d4 54 d4 bd
       -0.004092437 -0.33999345 0.2724845 -0.10367742
0002a0 06 21 a0 be 93 2c dc bc a0 a7 93 3e 7f 80 e0 3d
       -0.31275195 -0.026876723 0.28838825 0.10962009
0002b0 11 2f 9b 3e be c6 a4 3e de 3b b0 3d 3d 13 de bc
       0.30309346 0.32182878 0.08605169 -0.027108783
0002c0 1f 8c a9 3b b5 f0 b2 3e a8 a8 ca 3e 4f fd 1b 3e
       0.0051741744 0.3494927 0.395818 0.15233348
0002d0 61 5a a6 be 89 52 c7 3e 46 65 c7 3e ea 42 b8 bd
       -0.3249083 0.38930157 0.38944453 -0.08997138
0002e0 47 bd 0d 3e 0e 51 ce 3e 3d cb c7 3d b4 da 75 be
       0.13841735 0.40296215 0.097555615 -0.2400921
0002f0 f0 c9 a8 3e d3 09 7e be a1 f4 ca 3e fe 7e 60 be
       0.32966566 -0.24808435 0.39639762 -0.21923444
000300 ab 35 97 3d b7 fd cd 3e 23 ac 1d 3e f9 d9 a4 be
       0.07383283 0.40232632 0.15397696 -0.3219755
000310 92 7c ab be 3e a5 b0 be 9a e0 da bd f3 b1 8f be
       -0.33493477 -0.3450107 -0.106873706 -0.28065452
000320 57 98 57 3d a5 86 af bd 88 3b 22 3e 19 a7 9c 3d
       0.052635517 -0.08570603 0.15843022 0.07649059
000330 5f 16 fa bc 7b a1 99 3e 15 80 a4 3e 33 61 af 3e
       -0.030528245 0.30006012 0.3212897 0.34253845
000340 f6 c9 a5 3e 5f b7 4c be 24 2f 0b 3e be 9d ca bd
       0.32380646 -0.19991826 0.13592201 -0.09893368
000350 3c d4 6e 3e 55 96 ab be 87 0d b4 bd af 07 22 3e
       0.23323148 -0.33513132 -0.08791643 0.15823244
000360 b2 95 90 bd 9f 6e 28 3e ff e4 d6 3d 40 b7 03 be
       -0.07059802 0.16448449 0.10492896 -0.12862873
000370 79 3f bb bd 7e 09 c0 be c1 d3 d0 3e 97 21 40 be
       -0.09142966 -0.37507242 0.40786555 -0.18762814
000380 15 ad 7b 3e b5 04 3a 3e 4f 51 97 3d d2 2d d3 be
       0.24577744 0.18165858 0.07388555 -0.41245896
000390 d8 f1 af bd 51 28 bf 3e ae e1 9c 3e ad ae 89 3e
       -0.0859105 0.37335446 0.3064093 0.2689108
0003a0 46 cd 82 3e af 77 e8 3d 3c 79 c7 be 4d 73 0b be
       0.25547236 0.11350953 -0.38959682 -0.13618203
0003b0 52 ba 0c be a7 5b 79 3e dc 52 fe 3d 4a 3c a5 be
       -0.1374295 0.24351369 0.12418148 -0.3227256
0003c0 ae 82 90 be 8a de 63 3e b6 6d b6 be 8d 2c 69 3e
       -0.282247 0.2225286 -0.35630578 0.22770901
0003d0 16 05 be bd 7f e8 21 3e 78 2c ad 3c 06 42 bd 3c
       -0.09278314 0.15811346 0.021139368 0.023102771
0003e0 1b 0f 31 be b8 bd 3e 3e b9 2e a0 3d 85 ce 50 3e
       -0.17290919 0.1862706 0.07821412 0.20391281
0003f0 ad 9c 89 bd 30 1b 10 3e d1 94 58 3d 14 38 29 be
       -0.06719337 0.14072871 0.052876297 -0.16525298

bias f4 [128]
000000 41 64 98 be d8 ce 62 bd 5b 2f c5 3e c6 74 34 3e
       -0.29763988 -0.055373043 0.38512692 0.1762267
000010 48 eb d6 3d 10 94 0a 3e ec b1 21 be 70 b3 56 be
       0.10494095 0.13533044 -0.15790528 -0.20966887
000020 71 1c be be 8d 9d 67 be 29 f0 4a be 13 a5 67 be
       -0.37131074 -0.22618695 -0.19818176 -0.22621565
000030 a8 e2 b8 be 91 ab 12 3d ed ab 8f 3e e6 54 82 be
       -0.36110425 0.03580815 0.28060856 -0.25455397
000040 1d 18 39 be a4 3b a3 3e 08 09 a7 be ff d8 00 be
       -0.18075605 0.3188144 -0.32624078 -0.12582777
000050 aa b4 8c be b3 fa 65 be e0 05 28 bd c4 65 25 bd
       -0.27481586 -0.22458915 -0.041021228 -0.040380254
000060 d4 3a 0a be b8 b5 5b be b9 53 d1 bd 6b 02 99 3e
       -0.13499004 -0.21456039 -0.10221047 0.29884657
000070 93 72 a0 bc d1 29 89 3d a0 ec 46 3e 9f fb bd 3e
       -0.019585883 0.06697429 0.19426203 0.37106034
000080 ea 74 f3 bc 3c c9 37 be f2 bc f8 3d d2 ed ae 3e
       -0.029718835 -0.17947859 0.121454135 0.34165817
000090 c4 91 57 bd 4a 48 47 3d 45 af fd 3c 2f 5c 80 be
       -0.052629247 0.048652925 0.030967364 -0.2507033
0000a0 b4 4a 7a be f7 c1 b0 3c a6 2f 41 bd 48 f4 af bd
       -0.2444256 0.021576865 -0.04716458 -0.08591515
0000b0 bf 80 b1 3c 56 17 84 bd f7 92 40 bc ff 32 9d 3e
       0.021667836 -0.064497635 -0.011753789 0.3070297
0000c0 6e d4 2e be 9d 83 ef bd 90 8f 87 be bc d4 3f be
       -0.17073223 -0.11695025 -0.26476717 -0.18733495
0000d0 b0 c1 18 3e b1 5f cd 3e f2 97 5f 3d 6a 1d 13 3e
       0.14917636 0.4011207 0.054588266 0.1436669
0000e0 90 09 91 3d 9e 30 cc be 1b 2d 7c 3e 27 94 44 bd
       0.07081902 -0.39880842 0.24626581 -0.04799285
0000f0 fe d8 9c be 7a 34 65 be 7f 5b aa be 22 b9 b9 3e
       -0.30634302 -0.223833 -0.3327293 0.36274058
000100 8e e7 ac bd f1 b0 10 3e 79 b6 8d bc 9a de ba 3e
       -0.08442603 0.14129998 -0.017298924 0.36497957
000110 75 63 b4 be 54 df 54 3e 36 6f 51 39 95 62 b4 be
       -0.3523213 0.20788318 0.00019973223 -0.35231462
000120 d1 ad f9 bd 62 f0 b9 be 69 5f 72 bb e6 bb 1b 3e
       -0.12191356 -0.3631621 -0.0036983138 0.15208396
000130 16 7d ab be bb ac 96 3c 60 e3 0e bd 38 b1 88 3e
       -0.3349387 0.018392911 -0.03488481 0.26697707
000140 84 91 6e be d0 e7 c7 3e ee f0 9e bd 01 a6 6f be
       -0.23297697 0.39044046 -0.077607974 -0.23403169
000150 ab a3 34 3e 01 76 8e 3e 3d 99 27 be 6f 10 cc be
       0.1764056 0.27824405 -0.1636705 -0.39856288
000160 5a 8b 54 3e 77 1f fa 3d 0d 29 95 3e 55 27 b4 3e
       0.20756283 0.12213033 0.29132882 0.35186258
000170 ed 3e 2b bd 0f 87 51 3e c5 2f 40 3e 79 30 21 be
       -0.041808058 0.20461677 0.18768223 -0.15741147
000180 93 a0 a2 bd b3 bd 30 3d 2a c4 58 bd 36 c1 88 be
       -0.07940783 0.04314966 -0.05292145 -0.26709908
000190 a6 eb af 3e 71 c0 b6 bb 58 59 99 be 0b 1e 4c be
       0.34359473 -0.00557714 -0.29950976 -0.19933335
0001a0 d1 d2 0b 3e c2 c5 ee 3d 31 ba b2 3e cf 5b 80 3e
       0.13654639 0.11658813 0.34907678 0.25070044
0001b0 de 34 b3 3e e3 49 85 be f3 3c 9e 3d 50 9c ae 3e
       0.35001272 -0.26032934 0.07726469 0.34103632
0001c0 e1 c7 77 3e 7a ad 19 be 35 2d 92 be 7b 37 09 bd
       0.24197342 -0.15007582 -0.28550115 -0.033500176
0001d0 69 52 e1 3d 65 eb 33 be 85 56 70 3e cf 5d df 3d
       0.110020466 -0.17570265 0.23470505 0.109065644
0001e0 dc a3 c0 be 44 ae a5 be 18 ba bf bd df ae cc 3e
       -0.37625015 -0.32359517 -0.093616664 0.39977166
0001f0 80 ed be be c2 60 05 bd c1 5e 07 3e f6 25 be bc
       -0.37290573 -0.03256298 0.1321974 -0.02321146

weight f4 [128, 128]
000000 e9 df 18 bd ef 91 88 3d 17 a1 52 3c 02 5d 5c bc
       -0.037322912 0.066684596 0.01285579 -0.013449909
000010 76 a0 48 3c 34 a9 8c bd a8 d3 fc bc 09 e2 0c 3c
       0.012245288 -0.068682104 -0.030862644 0.008598813
000020 46 62 27 3d bf ac c2 3b ab e5 4c bc b5 44 88 bd
       0.040865205 0.005941003 -0.012505929 -0.0665373
000030 db d4 a2 bd b2 ce 01 bc 75 34 4e 3d 0d bc 87 bd
       -0.07950755 -0.007922815 0.050342996 -0.06627665
000040 e8 2e 5f bd 50 d7 15 3d cf 8d 90 bd 72 5f a9 3d
       -0.054488093 0.03658229 -0.07058298 0.08270158
000050 f9 4b 2f 3d da a3 d7 3c 9e 34 87 bd ca ac 1f 3d
       0.042797063 0.026323248 -0.06601833 0.038983144
000060 32 bf ae bc af 67 0c bb 7b d8 6c bc f8 4a 77 3d
       -0.021331403 -0.0021424105 -0.01445591 0.06037423
000070 d3 1e 19 3d d6 74 6d bc ee 05 07 3d e6 3f 82 bd
       0.037382912 -0.014493188 0.03296464 -0.06359844
000080 39 fa 4c 3d 07 2d 1d bb 81 67 83 3d 91 2f 8f bc
       0.05004332 -0.0023983137 0.06416226 -0.017478736
000090 dc 75 96 bc 1c 72 7d 3d 4c 47 a9 3d 57 2a d3 bc
       -0.018366747 0.0618764 0.08265552 -0.025777025
0000a0 d9 bd fb ba c6 27 83 3d 1e 8c 41 bb 1b c9 08 3d
       -0.0019206359 0.064040706 -0.002953298 0.033394914
0000b0 09 b9 b7 bd 56 f5 8b bd f7 4d 75 3b c1 9d d6 3a
       -0.089708395 -0.068339035 0.0037430504 0.0016373919
0000c0 38 28 2f bd 63 81 65 bd e0 22 60 bd 19 b5 96 bc
       -0.042762965 -0.056031596 -0.05472076 -0.018396901
0000d0 13 e4 4d 3d 25 fa 56 bc 53 06 0f 3c 79 a2 2b 3d
       0.050266337 -0.013121163 0.008729535 0.041902993
0000e0 da 8d a0 3d e2 d0 18 bd ac 7f 55 39 60 73 7b bd
       0.07839556 -0.03730858 0.00020360824 -0.061389327
0000f0 7a 79 4d 3d a7 49 e4 3c 53 57 78 3c c6 87 ac bd
       0.050164677 0.027867151 0.0151575385 -0.08424334
000100 07 6f 66 3d 1e 49 77 bd b7 91 9b 3d 72 72 4e 3c
       0.056258228 -0.060372464 0.07596152 0.012600528
000110 ba 5d 50 3d 60 a4 76 bd 8c da 16 bd f7 06 52 3d
       0.050870635 -0.060215354 -0.036829516 0.051276173
000120 2d ca 93 bd 25 4e 8a 3d 82 2f 57 3c ef 37 3c 3d
       -0.07216296 0.06753186 0.013133885 0.04595178
000130 71 69 1d bc 6a c5 af bd 35 65 7c bd bc b0 3f bd
       -0.009607659 -0.085825756 -0.061619956 -0.046799406
000140 52 c6 a5 bd db f3 92 bd b9 74 80 3d b2 71 e7 3d
       -0.08094467 -0.07175418 0.06272263 0.113009825
000150 6a 9c 0a 3c da 76 f2 3c 38 2d 9a bd df 60 82 3c
       0.008460144 0.029597688 -0.07528156 0.015915332
000160 77 26 e6 bc e3 0d 8b 3d 66 4e 94 bd 86 56 d7 3c
       -0.028094513 0.06789758 -0.07241516 0.026286375
000170 79 03 a9 3c 6e 01 99 3d 3b 3a 1e 3d 4a aa b1 3c
       0.020631539 0.07470976 0.03862975 0.021687645
000180 50 6c ac bd 5d e6 c1 3b 6d a8 0c 3d 7a 8e 98 3c
       -0.084190965 0.005917354 0.03434031 0.018622626
000190 44 83 b8 bb b2 66 9b bd 97 e2 93 bd 94 0b 14 3d
       -0.0056308825 -0.07587947 -0.07220953 0.036143854
0001a0 b7 ad 3b bd 0b cf 64 bd d2 c7 b6 bd b6 e7 d5 3c
       -0.045819964 -0.055861514 -0.089248314 0.026111465
0001b0 ed be 41 bd 50 2b 9e 3d a6 7a 0f 3d e4 f8 e1 3c
       -0.04730122 0.07723105 0.035029076 0.0275845
0001c0 64 37 2f bd 07 55 01 3c 22 a3 b4 bd f5 7b 32 bd
       -0.042777434 0.007893807 -0.088201776 -0.043575246
0001d0 8e e2 9c 3c fd 73 87 bd 3d 2e a5 3d a4 cc b5 bc
       0.019150998 -0.0661392 0.0806546 -0.022192307
0001e0 74 0e 89 3c f7 7f 4d 3b 77 7f 22 3c b8 19 46 bd
       0.016730525 0.003135679 0.009918085 -0.04836437
0001f0 c5 a8 d7 3b ae b1 a7 bc b2 03 a9 bd 97 45 18 bd
       0.006581398 -0.020470466 -0.08252658 -0.03717574
000200 78 fd 3e bd 52 f4 da bc 59 2a 18 bd 03 1e 56 3c
       -0.046628445 -0.02672783 -0.03714976 0.013068679
000210 99 57 6d bd 0e 83 ac 3d 7a 67 b7 bb 3a 6a a4 bd
       -0.057944868 0.08423434 -0.005597052 -0.080280736
000220 81 42 82 3d ce a4 96 bd d1 51 ae bc 36 29 0e bb
       0.06360341 -0.07355653 -0.021279247 -0.0021692044
000230 75 f9 71 bd 0d 91 58 bd 80 56 93 bc 76 a4 81 bd
       -0.05907579 -0.052872706 -0.017985582 -0.063301966
000240 c1 2f 82 bc 8a f3 ac bd 87 68 2a bd c2 e1 93 3c
       -0.015891911 -0.08444889 -0.04160359 0.018051986
000250 46 31 88 3d 51 e7 a3 bc 8f 6f 51 3c 6f 21 9d 3d
       0.06650023 -0.020007761 0.012782945 0.076723926
000260 ef 75 e7 bc 64 79 89 bd 8b 33 02 3d ef c7 42 bd
       -0.028254477 -0.067126065 0.031787436 -0.047553953
000270 ae 56 6e bd d8 b4 1a bd 45 78 87 3d b0 4b b2 3d
       -0.058188133 -0.037770122 0.066147365 0.087058425
000280 af af 5d bd 70 40 eb 3c 28 cf 76 3b 36 51 98 bd
       -0.054122623 0.02871725 0.0037660096 -0.07437365
000290 e9 ff 3f 3d 74 b3 af bd 2f e1 3e bd 78 51 66 3d
       0.046874914 -0.0857915 -0.04660147 0.05623004
0002a0 f9 38 16 3d 24 8c a0 3c a6 b7 08 bd 57 b9 9a bd
       0.036675427 0.019598074 -0.033378266 -0.07554882
0002b0 37 c7 d8 3c e2 00 42 3d a0 ef 4b bd 4e 6f 69 bd
       0.02646218 0.047364123 -0.04978907 -0.056990914
0002c0 c7 d2 ac 3c 1b 43 6c bd f3 f0 8a 3d 3c c6 82 3c
       0.0210966 -0.057681184 0.06784239 0.015963666
0002d0 6c ac 74 bd b8 72 96 3d b9 9d cb 3c 9c bd 37 bd
       -0.059734747 0.073460996 0.024855481 -0.04485856
0002e0 0c 6f 35 bd 87 3f ad 3d 05 2f cf 3b b6 2b 96 3d
       -0.044295356 0.084593825 0.006322744 0.07332556
0002f0 ee 78 d0 3c 06 f5 88 3d 67 da 6f 3d bf 2a 97 3d
       0.025448289 0.066873595 0.058557894 0.073812
000300 6d 01 90 bd e1 f8 91 bb 19 63 06 bd 76 bb 60 bd
       -0.07031522 -0.0044547175 -0.03280935 -0.054866277
000310 c4 bf 84 bd 7d c1 a5 3d 11 52 7d bd 74 56 79 ba
       -0.06481889 0.080935456 -0.061845843 -0.0009511479
000320 70 9e a9 3d ea 21 87 bd 66 ae 48 3d 47 a2 38 3d
       0.08282173 -0.065982655 0.048994444 0.045076635
000330 b4 f3 f9 3c ac 36 30 3c f0 bd 65 bd c4 7f 8b 3d
       0.030511715 0.010755222 -0.05608934 0.06811479
000340 10 9d 9c bd 46 48 ed bc 0f 90 88 bd bb 15 22 3c
       -0.07647145 -0.028965127 -0.06668102 0.009892876
000350 92 a5 c0 bb bf d8 0d 3d ec b6 1c bc 81 7c b3 3a
       -0.0058791125 0.034630533 -0.009565096 0.0013693721
000360 72 68 a5 3d 63 c5 0e 3d bd f2 99 3d 56 b6 34 bd
       0.08076562 0.03485621 0.07517002 -0.0441192
000370 c0 60 2d 3d 67 e7 01 bd 21 6d a6 3d e9 26 89 bd
       0.042328596 -0.031714823 0.081262834 -0.06696875
000380 85 0f 96 3b 00 6c 74 bd 4d 4e ab bd 37 b4 d8 bc
       0.004579487 -0.05967331 -0.08364544 -0.02645312
000390 a1 c7 a3 bd 9b 83 01 bd d4 ef 6a bd e8 9b 05 bd
       -0.079970606 -0.03161965 -0.057357624 -0.032619387
0003a0 f9 fd aa bd ae 0d 87 3d 92 b7 05 3d 66 31 e6 bc
       -0.08349223 0.06594406 0.03264577 -0.028099727
0003b0 11 5b d0 3c b8 14 63 3d 6c f7 a3 3c 0a be 49 3d
       0.025434049 0.05543968 0.02001544 0.0492535
0003c0 0c 11 3b 3c 2e 8c 4b 3d 7a 1d 62 3c fe 50 38 bd
       0.0114176385 0.049694233 0.013800973 -0.044999115
0003d0 4e c2 1b 3d cb 41 9a 3c 1c d3 14 3c b4 a1 d7 ba
       0.0380271 0.0188302 0.0090835355 -0.001645139
0003e0 23 34 62 3d e1 f5 4b bd 5b e4 84 3d 27 a4 36 3c
       0.055225503 -0.049795035 0.06488868 0.011147535
0003f0 ae 09 ce 3c 50 69 b0 3d 30 fb 31 bd fe 96 04 3d
       0.0251511 0.08613837 -0.04345244 0.03237056

bias f4 [128]
000000 e3 36 a9 3d 12 94 4c 3d 2d 44 ae bd c1 06 30 bd
       0.08262422 0.0499459 -0.08509097 -0.04297519
000010 7d a0 8d 3c ab c6 d2 3c 0e 32 2e bc 06 24 2e bd
       0.01728844 0.025729498 -0.010632051 -0.042514823
000020 6a 35 a7 3c 8a 99 7a 3d 7d 67 37 bd 72 21 5d bd
       0.020411212 0.061181583 -0.04477643 -0.053986974
000030 7c 05 04 3d 68 d6 3f 3d e2 94 a2 3d 3b e7 af 3d
       0.032231793 0.046835333 0.079385534 0.085890256
000040 4f 06 82 3d 07 5f 8a 3d 32 e4 a7 bd cb 6d 95 3d
       0.063488595 0.06756406 -0.08197822 0.07296332
000050 c2 ef a7 3d 0c a7 89 bd 73 f9 11 3d 89 92 83 3d
       0.08200027 -0.06721315 0.035638284 0.06424434
000060 68 7d 72 3d 14 68 9e 3b c8 2f 95 3d dd d4 03 3d
       0.059201628 0.0048341844 0.07284504 0.032185424
000070 2c cc 8e bd e4 71 6c 3d 7b bd 7c bd 7f 4b 28 bd
       -0.069725364 0.057725802 -0.06170414 -0.041087624
000080 6b fc f7 3b c3 ce 8f bc cc 2c b6 bb ef 6a 4c 3d
       0.0075679324 -0.017554646 -0.0055595394 0.049906667
000090 d6 ac af 3d b3 f5 38 b8 17 e0 1e bd 4b 90 1a bd
       0.08577888 -4.4097844e-05 -0.038787927 -0.037735265
0000a0 32 00 95 3c ab a7 65 3d c0 db e0 3c 69 9c 2e 3c
       0.01818857 0.056068104 0.027448535 0.010657408
0000b0 7c 0e 97 bb 48 1b 5d bd ef e5 72 bd 2c 04 68 3c
       -0.004609881 -0.053981096 -0.059301313 0.014161151
0000c0 be 50 2f bc c3 3d d0 bc 9d f0 87 bd db 5c 97 3d
       -0.010700403 -0.025420075 -0.0663769 0.07390758
0000d0 5a 1c 8a 3d 0b 90 4f bd 20 80 45 bd e3 50 30 bd
       0.06743689 -0.05067448 -0.048217893 -0.04304589
0000e0 37 d5 24 3d 98 04 55 bd f1 b5 57 bd b8 11 db bc
       0.0402424 -0.052006334 -0.052663747 -0.026741847
0000f0 0b bd 15 3d 1f 8c a9 bd be d5 75 bc f2 26 e9 3b
       0.03655724 -0.08278679 -0.015004573 0.0071152383
000100 0b 13 a6 bd 77 87 9d bd a5 86 41 bd dd a5 ae 3d
       -0.08109101 -0.076918535 -0.047247548 0.0852773
000110 17 e0 4f 3d cb 98 60 3d 89 1a 51 3d 2c 33 1f bc
       0.050750818 0.054833215 0.051050697 -0.00971679
000120 3f 2b 13 3d 97 60 67 bd 02 51 4c 3a c2 c9 a5 3d
       0.035929915 -0.0564886 0.00077940535 0.08095123
000130 ce a3 8d bd 53 01 40 3d de 13 ef b9 65 29 83 bd
       -0.06916009 0.046876263 -0.00045600435 -0.0640438
000140 61 1f 94 3d 10 e9 96 3d d4 4e 44 3c 14 0d 6a bd
       0.072325476 0.07368672 0.011981685 -0.05714138
000150 38 bf 14 bd ce ba 90 bd 30 d2 20 3d e1 59 66 bd
       -0.036315173 -0.0706688 0.03926295 -0.05623806
000160 ef 26 b8 bc e4 a4 ca bc 5f 47 0a 3d f0 96 68 bd
       -0.022479502 -0.02473683 0.03375947 -0.05678457
000170 0a 3e 67 bd c1 4b f7 bc 95 24 bb 3d fe c5 f4 bc
       -0.05645565 -0.03018749 0.09137837 -0.029879566
000180 fb d1 da 3c c3 73 5c 3d 11 71 36 3d db d1 4d 3d
       0.026711455 0.053821336 0.044541422 0.050248962
000190 11 fb 8a 3c 5d 37 58 3d 11 b9 a4 bd 6d 78 01 bd
       0.01696542 0.052787174 -0.08043111 -0.031608988
0001a0 d7 7e 05 3d 1a 7e cb 3c 89 6d 00 bd 8f 2e c1 3d
       0.032591667 0.024840403 -0.03135446 0.094327085
0001b0 92 d2 18 3d 42 2c 9b 3d 9f d0 79 bd 17 70 9c bd
       0.03731019 0.07576801 -0.060989972 -0.07638567
0001c0 6f d3 9a bc 70 6a 0a 3d 2e 65 1e bd 4b 18 85 bd
       -0.018899648 0.033792913 -0.03867071 -0.06498774
0001d0 dd a1 90 bd f4 5b 16 bd 4c b3 a6 bd 14 d7 3c 3d
       -0.07062123 -0.036708787 -0.08139667 0.046103552
0001e0 95 b8 37 3c 58 91 72 bd 87 f7 62 3d 6d 97 e4 bc
       0.011213441 -0.05922064 0.05541184 -0.027904237
0001f0 92 35 92 bd 76 d9 6b bd 46 64 dd 3c 76 c0 49 3d
       -0.07139124 -0.057580434 0.027025353 0.04925581

weight f4 [128, 128]
000000 46 7b c7 bc d5 28 87 bd c5 8d dc 3b 97 72 a7 bd
       -0.024350774 -0.06599585 0.0067307674 -0.08176153
000010 99 4b ac 3c 85 c3 8c 3d cf c6 a2 3d 26 47 10 3d
       0.021032142 0.0687323 0.07948076 0.035224102
000020 db e5 69 3d 61 99 1f 3d 14 29 8d 3d 8d 52 60 bd
       0.057103973 0.038964633 0.06892601 -0.054766227
000030 79 c2 75 3b f3 1b 90 bd ed 7e a4 bc 4d 3d ef bc
       0.0037499948 -0.07036581 -0.020080054 -0.029204035
000040 38 2c 7e bd 01 5c 3f bc 9c e6 73 bd cd 2f 2e 3d
       -0.06205389 -0.01167965 -0.059546098 0.042526055
000050 bc ac e3 bc 2f a2 88 bb 7c 7f 0a bd 80 7e 21 bd
       -0.027792327 -0.0041697244 -0.033812985 -0.03942728
000060 ad 2f 61 bc 7d ed b2 3d d1 cc 07 3d 68 6e 7b 3d
       -0.013744277 0.087367035 0.033154313 0.06138459
000070 b3 52 a2 bc 3e 4c 01 bc c7 8a 59 3d 4a 42 b4 3d
       -0.019814825 -0.007891713 0.053110864 0.08801706
000080 25 41 ae bd 12 a2 3b 3d 3d 13 b2 3d 8c 96 ec bc
       -0.08508519 0.04580886 0.08695076 -0.02888038
000090 3b 77 25 3d cb b1 90 3d 08 04 af bd 5e 95 7e 3d
       0.04039691 0.07065161 -0.08545691 0.062154166
0000a0 99 ad 13 3c b6 80 7d bd 2c 80 42 3d c3 9c 5e bd
       0.009013557 -0.061890326 0.047485515 -0.05434872
0000b0 3c 77 ac bd 5a 49 61 bd 2e 1b 00 3d d5 b3 2b bc
       -0.0842118 -0.055001594 0.03127592 -0.010479887
0000c0 8e e5 af bd 5c c2 7e 3c 9a 4b 3e bd f1 93 a7 3d
       -0.08588706 0.015549269 -0.046458818 0.081825145
0000d0 7c f2 9a 3d fa 83 11 bd f0 ca c2 3a 41 b7 86 3d
       0.075657815 -0.035526253 0.0014861505 0.06577922
0000e0 4e 82 89 bd d9 4d 1c bd 79 2a 1b 3c 96 7c b2 3d
       -0.06714307 -0.03816018 0.0094705755 0.08715169
0000f0 25 aa 18 3c 2d df ac 3d 9b 07 8b 3d e1 58 8c 3d
       0.009317909 0.08441005 0.0678856 0.0685289
000100 b0 fe c2 3c 50 f1 cc 3c bd 1c 84 3b c6 8c 2e bc
       0.023803085 0.02501741 0.004031746 -0.01065368
000110 89 ab ac bd 21 15 49 bd 62 16 33 3d 13 53 a6 3c
       -0.08431155 -0.049092416 0.043722518 0.020303285
000120 d0 e5 45 3c 5e 41 9f 3c d0 49 b2 3d 0a 2f a1 bd
       0.012078717 0.01944035 0.08705485 -0.078703
000130 0f 72 9b 3d 43 ad 1e 3d e7 8d 10 3d be 15 e8 bc
       0.07590114 0.038739454 0.03529158 -0.02833068
000140 5b 0d ff bc dd 4f ef bc 64 d8 85 bd 94 ab 4d bd
       -0.031134298 -0.029212886 -0.06535414 -0.050212458
000150 61 8d 41 3d 3f 8f c3 3b 26 c0 9d 3c 32 90 8d 3b
       0.04725397 0.005968004 0.019256663 0.004320168
000160 e3 70 52 3d 33 2c 6f bc a0 b8 a0 bd e5 0d 6a bd
       0.05137719 -0.01459794 -0.078477144 -0.057142157
000170 5e 25 76 bd fd 45 73 bd 56 6d db bc da f2 98 3d
       -0.06009423 -0.059392918 -0.026785534 0.07468195
000180 5d 78 72 bd fa 6e 5c 3d 4b 53 29 bd d6 a9 89 bd
       -0.05919682 0.053816773 -0.0413392 -0.06721847
000190 3a 0a 77 3d f5 2e 02 3c dd 59 e0 bb 9e 2c a0 bd
       0.060312487 0.007945766 -0.00684665 -0.0782101
0001a0 19 ac 01 3c 58 f0 a4 bd 33 e4 6d bd 94 cf 09 bd
       0.007914566 -0.080536544 -0.058078956 -0.033645228
0001b0 fe b2 3c bd 66 33 3d bb 2f 0b 3d bc a5 28 9a bd
       -0.046069138 -0.0028869747 -0.011538311 -0.075272836
0001c0 a4 e3 3c 3d b2 5e 40 bd df e8 fe 3c 5f 5f 37 bd
       0.046115533 -0.04696531 0.031116901 -0.044768687
0001d0 5c 74 7f bd 57 e9 60 bd 97 f1 b0 3c d0 8a 5f bc
       -0.06236683 -0.05491003 0.021599574 -0.013643935
0001e0 c5 6c cd 3b 28 f7 00 3d 1b 0e 40 bc 23 e2 4b 3d
       0.00626907 0.031485707 -0.011722113 0.049776208
0001f0 92 75 3f bd 70 88 61 3d 41 04 bb bc c6 22 81 bd
       -0.046742983 0.055061758 -0.022829177 -0.06305461
000200 5a 9a bc 3d d0 3f 94 bc 45 a5 4b bd ad 98 79 3d
       0.09209128 -0.018096834 -0.04971816 0.06093662
000210 18 cc 03 3d 1e f0 91 bc 6b f8 d2 bb e9 a7 00 bd
       0.03217706 -0.017814692 -0.006438305 -0.03141013
000220 52 8b 9f bd 2e e2 ad bd fe 2e 1a bd aa ae bc bb
       -0.07790245 -0.08490406 -0.03764247 -0.0057581263
000230 40 21 f9 3c de 53 3f bd 2b d2 9a bd 97 85 11 b9
       0.030411363 -0.04671084 -0.075596176 -0.00013878044
000240 b9 a1 a0 bc c2 eb cf bc c1 b1 57 bd 40 f9 b9 bb
       -0.019608365 -0.025380973 -0.052659754 -0.005675465
000250 c9 37 99 bc 54 f1 23 3d 36 35 12 3d 77 2d 94 3d
       -0.018703358 0.04002507 0.035695277 0.07235234
000260 97 ba 8a 3d 3d 8e 84 bd 3e 24 52 3d 39 0d 1b bd
       0.067738704 -0.06472442 0.051304094 -0.037854407
000270 48 6d 9d bd bc 55 39 3d e4 9c 6e bc 5d 52 9a 3d
       -0.07686859 0.04524778 -0.014563773 0.07535241
000280 43 4a b2 3d f7 73 b5 bb f2 cc 54 bc d6 42 55 3c
       0.087055705 -0.0055375057 -0.012988316 0.013016423
000290 72 9a e6 3c 0e 9e 8b 3d 09 89 cb 3c f8 c7 ba 3c
       0.028149817 0.06817256 0.024845617 0.02280043
0002a0 db 31 6c 3d 14 b1 a7 bc 95 3a 62 3b b5 02 71 bc
       0.057664733 -0.02047018 0.003451978 -0.014710118
0002b0 8b 39 58 bd 8d c7 1c 3d a3 5f af bd ee e2 4b bd
       -0.052789252 0.038276244 -0.08563163 -0.049776964
0002c0 f6 8f a3 3d fd bf 70 bd ac 2d d2 bc 75 d1 9a 3d
       0.07986443 -0.058776844 -0.025656544 0.07559482
0002d0 51 9d ae bd a2 97 49 bd 51 ba f2 bb ca 0c af 3d
       -0.085260995 -0.049216874 -0.0074074646 0.08547361
0002e0 9b fe 40 3d 1c f7 b2 bd f5 dc b5 3c 7f 98 72 3c
       0.04711781 -0.087385386 0.022200087 0.014806866
0002f0 db 72 32 bc 6a 4c 46 bd 69 ac f0 bc ac 14 05 3b
       -0.0108916415 -0.048412718 -0.029379087 0.002030651
000300 50 9a 93 3c 15 7b 95 3d e3 35 34 bb d5 83 85 3d
       0.018017918 0.07298867 -0.002749794 0.065192856
000310 90 19 0a bd a9 1f b9 3c 64 e8 ba bc a1 5a 9b 3c
       -0.033715785 0.022598105 -0.02281589 0.018964114
000320 c4 7b 9c bd ad b3 3a 3c 0c 0f d2 3c 47 5e 5f bc
       -0.07640794 0.011395377 0.02564194 -0.013633317
000330 53 da 18 3d 17 25 6e bd 5e 72 76 bb 38 fb 08 bd
       0.037317585 -0.05814084 -0.003760479 -0.033442706
000340 46 52 a4 bd fe b6 16 bc d3 bc 71 bd 43 20 2e 3d
       -0.08023505 -0.009198902 -0.059017967 0.042511236
000350 03 89 3e 3d 1c db 86 3d 87 44 71 bd 79 9e e8 bc
       0.046517383 0.065847605 -0.058903243 -0.028395878
000360 23 9b 05 3d 8f d2 61 bd 37 9e 42 bd 23 0b 84 3d
       0.032618653 -0.055132445 -0.047514167 0.06447437
000370 10 c3 20 bd 82 3d 22 3b 02 af 9a 3d 04 89 41 bd
       -0.039248526 0.00247559 0.07552911 -0.04724981
000380 27 91 8d bb c4 19 53 bb b4 dc 8b 3d de 4c 99 3d
       -0.004320282 -0.0032211402 0.06829205 0.074853644
000390 86 19 c7 bc 61 b7 3a 3c 9e e0 a5 bd 23 af 50 3c
       -0.024304163 0.01139626 -0.08099483 0.012737068
0003a0 da b0 57 3d 05 ef 94 3d fe 58 27 bd 47 7f 9b bd
       0.052658893 0.07272152 -0.040856354 -0.075926356
0003b0 e5 ff a7 bc 71 9e e4 bb d5 4e 2b 3d 71 f4 90 3d
       -0.020507762 -0.0069768955 0.041823227 0.070778735
0003c0 63 53 3c bd 51 ef 80 3d d4 3c 6f bd 46 2f 91 3d
       -0.04597796 0.06295646 -0.05840762 0.07089095
0003d0 04 5e 98 3d bc 53 b8 bd e0 1b 92 bd 22 ce 9c bd
       0.07439807 -0.09000346 -0.07134223 -0.07656504
0003e0 05 c7 bb bc 12 db 1c bd 49 48 5f bd 75 97 2e bd
       -0.022922048 -0.03829486 -0.054512296 -0.04262491
0003f0 ac b4 df bc d9 9a c1 bc 06 51 60 3d 7f 5f 0b 3d
       -0.02730783 -0.023633407 0.05476477 0.03402662

bias f4 [128]
000000 c7 1c 85 bc 25 f5 b0 bd 88 92 01 bd 12 6b 98 3d
       -0.016249074 -0.086405076 -0.031633884 0.07442297
000010 53 6d 5e bd 84 1e c4 bc 71 f8 54 bd bf e6 ba 3d
       -0.05430348 -0.023940332 -0.051994745 0.091260426
000020 c2 9a 74 3d c5 b2 a5 bc a8 44 cd bc f4 26 4b bd
       0.0597179 -0.020226846 -0.025057152 -0.049597695
000030 3c ef 76 bd 45 56 77 bc a2 4f ac bd f7 a1 8f 3d
       -0.060286745 -0.015096252 -0.08413626 0.07013314
000040 ef 2c e3 3c 1a a1 fe bb 9d 08 58 3d 8a b6 98 bd
       0.027731387 -0.0077706696 0.05274259 -0.074566916
000050 ed 48 a2 bd cf 66 6b bd 5c 9c 99 3b 66 60 89 3d
       -0.07924066 -0.057471093 0.004687829 0.0670784
000060 8b 59 8c bd ba 1d a1 bd a5 80 9f bd db bd 9b bd
       -0.068530165 -0.07866998 -0.07788209 -0.076045714
000070 86 3e 9b 3d ae 9e a1 bd 11 de ae bd ef c9 8d bd
       0.07580285 -0.07891594 -0.085384496 -0.069232814
000080 83 4e 1a 3d fd f9 71 3c a5 2a 54 bd a9 c4 60 bc
       0.03767253 0.0147690745 -0.05179848 -0.013718762
000090 5e 4b 60 3c 32 53 b2 bd d1 70 02 bd 6f 72 27 bd
       0.013689844 -0.087072745 -0.03184587 -0.040880617
0000a0 83 5d 24 bb 30 42 b3 3d 4c e1 ad bd 36 93 4a 39
       -0.0025080151 0.08752859 -0.084902376 0.00019319062
0000b0 bd e0 65 bd 62 8f 8c bd 6e 6c d4 3c 45 08 53 3c
       -0.05612253 -0.068632856 0.02593061 0.01288039
0000c0 dd 81 a7 3d d0 79 d4 3c dd 7c 22 bd 37 59 61 3d
       0.08179066 0.025936991 -0.03966986 0.055016723
0000d0 d7 86 ac bd bb 89 0b 3d fe b5 b2 bd 46 fe 91 3c
       -0.08424156 0.034066897 -0.087261185 0.017821442
0000e0 dd f2 2c 3c 58 31 b5 3d 7d 52 15 3d b2 11 a2 3d
       0.01055595 0.08847302 0.03645562 0.07913531
0000f0 47 17 b1 3d 66 f0 39 bd e8 0f 9f 3d 73 e9 92 bc
       0.08647018 -0.045395277 0.07766706 -0.017933583
000100 21 c8 b1 bb 69 4c 82 bd 29 e5 00 3d aa fa 28 3d
       -0.0054254686 -0.0636223 0.031468544 0.041254677
000110 f8 b8 ae bd a3 ee af bb 40 e6 25 bd 0c b7 a4 bd
       -0.08531374 -0.005369024 -0.040502787 -0.08042726
000120 ef 80 6c 3d e2 af b3 bc 5b ef 30 3d 3c 51 87 3d
       0.05774015 -0.021934453 0.043197017 0.06607291
000130 a7 93 ce bc 56 7a b4 3d 67 88 37 3c 88 06 17 bd
       -0.02521689 0.08812396 0.011201954 -0.036871463
000140 9e 06 b7 3b 6d 29 14 bd a1 ce 0a bd 4c a6 a0 3d
       0.0055855056 -0.03617232 -0.033888463 0.078442186
000150 a2 d6 50 bc 00 27 ab bd bf fa 44 bc 45 ca a2 3c
       -0.012746485 -0.08357048 -0.012022673 0.01987184
000160 8b f8 e4 bc f6 d0 35 bd 90 a3 b6 3c 5f 00 fc 3c
       -0.027950546 -0.044388734 0.02229479 0.030761896
000170 8c 45 3a bb a9 3a 23 bc c7 07 26 bc 87 98 c0 bc
       -0.00284228 -0.009962716 -0.01013369 -0.02351023
000180 ee 1f cb 3c 53 7b 88 bd bc e7 a9 3d 10 cd 7b bc
       0.024795499 -0.06664147 0.08296153 -0.015368715
000190 d4 f7 95 bd 13 34 aa 3c 24 38 ec bc c5 69 26 3c
       -0.0732266 0.020776784 -0.028835364 0.010157053
0001a0 ee 32 51 bd db 44 81 bd d7 43 ae bd 25 2a 90 bc
       -0.05107396 -0.06311961 -0.08509033 -0.017598221
0001b0 be 11 ad bd bf 79 8a bd cb ed 9e bd f9 88 80 bc
       -0.0845065 -0.067615025 -0.07760199 -0.015690314
0001c0 4a 86 a9 bd 46 f4 83 3c cf b9 96 bd 44 7d af 3d
       -0.08277567 0.01610769 -0.07359659 0.085688144
0001d0 48 02 89 3b 6b 1e 13 bc 70 83 69 bd 3a 11 bf bc
       0.00418118 -0.00897942 -0.057010114 -0.023323644
0001e0 ff f2 a4 3d 82 39 90 bd 22 bc 33 3d 8e 0f 0c bc
       0.0805416 -0.07042219 0.04388059 -0.00854863
0001f0 62 84 39 3d b4 4c 89 bd 5d 2a b0 bc e6 ab 22 3d
       0.045292266 -0.06704083 -0.021504575 0.039714716

weight f4 [2, 128]
000000 6f 33 88 3c 2f 94 7e 3d a9 b7 8e bd 43 0b 5d bb
       0.016626088 0.062153038 -0.06968624 -0.0033728636
000010 0f de 9f bd db e9 4a bd d8 bf 13 bd 89 49 18 bd
       -0.07806026 -0.04953943 -0.03607163 -0.037179504
000020 37 41 85 3c a1 9f 7f 3c e8 d0 9a bd f4 a7 06 3b
       0.016266448 0.015602023 -0.07559377 0.0020546885
000030 ed d2 9b bd bd a8 b6 bc 22 57 5a bd 3b 95 09 bc
       -0.0760859 -0.022297258 -0.053305753 -0.008397396
000040 d1 0a 86 bd 24 21 f7 3c 35 10 86 3d 78 2f a4 bb
       -0.06545032 0.03016717 0.0654606 -0.0050105415
000050 d7 f3 8b 3c 71 eb 94 bc 02 ae 34 bd 59 1b a7 3d
       0.017084045 -0.018178673 -0.04411126 0.08159513
000060 08 de 8c 3d 39 51 4f 3c f0 80 91 3d 2e 18 d1 bc
       0.068782866 0.012653642 0.07104671 -0.025524225
000070 d2 60 0c bd b3 09 b2 3d 8a bf a1 bd 56 35 1d bd
       -0.034272023 0.08693256 -0.07897861 -0.038380943
000080 e8 18 65 3b a2 f0 a9 bc c9 8e 83 bd e8 75 99 3d
       0.0034957472 -0.020744625 -0.064237185 0.07493192
000090 76 b4 55 3c 9a c7 ad 3d 49 de 69 bd 99 bc 77 bd
       0.0130435135 0.084853366 -0.057096753 -0.060482595
0000a0 5d 96 26 3c 45 26 2d bd 5a fc b4 bc 90 af 4e bb
       0.010167685 -0.042272825 -0.022092987 -0.003153775
0000b0 8e b7 02 3d e5 9d 95 bd 07 79 86 3d 8b b5 e5 3c
       0.031913333 -0.073055066 0.06566053 0.028040668
0000c0 fb 7e 44 3d 19 2f ae 3d 1f f3 4d bd 91 b9 9d 3c
       0.04797266 0.08505077 -0.050280686 0.019253524
0000d0 db 1f fe bc 46 fa e7 3b ef 99 3c bd 50 60 a0 3c
       -0.03102105 0.0070793955 -0.04604524 0.019577175
0000e0 ff 88 44 bd a5 3d ea 3b 9d 52 58 3d da b1 9e 3d
       -0.047982212 0.007148462 0.05281316 0.07748766
0000f0 60 20 99 bd d9 bf 8f bb 91 b0 05 3c a9 47 d3 3c
       -0.07476878 -0.0043868837 0.0081597725 0.025791006
000100 52 24 a0 bd ef 25 18 3a d4 6b 93 3d ce 7c 8e 3d
       -0.078194275 0.00058039924 0.07198301 0.06957398
000110 d3 0e 05 3d 0b 49 0d 3b 9e 71 d8 bb 2d b9 a3 3d
       0.03248484 0.002155843 -0.006605341 0.07994304
000120 1f da b1 3d 94 48 4d bd c4 f3 39 bd 0f 72 ea b9
       0.086841814 -0.050118044 -0.04539849 -0.00044716938
000130 45 d1 4e bd bc 2e 2a 3d dc 58 c9 3c e0 54 32 39
       -0.050492544 0.041548476 0.024578504 0.00017007021
000140 f2 b8 34 3d 76 d3 26 bc d5 d0 0b bd 6e 02 29 bd
       0.04412169 -0.010182252 -0.034134705 -0.041262083
000150 f0 3e 04 3d 2e b1 8e 3d bc ab ac bd 7c 11 27 3d
       0.032286584 0.06967388 -0.08431193 0.04078816
000160 91 e7 1e bc e6 a3 92 bc e6 9c 91 bd 3a 1b a2 3d
       -0.009698764 -0.017900418 -0.07110004 0.07915349
000170 7b 07 00 bb 49 4d 91 3c 43 e7 1c 3d 4f 7b 9a 3d
       -0.0019535709 0.017737048 0.038306486 0.075430505
000180 d7 04 9e 3d a4 32 fe 3c ee 71 a5 bd 99 31 ad bc
       0.07715767 0.031030007 -0.08078371 -0.021141814
000190 0c 60 90 3d 01 68 8b bd df bf 31 3c 5e 9d b2 3d
       0.070495695 -0.068069465 0.010848968 0.08721422
0001a0 e8 59 aa 3d 3e 6e 13 bd 11 6c 93 3d 24 3a bb 3d
       0.083179295 -0.035993807 0.071983464 0.09141949
0001b0 28 18 af 3c 8f ed 46 3c 52 89 2a bd b2 ea a4 bd
       0.021373823 0.012141599 -0.041634865 -0.08052577
0001c0 af ff 79 3d 52 59 f6 3c 0a 70 80 3c c3 f9 93 bc
       0.061034855 0.030071888 0.015678424 -0.018063432
0001d0 2d 65 63 bd 69 77 59 3c 29 15 bb 3c 91 00 bc 3c
       -0.05551641 0.0132730985 0.022837238 0.022949489
0001e0 4e 72 ad 3d a4 43 2c bc 80 f7 8f bd fc d1 85 bd
       0.084690675 -0.010514174 -0.07029629 -0.06534192
0001f0 60 82 97 bd 50 5b 24 bd 07 59 20 bb a4 16 1b bd
       -0.07397914 -0.040126145 -0.0024467127 -0.03786339
000200 71 47 65 3d 28 71 27 bd 91 29 28 3d c3 03 a8 bb
       0.055976335 -0.0408794 0.041055266 -0.0051274016
000210 0f c8 40 bd c2 cb 96 3c 8a 8d 5a bd 79 99 02 3d
       -0.04706579 0.018407706 -0.05335764 0.031884644
000220 81 ee 95 bd 22 f1 7a 3d 66 ef 0e bd aa 3f 54 3d
       -0.07320882 0.06126512 -0.034896277 0.051818527
000230 47 ef 7f bb 21 93 fd 3d ff 75 86 3d 72 b5 74 bd
       -0.0039052533 0.12381578 0.06565475 -0.059743352
000240 2e f7 7d bd e0 43 12 3c c5 21 12 bd f0 15 1c bd
       -0.062003307 0.0089273155 -0.035676736 -0.03810686
000250 f0 f1 53 bd 45 76 8c bd 1a 49 2d bc 6b 78 94 bd
       -0.0517444 -0.068584956 -0.010576511 -0.072495304
000260 95 85 3b 3d 5a c7 69 bd c7 ce 82 bd d5 0f ad 3d
       0.04578169 -0.057074882 -0.06387096 0.08450285
000270 ca 14 d4 37 e7 84 f2 3c 0a 3a 0c 3d dd f9 ed bb
       2.528205e-05 0.029604388 0.034235038 -0.007262452
000280 31 ce 13 3d 65 63 13 3c c7 7f 37 3d f9 63 9a 3d
       0.03608531 0.0089958655 0.044799592 0.075385995
000290 ab 84 4f bd 24 10 1d bd cd 94 48 bd e5 0f 62 3d
       -0.05066363 -0.03834547 -0.048970032 0.05519094
0002a0 2f e4 90 bd dd 2c c1 3c 63 80 a0 bd 0f 65 5d bd
       -0.070747726 0.023580963 -0.07836988 -0.054051455
0002b0 3a 39 81 bc f5 2b cb 3c e9 92 bb bc 6f b9 d7 bc
       -0.015774358 0.024801234 -0.0228972 -0.026333539
0002c0 c6 95 30 3c 58 83 8a bd e3 f3 7d 3d 7c bd 9c bd
       0.010777896 -0.06763333 0.062000167 -0.07653329
0002d0 84 7e dc bc 25 7c 13 bd b6 ff 4f 3d 53 e5 54 bc
       -0.026915796 -0.036007065 0.050780974 -0.012994128
0002e0 27 29 b3 3d eb 55 b0 3d a1 04 3b 3d cf ce 3b bd
       0.087480836 0.086101376 0.04565871 -0.045851525
0002f0 ec 20 0c 3c 21 24 25 3b 50 89 8e 3c a8 7c 87 bc
       0.008552771 0.0025198536 0.01739946 -0.016538933
000300 69 cc 9f 3b e7 83 9f bc ea 04 b0 3d 00 24 5a bc
       0.0048766625 -0.019472076 0.08594687 -0.013314247
000310 d6 1f a4 3d fc c8 37 bc b1 6b 56 bd fc e3 cc 3b
       0.08013885 -0.011217352 -0.052348796 0.006252764
000320 ea 93 ea bc 90 8c b9 3b 71 9e 5e bd 85 fe 8a bd
       -0.028634984 0.0056625083 -0.05435032 -0.06786827
000330 53 96 c6 bc a1 aa 8b 3c 2a 3c 9f 3d bd 0d 90 3d
       -0.024241602 0.017049136 0.07775147 0.0703387
000340 73 46 b0 3c ae f8 86 bd d2 10 9a bd fe 99 22 3c
       0.021517968 -0.06590401 -0.075227395 0.00992441
000350 98 f0 a0 bd e2 9f 61 3d 58 15 94 bc cc 28 1e bd
       -0.078583896 0.055084117 -0.018076584 -0.038613126
000360 81 66 34 3c 28 c3 bd 3c ec b4 77 bc a1 45 82 bc
       0.011010767 0.023164347 -0.015118819 -0.015902342
000370 c1 2e cb bc f8 ef 2d bc 50 00 e3 ba 7a 2e 82 bd
       -0.024802567 -0.010616295 -0.0017318819 -0.06356521
000380 44 5a 71 bd cf 1e 74 bd b3 4b 87 bd ae 06 45 3c
       -0.058923975 -0.059599694 -0.06606235 0.012025518
000390 22 78 e5 3c fd 9b a0 bd 95 27 2c bd 8d bf 76 bd
       0.028011385 -0.078422524 -0.042029936 -0.06024127
0003a0 54 99 3e 3d b0 bc 6f bd 1a 2f 8b bc da be 3f 3c
       0.046532944 -0.058529556 -0.016990233 0.011703217
0003b0 d6 cf 64 3d c5 9b 9c bd a4 5f b0 bc 0f 4f 57 3d
       0.05586227 -0.07646898 -0.02152998 0.05256563
0003c0 76 74 2e 3c c5 96 99 3c a9 ae 26 3d b7 af 96 3c
       0.010647884 0.01874865 0.040693913 0.018394334
0003d0 33 4c b5 3d 54 b9 cf 3c d6 7a 94 bd ba 8a 7c bd
       0.088524245 0.025356926 -0.072499916 -0.061655737
0003e0 33 a8 24 3d d5 79 22 3c 8a 19 b1 3c 6e 87 98 3c
       0.04019947 0.009916742 0.021618623 0.018619265
0003f0 14 b1 8c bd bb 4f 57 bb 05 c0 8d 3b ca d5 6f bd
       -0.068697125 -0.003285392 0.004325869 -0.058553495

bias f4 [2]
000000 7a 9c 9b bc cf af 70 3c
       -0.018995512 0.014690354
